OpenUtau.Core/Vogen/Data/f0.man.onnx (onnx, 27075 bytes, 18 tensors)

w6 f4 [14, 8]
0.26150337 0.5156617 0.2993984 0.23224902 1.0699841 0.2526962 1.1572734 0.5594036
0.3924615 1.0404155 0.54056346 1.0606449 0.23798208 0.31773475 0.5440914 0.37666416
0.6204095 1.1875622 0.11488669 -0.16680712 1.1881808 0.6729648 0.988673 0.72105736
0.6229527 0.46764532 0.43188867 0.17427243 0.29817218 0.90678567 1.1213602 -0.13428572
0.58033353 0.17669925 0.051121727 1.7953445 0.87591076 0.86129063 0.7411106 0.64733094
0.5982486 0.37856016 0.10981849 0.45348105 0.36477342 0.19540788 0.7342034 -0.6284759
0.75923926 0.8320708 0.8485318 1.0555601 0.3840921 0.62282574 0.2912412 0.65094024
0.8321763 0.70848805 1.3001984 0.848938 0.845877 0.72073054 0.04263059 1.3799702
0.9762966 1.42911 0.8923035 0.06480135 0.38053143 0.12528662 1.0567607 0.30935678
0.8554583 1.1054704 0.26989245 1.3563652 0.63461286 0.56836975 0.56707466 0.35244864
0.64345145 0.6984949 0.90630835 0.752773 0.85652226 -0.0031483409 1.5441588 1.273851
0.0005251753 -0.05502804 0.6339092 -0.024118522 0.8119713 -0.16482684 0.6284936 0.15371856
1.4601406 0.36097372 0.7276042 0.7803991 1.1817997 0.90562326 0.471299 0.5016389
0.1327999 1.0385177 0.5731676 0.21498469 0.5720016 0.39441928 0.32285035 0.8043088
00000000: c5e3 853e 6802 043f bf4a 993e b0d2 6d3e
00000010: 3df5 883f 6561 813e 8921 943f 1335 0f3f
00000020: b7f0 c83e 562c 853f 5e62 0a3f 36c3 873f
00000030: 93b1 733e 21ae a23e 9349 0b3f 20da c03e
00000040: 28d3 1e3f 0a02 983f b749 eb3d 7ccf 2abe
00000050: 4f16 983f 6c47 2c3f ac19 7d3f 3797 383f
00000060: d479 1f3f 356f ef3e 8320 dd3e 7974 323e
00000070: 06aa 983e 1b23 683f bb88 8f3f 3282 09be
00000080: bd90 143f a6f0 343e 0465 513d d9cd e53f
00000090: b03b 603f 8b7d 5c3f 6db9 3d3f 7bb7 253f
000000a0: d226 193f a3d2 c13e 84e8 e03d ab2e e83e
000000b0: 95c3 ba3e 0119 483e c1f4 3b3f cce3 20bf
000000c0: 815d 423f 9802 553f 6139 593f 981c 873f
000000d0: b8a7 c43e 8271 1f3f 911d 953e 05a4 263f
000000e0: 8209 553f 795f 353f e76c a63f 0054 593f
000000f0: 658b 583f cc81 383f 6a9d 2e3d dda2 b03f
00000100: 93ee 793f 14ed b63f 016e 643f 92b6 843d
00000110: 04d5 c23e 234b 003e ef43 873f 0364 9e3e
00000120: 51ff 5a3f 0e80 8d3f 582f 8a3e 609d ad3f
00000130: fd75 223f ae80 113f ce2b 113f 2674 b43e
00000140: 3cb9 243f 90d0 323f d303 683f bbb5 403f
00000150: 0b45 5b3f 6554 4ebb ffa6 c53f 8d0d a33f
00000160: ebab 093a 1565 61bd e047 223f 3594 c5bc
00000170: 5add 4f3f 5ec8 28be f5e4 203f 6668 1d3e
00000180: e3e5 ba3f 8cd1 b83e 4544 3a3f 3cc8 473f
00000190: 3645 973f edd6 673f 1a4e f13e 686b 003f
000001a0: b2fc 073e 26ee 843f 1dbb 123f f224 5c3e
000001b0: b26e 123f 53f1 c93e a44c a53e 2ee7 4d3f

q6 f4 [16, 8]
-0.48824558 -0.26558563 -0.14916779 0.2081608 -0.00097043073 -0.027503842 -0.1643486 0.2667792
-0.23081829 -0.25175968 0.0033241326 0.1988124 0.00087463245 -0.23173901 -0.03323255 0.4861674
0.29184768 0.07895771 0.16776426 -0.14203843 -0.0006174243 -0.031091537 0.15030685 -0.13705963
-0.1477115 0.4489207 0.10849068 0.32853603 -0.000101007085 -0.55489737 0.11842868 0.02205841
-0.078901425 -0.619882 -0.42346275 0.52536446 -0.00015878346 -0.057663597 -0.28173205 0.095336616
0.111885674 0.17298312 0.0951061 -0.19818033 0.00045032852 -0.21698171 0.04555167 -0.14645687
-0.02305863 -0.11588666 -0.09932977 -0.025190314 0.00067761063 0.43755758 -0.07990397 0.16472873
0.33206305 0.38519633 -0.030818999 0.23994876 0.00022666121 0.10378521 0.44605675 0.26456127
-0.29426172 -0.22255982 -0.22546545 0.37438625 0.00058122555 -0.29976052 -0.11257806 0.30430046
0.01233094 -0.100667015 -0.06632271 -0.18069185 0.00015851346 0.017677078 -0.00842643 0.071458004
0.1415491 0.18746135 0.035558764 -0.105806135 0.0004402268 0.75170785 0.024360657 -0.10318035
0.4567882 0.028632158 0.16479895 0.27603647 0.0006855053 0.19544005 -0.007829066 0.4454411
0.5739963 0.731168 0.37425646 -0.0049332203 -0.0005556365 -0.28027406 0.18864849 -0.41663563
0.012027343 0.045084573 -0.011823947 -0.008803999 -2.9426243e-05 0.26395443 -0.007926833 0.06847161
0.07293301 0.2893043 0.48191327 -0.591988 0.00023644272 -0.067249395 0.045789145 -0.43217543
-0.41597578 -0.19143105 -0.16023828 0.29474768 -0.0010122971 -0.0124377515 -0.13240863 0.16836628
00000000: 53fb f9be d7fa 87be 71bf 18be 1b28 553e
00000010: 8164 7eba bd4f e1bc 004b 28be 4997 883e
00000020: a15b 6cbe a5e6 80be b1d9 593b 7a95 4b3e
00000030: 9747 653a fe4c 6dbe db1e 08bd efea f83e
00000040: 0f6d 953e 94b4 a13d 65ca 2b3e 8672 11be
00000050: a5da 21ba aeb3 febc 0aea 193e 5c59 0cbe
00000060: af41 17be efd8 e53e 5d30 de3d e035 a83e
00000070: c4d3 d3b8 c10d 0ebf bc8a f23d d7b3 b43c
00000080: 1297 a1bd 96b0 1ebf 1cd0 d8be 497e 063f
00000090: 1c7f 26b9 aa30 6cbd 2f3f 90be d83f c33d
000000a0: 5124 e53d 7d22 313e fdc6 c23d c9ef 4abe
000000b0: 121a ec39 7430 5ebe 6394 3a3d caf8 15be
000000c0: 74e5 bcbc fc55 edbd 686d cbbd eb5b cebc
000000d0: aea1 313a 8c07 e03e b1a4 a3bd a6ae 283e
000000e0: 2b04 aa3e 7438 c53e 2078 fcbc 21b5 753e
000000f0: e8ab 6d39 578d d43d 8d61 e43e 9374 873e
00000100: 79a9 96be b9e6 63be 6ae0 66be 8eaf bf3e
00000110: 635d 183a 367a 99be 538f e6bd 45cd 9b3e
00000120: b607 4a3c 822a cebd 33d4 87bd 4907 39be
00000130: a236 2639 85cf 903c 020f 0abc 9358 923d
00000140: 3ff2 103e def5 3f3e 11a6 113d e3b0 d8bd
00000150: 3ece e639 ed6f 403f 0090 c73c 3850 d3bd
00000160: 25e0 e93e fd8d ea3c 0ec1 283e a754 8d3e
00000170: 7bb3 333a 7021 483e 7c45 00bc db10 e43e
00000180: 6cf1 123f d32d 3b3f 8b9e bf3e daa6 a1bb
00000190: 22a8 11ba 1580 8fbe 122d 413e 4451 d5be
000001a0: 550e 453c 9aaa 383d 3ab9 41bc a63e 10bc
000001b0: 60d8 f6b7 0925 873e 8cdf 01bc d83a 8c3d
000001c0: e75d 953d b11f 943e 56bd f63e 878c 17bf
000001d0: 9ced 7739 0dba 89bd 668d 3b3d 1946 ddbe
000001e0: c7fa d4be 8006 44be 8115 24be 2be9 963e
000001f0: 0eaf 84ba b6c7 4bbc 2196 07be 3668 2c3e

h f4 [2, 1]
-1.9285291 0.9915063
00000000: 0bda f6bf 5bd3 7d3f

n3 f4 [16, 1]
-1.003114 -0.9284423 -0.6413136 0.5044684 -0.116527684 -1.3604155 0.7182902 -0.92644787
0.18711796 -0.09606618 -0.18227367 0.31179804 1.2645407 1.1035577 0.5381578 0.59153557
00000000: 0a66 80bf 65ae 6dbf 212d 24bf d724 013f
00000010: 11a6 eebd 1822 aebf dee1 373f b02b 6dbf
00000020: da9b 3f3e 58be c4bd f3a5 3abe fea3 9f3e
00000030: 78dc a13f 6141 8d3f b6c4 093f e06e 173f

rs f4 [16]
0.11676042 -0.075095564 -0.06797174 -0.201578 0.19006506 -0.19886452 0.89649576 0.18481152
0.34084108 0.3362043 1.0264567 0.5774427 0.10776 0.6659274 0.06330539 -0.07687164
00000000: 1620 ef3d b4cb 99bd c534 8bbd 776a 4ebe
00000010: 6aa0 423e 24a3 4bbe bf80 653f 3b3f 3d3e
00000020: b982 ae3e f822 ac3e ef62 833f 49d3 133f
00000030: 46b1 dc3d 387a 2a3f 42a6 813d e16e 9dbd

ve f4 [8]
0.112656735 0.15750374 -0.015250681 -0.034679744 -0.026908146 1.0083835 0.050187152 0.21871744
00000000: 93b8 e63d a948 213e fedd 79bc 590c 0ebd
00000010: 796e dcbc b612 813f 0b91 4d3d 77f7 5f3e

ez f8 []
40.0
00000000: 0000 0000 0000 4440

5x f4 [8, 2]
0.45215297 1.0029635 1.0522596 0.3395699 0.7030602 0.3937997 -0.68112963 -0.80674785
3.4654106e-05 0.001487131 -0.81852907 0.85296 0.4674017 0.31501985 -0.883377 -0.37089384
00000000: 9880 e73e 1c61 803f 71b0 863f 1bdc ad3e
00000010: c1fb 333f 1da0 c93e 835e 2ebf 0787 4ebf
00000020: 9059 1138 d6eb c23a 1f8b 51bf 965b 5a3f
00000030: 474f ef3e 484a a13e ff24 62bf cce5 bdbe

l f4 [8, 1]
-1.7712296 -2.0089006 -1.6390277 2.0636299 1.91702 -1.8141173 2.3708131 2.2582893
00000000: a7b7 e2bf d491 00c0 a9cb d1bf 8312 0440
00000010: e960 f53f ff34 e8bf 67bb 1740 d087 1040

2d f4 [16, 16]
0.14412461 0.025884824 -0.085020624 0.009842665 0.008661193 -0.027253795 0.15489537 -0.03697526
0.008652564 -0.020951273 0.24410996 0.020342909 -0.171998 0.068527505 -0.0028175763 0.1315021
0.16740178 0.021656789 -0.09422651 0.015876178 0.047298793 -0.03583722 0.16604303 -0.036807027
0.030095026 -0.024292193 0.25877458 0.014195386 -0.1866507 0.07672315 -0.021507073 0.13597736
0.1644129 0.035764404 -0.080138355 0.009912013 0.027187793 -0.026284011 0.13339397 -0.033537466
0.027485223 -0.018781465 0.20988867 0.01611088 -0.20219232 0.059861485 -0.09449699 0.124136776
-0.11534571 -0.06546193 0.094016925 -0.06429427 -0.21447581 0.04835485 -0.050377063 0.028041296
0.0673431 0.0315069 -0.1074446 0.0762469 0.24990878 -0.028503213 0.03356111 -0.07353115
-0.042071145 0.06191136 0.07406149 -0.095452674 0.040490955 0.054650225 -0.0051274607 0.0012017695
0.069166005 0.037969444 -0.040877264 0.12224187 0.0671351 -0.009295691 -0.11968693 -0.02757216
0.18424495 0.06271441 -0.109642185 -0.024426607 0.07594561 -0.025538525 0.16579245 -0.053351972
0.026844876 -0.009461048 0.24400792 0.049109906 -0.153498 0.0721054 -0.17459974 0.16300295
-0.03127662 -0.11747493 0.2165385 -0.17873648 -0.060078286 0.15094501 -0.16789441 0.04317409
0.37740347 0.08817575 -0.29942837 0.2510655 0.41842166 -0.093941495 0.4215497 -0.13426574
0.1501048 0.50572366 -0.09542493 -0.3378545 0.3943995 0.105605245 0.006486615 -0.035273835
0.47193015 0.13189843 -0.02719334 0.36883828 -0.08422494 0.010953303 -0.30089667 -0.010247884
-0.02359199 -0.11241632 0.037503313 -0.18741386 -0.024635233 0.06841609 0.15260455 0.13343458
0.21804184 0.057371285 0.08673497 0.15800159 0.1350142 0.044309396 0.20440096 -0.15977459
-0.24003568 -0.15405685 -0.11837126 0.14894328 -0.16909817 0.21215719 0.07573277 -0.33668703
0.105278224 0.080869555 0.13532399 -0.32991773 -0.18489282 0.01325166 -0.23348099 -0.24294958
-0.31117317 -0.29746234 0.14165437 0.15631948 -0.43261656 0.018431457 0.083097294 0.16256337
-0.20621517 -0.051728692 0.14696367 0.12525451 0.28661415 0.03561282 0.28291154 -0.14915209
-0.024079008 0.10640733 -0.13223836 0.19757737 0.2444058 -0.13186203 0.15882124 -0.13479482
0.37170574 0.013176082 0.1964921 0.016188094 -0.62256664 0.05363585 -0.4505854 0.07043965
-0.15663004 -0.340336 0.10034625 0.06969171 -0.50869644 0.07769612 -0.049952183 0.23810522
0.12083102 -0.022355773 0.083109856 -0.11602465 0.4772851 -0.049481213 0.45287243 0.043923937
-0.6108363 -0.5999269 0.38704297 -0.23170632 -0.7205356 -0.011085849 0.18496792 0.24328947
-0.42351162 0.055977892 0.25607294 0.13304324 0.800876 0.08447274 0.6919277 -0.39715418
-0.030843677 -0.047078285 0.023484988 0.19227037 -0.08481653 0.030349704 -0.14697562 0.023273002
0.24093293 -0.056094944 -0.4245522 -0.10118279 0.19550209 -0.108777314 0.15623254 0.019387266
-0.0012171227 -0.372656 -0.035045456 -0.47272387 -0.18308397 0.4209208 0.29631206 -0.1801221
0.10317045 -0.049337953 0.16372715 -0.021843396 0.022207573 0.050083473 -0.16776022 0.04741989
00000000: 6795 133e 690c d43c 4b1f aebd 2143 213c
00000010: ade7 0d3c 5a43 dfbc e49c 1e3e 5f73 17bd
00000020: 7cc3 0d3c 01a2 abbc f6f7 793e 2ca6 a63c
00000030: 3e20 30be 2658 8c3d 16a7 38bb 7da8 063e
00000040: 5f6b 2b3e 9469 b13c d4f9 c0bd c20e 823c
00000050: 61bc 413d 0cca 12bd 2f07 2a3e f7c2 16bd
00000060: d889 f63c 6c00 c7bc 1a7e 843e c493 683c
00000070: 5c21 3fbe 0721 9d3d 9a2f b0bc a63d 0b3e
00000080: db5b 283e b27d 123d 941f a4bd ff65 223c
00000090: efb8 de3c 9151 d7bc 6e98 083e 955e 09bd
000000a0: b128 e13c 96db 99bc 0eed 563e f7fa 833c
000000b0: 810b 4fbe 5131 753d a387 c1bd 6c3b fe3d
000000c0: 5f3a ecbd e810 86bd f28b c03d b7ac 83bd
000000d0: 8c9f 5bbe bc0f 463d 2e58 4ebd dcb6 e53c
000000e0: 2eeb 893d 610d 013d ea0b dcbd 5627 9c3d
000000f0: 16e8 7f3e 927f e9bc 6077 093d 8097 96bd
00000100: cb52 2cbd c496 7d3d 8dad 973d b17c c3bd
00000110: d8d9 253d ead8 5f3d 4204 a8bb b184 9d3a
00000120: e8a6 8d3d d985 1b3d eb6e 27bd f259 fa3d
00000130: 217e 893d f44c 18bc 6c1e f5bd 03df e1bc
00000140: b5aa 3c3e 6a70 803d 158c e0bd 4f1a c8bc
00000150: 5f89 9b3d 2b36 d1bc 7fc5 293e 9987 5abd
00000160: c9e9 db3c 8302 1bbc 36dd 793e 7827 493d
00000170: 942e 1dbe ffab 933d 46ca 32be 3fea 263e
00000180: ea1b 00bd b296 f0bd 45bc 5d3e b206 37be
00000190: a614 76bd 5491 1a3e 83ec 2bbe 51d7 303d
000001a0: 073b c13e 7d95 b43d ad4e 99be a88b 803e
000001b0: 5d3b d63e 6664 c0bd 5dd5 d73e f57c 09be
000001c0: 13b5 193e 1b77 013f 256e c3bd 44fb acbe
000001d0: bbee c93e 9047 d83d ac8d d43b 4c7b 10bd
000001e0: d4a0 f13e 6210 073e 91c4 debc 5fd8 bc3e
000001f0: 207e acbd 7c75 333c 210f 9abe bee6 27bc
00000200: fd43 c1bc 873a e6bd 139d 193d 6be9 3fbe
00000210: d4cf c9bc bc1d 8c3d 5e44 1c3e 13a3 083e
00000220: 5c46 5f3e 27fe 6a3d 1ba2 b13d 2bcb 213e
00000230: 2a41 0a3e c57d 353d 7c4e 513e f39b 23be
00000240: eacb 75be 14c1 1dbe a26c f2bd 9684 183e
00000250: 1228 2dbe bc3f 593e c819 9b3d 3e62 acbe
00000260: 1c9c d73d f09e a53d 5f92 0a3e faea a8be
00000270: 8b54 3dbe 7e1d 593c a415 6fbe c6c7 78be
00000280: 1752 9fbe fc4c 98be d80d 113e 3712 203e
00000290: eb7f ddbe 91fd 963c ea2e aa3d 0377 263e
000002a0: 122a 53be 77e1 53bd a57d 163e b842 003e
000002b0: 17bf 923e c0de 113d c8d9 903e 53bb 18be
000002c0: 5741 c5bc 16ec d93d 7e69 07be b951 4a3e
000002d0: 8445 7a3e d706 07be 09a2 223e a707 0abe
000002e0: 3750 be3e 7ee0 573c 3a35 493e e59c 843c
000002f0: 8760 1fbf 44b1 5b3d 21b3 e6be aa42 903d
00000300: a063 20be 8540 aebe 5682 cd3d 87ba 8e3d
00000310: ee39 02bf 251f 9f3d a99a 4cbd dbd1 733e
00000320: 4176 f73d 7423 b7bc 8035 aa3d 559e edbd
00000330: b65e f43e d0ac 4abd e5de e73e 96e9 333d
00000340: c55f 1cbf cf94 19bf 7f2a c63e 6c44 6dbe
00000350: 0575 38bf 6ca1 35bc 3b68 3d3e e020 793e
00000360: 84d6 d8be 1349 653d fe1b 833e 7d3c 083e
00000370: 3606 4d3f 0b00 ad3d 2c22 313f cb57 cbbe
00000380: e1ab fcbc 29d5 40bd 9763 c03c 86e2 443e
00000390: 4ab4 adbd f19f f83c c780 16be 06a7 be3c
000003a0: 1fb7 763e d0c3 65bd e85e d9be ec38 cfbd
000003b0: b331 483e a4c6 debd 6cfb 1f3e 0bd2 9e3c
000003c0: dc87 9fba c4cc bebe d38b 0fbd dd08 f2be
000003d0: 5d7a 3bbe ee82 d73e 37b6 973e ee71 38be
000003e0: 074b d33d 9816 4abd 17a8 273e ecf0 b2bc
000003f0: a8ec b53c 5424 4d3d 56c9 2bbe 5c3b 423d

k f4 [16]
0.0 0.0625 0.125 0.1875 0.25 0.3125 0.375 0.4375
0.5 0.5625 0.625 0.6875 0.75 0.8125 0.875 0.9375
00000000: 0000 0000 0000 803d 0000 003e 0000 403e
00000010: 0000 803e 0000 a03e 0000 c03e 0000 e03e
00000020: 0000 003f 0000 103f 0000 203f 0000 303f
00000030: 0000 403f 0000 503f 0000 603f 0000 703f

be f4 [24]
0.0 0.0 0.0 0.0 0.0 0.0 0.0 0.0
0.0 0.0 0.0 0.0 0.0 0.0 0.0 0.0
1.0 1.0 1.0 1.0 1.0 1.0 1.0 1.0
00000000: 0000 0000 0000 0000 0000 0000 0000 0000
00000010: 0000 0000 0000 0000 0000 0000 0000 0000
00000020: 0000 0000 0000 0000 0000 0000 0000 0000
00000030: 0000 0000 0000 0000 0000 0000 0000 0000
00000040: 0000 803f 0000 803f 0000 803f 0000 803f
00000050: 0000 803f 0000 803f 0000 803f 0000 803f

0p f4 [8]
0.0 0.125 0.25 0.375 0.5 0.625 0.75 0.875
00000000: 0000 0000 0000 003e 0000 803e 0000 c03e
00000010: 0000 003f 0000 203f 0000 403f 0000 603f

b5 f4 [8]
0.0 1.0 2.0 3.0 4.0 5.0 6.0 7.0
00000000: 0000 0000 0000 803f 0000 0040 0000 4040
00000010: 0000 8040 0000 a040 0000 c040 0000 e040

u4 f4 [2]
-0.37155706 0.15846431
00000000: ba3c bebe 7844 223e

bm f8 []
96.0
00000000: 0000 0000 0000 5840

op f4 [202, 14]
0.0805397 -0.9059143 -0.10738363 0.42171907 0.3310996 -0.81630236 0.1689313 0.13548341
0.8001666 0.38443527 -0.14146148 -0.07521764 -0.103181735 0.11450532 1.5081999 -1.8776734
-0.1364821 0.5158012 0.10001181 0.9707703 -1.0043291 2.6109538 0.18920259 0.8389278
0.59211576 -1.6332912 -1.7729353 -0.82923895 1.5901808 -1.7758029 0.31330317 0.7192079
-0.47271842 1.1773345 -0.809865 3.1908638 -0.3008796 1.5080962 0.56441134 -1.3436239
-2.3738909 -1.9738015 -0.1337449 -0.5214623 0.6525406 0.22242235 0.055357773 0.55681497
0.27943426 1.0686008 0.16280206 -0.07434447 0.04107756 -0.28786245 -0.80218494 -0.7225074
1.8112895 -1.6470174 -0.5579064 0.37347934 0.5363633 -0.11252852 -0.6089343 1.5418996
0.88063425 0.44020256 0.1934173 -1.3960537 -1.0652817 -0.42394334 0.06790349 -0.24891393
1.1066902 0.3241152 -0.6593001 1.0322417 0.533173 1.5951699 -0.66321564 0.22131933
0.33068168 -0.4394247 -1.1856916 -1.5614569 1.3151973 -1.3530415 -0.2907666 0.58529544
-0.20235509 0.5933687 -0.78999317 1.7954715 -0.00800963 0.95166445 0.51327175 -1.1835573
-1.1839436 -0.5925137 1.1965936 -0.93501264 1.1157473 0.04426355 0.20152053 0.8881839
0.7645099 2.014991 -0.1017149 -0.43022764 0.6381351 -1.2315879 -1.8914243 -2.1197364
2.2223203 -0.91078305 -0.60122186 0.4340794 -0.057194225 0.47851256 -1.1221783 2.013821
0.2863369 0.45935804 0.2765985 -1.7454004 -1.0190406 -0.73321736 2.500214 -1.5644482
-0.62390625 0.27709794 0.5707467 -0.057929967 -0.5898392 1.8903422 1.0185628 0.22763547
0.025208164 -1.7693819 -1.2395197 -0.8120507 1.5860809 -1.2170058 -0.2742262 0.34951147
0.39359024 0.1763329 -0.69463795 1.6645317 0.5724068 0.24857314 0.34415147 -1.3815283
-1.0864367 -0.65392256 1.3110658 -1.4267477 -1.1379635 0.38877356 0.8509652 -0.5966236
-1.0805311 0.42637104 1.0772477 0.21416722 0.41517308 -1.2069736 -0.1055768 0.94658685
1.5212601 -1.5271065 0.041876875 0.63556486 -0.28203148 1.0200325 -1.1747444 2.8040516
-0.28174365 0.9888838 0.86394477 -1.7633302 -1.7497435 -1.0961032 0.5218584 0.26533195
0.43520704 0.07067244 -0.039320327 0.27125865 0.3189752 0.68873173 0.12013223 -0.6548093
-0.016468184 -0.64749026 -0.24769916 -0.69670236 2.6346247 -1.5513655 -0.5589519 0.33537674
-0.12989594 1.0320549 -0.7734025 2.4794114 0.07757405 0.36489052 0.5353503 -2.362538
-1.414892 -0.6901152 2.1050942 -2.5113223 -0.84531796 0.83167094 0.013441142 0.7037232
-1.8258206 3.0033956 0.40144107 1.7322905 0.5579579 -1.907708 -1.8696952 -0.51470816
1.8557568 -1.6576401 -0.6059327 0.8162784 -0.5968041 1.097037 -1.6840183 2.6537917
-0.481241 1.4739224 0.98624027 -1.9483176 -1.4436015 -0.45516375 0.31897748 -0.113578185
0.038999632 0.19997972 0.09336137 0.30827984 -0.29028854 0.7381881 0.30820188 -0.34803858
0.01016718 -0.6854989 -0.13321371 -0.01027275 1.5261564 -2.306466 -0.7939342 0.51275927
00000000: 00f2 a43d 00ea 67bf f3eb dbbd 90eb d73e
00000010: e385 a93e 31f9 50bf 54fc 2c3e 2abc 0a3e
00000020: b8d7 4c3f b3d4 c43e 47db 10be b50b 9abd
00000030: f250 d3bd c481 ea3d b20c c13f 9a57 f0bf
00000040: f7c1 0bbe 8c0b 043f fed2 cc3d 6784 783f
00000050: db8d 80bf de19 2740 53be 413e f9c3 563f
00000060: e694 173f b00f d1bf 8bef e2bf 0149 54bf
00000070: 0b8b cb3f 824d e3bf 4669 a03e 021e 383f
00000080: 2608 f2be e6b2 963f 5053 4fbf 1d37 4c40
00000090: e40c 9abe 4c09 c13f 437d 103f defb abbf
000000a0: d4ed 17c0 87a5 fcbf 6cf4 08be 8e7e 05bf
000000b0: e70c 273f afc2 633e d5be 623d 6d8b 0e3f
000000c0: 0212 8f3e e9c7 883f 95b5 263e ea41 98bd
000000d0: f240 283d b562 93be fe5b 4dbf 3ff6 38bf
000000e0: 56d8 e73f 77d1 d2bf f4d2 0ebf af38 bf3e
000000f0: 1b4f 093f 5a75 e6bd 1ee3 1bbf f75c c53f
00000100: 3f71 613f 3b62 e13e 2f0f 463e e3b1 b2bf
00000110: 275b 88bf 1a0f d9be fc10 8b3d 4be3 7ebe
00000120: 06a8 8d3f 6df2 a53e e4c7 28bf 7f20 843f
00000130: 077e 083f 872e cc3f 80c8 29bf 89a1 623e
00000140: 1c4f a93e 46fc e0be bec4 97bf d2dd c7bf
00000150: 6358 a83f 7730 adbf 5cdf 94be ecd5 153f
00000160: 2c36 4fbe 03e7 173f fe3c 4abf 03d2 e53f
00000170: d33a 03bc 48a0 733f c765 033f ce7e 97bf
00000180: 778b 97bf faae 17bf fb29 993f fd5c 6fbf
00000190: cfd0 8e3f b24d 353d 665b 4e3e 0560 633f
000001a0: ecb6 433f 9df5 0040 e74f d0bd cc46 dcbe
000001b0: d25c 233f aca4 9dbf 311a f2bf c3a9 07c0
000001c0: 7f3a 0e40 1429 69bf ade9 19bf a83f de3e
000001d0: 7e44 6abd 99ff f43e 8aa3 8fbf 71e2 0040
000001e0: c09a 923e fa30 eb3e 529e 8d3e 4869 dfbf
000001f0: ec6f 82bf 22b4 3bbf 8203 2040 d73f c8bf
00000200: 52b8 1fbf c8df 8d3e 751c 123f f947 6dbd
00000210: b4ff 16bf bcf6 f13f 4460 823f 4619 693e
00000220: 5a81 ce3c 1b7b e2bf 95a8 9ebf 8ee2 4fbf
00000230: b304 cb3f d9c6 9bbf 6067 8cbe 2bf3 b23e
00000240: a984 c93e 9d90 343e cbd3 31bf 600f d53f
00000250: 4189 123f f589 7e3e 9f34 b03e ebd5 b0bf
00000260: 5c10 8bbf 7867 27bf 01d1 a73f ab9f b6bf
00000270: caa8 91bf 540d c73e dbd8 593f 53bc 18bf
00000280: d84e 8abf 4e4d da3e 41e3 893f a74e 5b3e
00000290: 9191 d43e 1c7e 9abf a638 d8bd 8453 723f
000002a0: a7b8 c23f 3a78 c3bf 1687 2b3d 61b4 223f
000002b0: 6e66 90be 6d90 823f 065e 96bf 9575 3340
000002c0: b440 90be 7d27 7d3f 7c2b 5d3f ceb4 e1bf
000002d0: 98f7 dfbf 1c4d 8cbf 8398 053f 97d9 873e
000002e0: 75d3 de3e b6bc 903d 5a0e 21bd 6ae2 8a3e
000002f0: b850 a33e b950 303f e307 f63d 95a1 27bf
00000300: 49e8 86bc ecc1 25bf d9a4 7dbe 165b 32bf
00000310: b19d 2840 2593 c6bf 7917 0fbf 80b6 ab3e
00000320: 7103 05be 601a 843f b5fd 45bf adae 1e40
00000330: 25df 9e3d eed2 ba3e b80c 093f d333 17c0
00000340: 2e1b b5bf 64ab 30bf ddb9 0640 81b9 20c0
00000350: c266 58bf 63e8 543f 3c38 5c3c 3427 343f
00000360: 7db4 e9bf a237 4040 af89 cd3e b2bb dd3f
00000370: 54d6 0e3f c72f f4bf 2c52 efbf eac3 03bf
00000380: 7089 ed3f 8d2d d4bf 681e 1bbf 9ff7 503f
00000390: 27c8 18bf b56b 8c3f e98d d7bf b9d7 2940
000003a0: 3865 f6be 7da9 bc3f 3e7a 7c3f 7962 f9bf
000003b0: efc7 b8bf 390b e9be 0451 a33e ae9b e8bd
000003c0: 14be 1f3d 7cc7 4c3e 3f34 bf3d dbd6 9d3e
000003d0: b3a0 94be e5f9 3c3f a3cc 9d3e 1d32 b2be
000003e0: 3e94 263c db7c 2fbf 2d69 08be 094f 28bc
000003f0: 1859 c33f 249d 13c0 463f 4bbf 3144 033f

av f4 [16, 1]
0.82594824 1.3589975 1.1236905 0.18481457 0.6778931 0.6846625 -0.54831165 1.624017
-1.4276057 0.5057226 -0.14642233 -1.5102779 -1.0447056 -1.9399263 -0.6500202 -0.8393021
00000000: 5871 533f a1f3 ad3f 17d5 8f3f 0840 3d3e
00000010: 678a 2d3f 0b46 2f3f 275e 0cbf cadf cf3f
00000020: c9bb b6bf 0977 013f bcef 15be c950 c1bf
00000030: eab8 85bf 814f f8bf b967 26bf 81dc 56bf
