OpenUtau.Core/Vogen/Data/f0.yue.onnx (onnx, 27055 bytes, 18 tensors)

52 f4 [8, 2]
0	0x3ee78098	0.45215297
1	0x3f80611c	1.0029635
2	0x3f86b071	1.0522596
3	0x3eaddc1b	0.3395699
4	0x3f33fbc1	0.7030602
5	0x3ec9a01d	0.3937997
6	0xbf2e5e83	-0.68112963
7	0xbf4e8707	-0.80674785
8	0x38115990	3.4654106e-05
9	0x3ac2ebd6	0.001487131
10	0xbf518b1f	-0.81852907
11	0x3f5a5b96	0.85296
12	0x3eef4f47	0.4674017
13	0x3ea14a48	0.31501985
14	0xbf6224ff	-0.883377
15	0xbebde5cc	-0.37089384

mi f4 [24]
0	0x00000000	0.0
1	0x00000000	0.0
2	0x00000000	0.0
3	0x00000000	0.0
4	0x00000000	0.0
5	0x00000000	0.0
6	0x00000000	0.0
7	0x00000000	0.0
8	0x00000000	0.0
9	0x00000000	0.0
10	0x00000000	0.0
11	0x00000000	0.0
12	0x00000000	0.0
13	0x00000000	0.0
14	0x00000000	0.0
15	0x00000000	0.0
16	0x3f800000	1.0
17	0x3f800000	1.0
18	0x3f800000	1.0
19	0x3f800000	1.0
20	0x3f800000	1.0
21	0x3f800000	1.0
22	0x3f800000	1.0
23	0x3f800000	1.0

f f4 [202, 14]
0	0xbfc34a50	-1.5257053
1	0xbf7d76aa	-0.9900919
2	0x407d885f	3.9614484
3	0x3ff0111f	1.8755225
4	0xbed71aa8	-0.42012525
5	0x3ed6639f	0.4187288
6	0xc0138cb7	-2.3054636
7	0xbf8c0644	-1.0939412
8	0x3e97334d	0.29531327
9	0x3fb0a626	1.3800704
10	0xbfacf744	-1.351296
11	0x4009c7f5	2.1528294
12	0x3f0445de	0.5166911
13	0xc01a83b3	-2.4142883
14	0xbf97c201	-1.185608
15	0xbf3bf535	-0.7342103
16	0x403c8155	2.9453938
17	0x3f9c15ff	1.2194213
18	0xbeb49918	-0.3527305
19	0x3ce6e22c	0.028184019
20	0xbfa57cd5	-1.2928721
21	0xbf633e12	-0.88766587
22	0x3f1ae43d	0.60504514
23	0x3f90f979	1.1326133
24	0xbfa3b8f2	-1.2790816
25	0x3ff625d8	1.9230299
26	0x3e82c90c	0.25544012
27	0xbfff79a9	-1.9959003
28	0x401683e8	2.351801
29	0x40167fa8	2.3515415
30	0xc08ad2a1	-4.3382115
31	0xbfbc7315	-1.472262
32	0xbe50f7d7	-0.20407043
33	0x3f0ed314	0.5579083
34	0x4027ef8c	2.6239958
35	0x40084320	2.129097
36	0x3f505aa4	0.81388307
37	0xbf80ff63	-1.0077938
38	0xbd9678b8	-0.07347244
39	0xc05b7398	-3.4289303
40	0xc0055d70	-2.083828
41	0x403d4868	2.9575443
42	0x40184060	2.3789291
43	0x3ff43a05	1.9080206
44	0xc0825e4d	-4.0740113
45	0xbff4026b	-1.9063238
46	0xbe5e0760	-0.21682501
47	0x3ea1fedd	0.31639758
48	0x402bce11	2.6844523
49	0x3fe07928	1.7536974
50	0x3e571a04	0.21006018
51	0xbf50606f	-0.81397146
52	0x3f039df6	0.51412904
53	0xc03332d5	-2.7999775
54	0xbfe6bac8	-1.8025751
55	0x403d2dcb	2.95592
56	0x400bba2c	2.183238
57	0x40059763	2.087365
58	0xc056a422	-3.3537679
59	0xbfd4c419	-1.6622344
60	0xbd41530c	-0.04719834
61	0x3f707ad7	0.9393744
62	0x3fa377ff	1.2770995
63	0x3ff549ab	1.9163107
64	0x3df06375	0.1173772
65	0xbf744cb1	-0.9542952
66	0x3f2f1ee5	0.68406516
67	0xc050de90	-3.2635841
68	0xbfc89f4e	-1.5673616
69	0x4023874d	2.555133
70	0x3d7a35b1	0.06108636
71	0x3f247830	0.6424589
72	0x3e613ef7	0.21996675
73	0x3e70b649	0.23507036
74	0xbe80360b	-0.25041232
75	0xbe16249c	-0.14662403
76	0x3eb245dc	0.34818923
77	0x3d30c1dc	0.04315363
78	0x3ef1242b	0.47097906
79	0x3eaa13c3	0.33218202
80	0xbf8cdc73	-1.1004776
81	0x3ecae841	0.3963032
82	0xbf3ee986	-0.7457508
83	0xbbde24e5	-0.0067793005
84	0x3fd65cdf	1.6747092
85	0x3ff3c1d8	1.9043531
86	0xc085ec19	-4.1850705
87	0xbfaf3521	-1.3688089
88	0xbea82a17	-0.32844612
89	0x3ffad1ed	1.9595314
90	0x400f2fc0	2.2372894
91	0x400d6691	2.2093852
92	0x3f3ba1aa	0.73293555
93	0xbf9b1a91	-1.2117482
94	0x3ee3b8e6	0.44477004
95	0xc088d84c	-4.2764034
96	0xbf9c7513	-1.2223228
97	0x403b259a	2.92417
98	0xbf1f5f0e	-0.62254417
99	0xbf1b71a0	-0.60720253
100	0x403c7364	2.944543
101	0x3e6f6b7a	0.23380843
102	0xbea43640	-0.3207264
103	0xbf8a0e80	-1.0785675
104	0xbf50f9c8	-0.81631136
105	0xbf93f25f	-1.1558341
106	0x3ed0d305	0.40785995
107	0x3f75cbba	0.9601399
108	0xbf64355b	-0.89143914
109	0x402f5ff4	2.7402315
110	0x3ef4494b	0.47712168
111	0xbffe107f	-1.9848784
112	0x4010f348	2.2648487
113	0x3ff44acf	1.908533
114	0xc071ce90	-3.7782326
115	0xc004d728	-2.075632
116	0xbe4057cd	-0.18783493
117	0x3e92d25d	0.2867612
118	0x40250b14	2.5788012
119	0x3fdc4908	1.7209787
120	0x3f384c69	0.7199159
121	0xbf8d8c36	-1.1058414
122	0x3efe0526	0.49613303
123	0xc037683c	-2.865737
124	0xbf9e39e7	-1.236142
125	0x40206668	2.5062504
126	0x3e8106f9	0.25200632
127	0x3f4274c6	0.7595943
128	0xbee2403b	-0.4418963
129	0xbe3d0a75	-0.1846102
130	0xbd1fe3b9	-0.039035533
131	0x3f0d56df	0.5521068
132	0x3e6c46d5	0.23073895
133	0x3eac3905	0.33637252
134	0x3e873fca	0.26415855
135	0xbdc2f971	-0.095202334
136	0xbebf4058	-0.37353778
137	0xbf2f12eb	-0.6838824
138	0xbedd1dc5	-0.43186775
139	0x3eefe1e9	0.46852043
140	0x3fe3bb67	1.7791566
141	0x3fded3c1	1.7408372
142	0xc06efaaf	-3.7340505
143	0xbffa990a	-1.9577954
144	0xbe962002	-0.29321295
145	0x3fb38315	1.4024378
146	0x400f6663	2.2406242
147	0x3fec6a75	1.8469988
148	0x3f142ac4	0.57877755
149	0xbfa8ead7	-1.3196667
150	0x3f52de13	0.8237011
151	0xc066570c	-3.599063
152	0xbf2886b3	-0.65830535
153	0x4027c2c2	2.621262
154	0x3fe34b4b	1.7757353
155	0x3f852623	1.0402263
156	0xc0563391	-3.3468974
157	0xbfeb6b7d	-1.8392178
158	0xbe688942	-0.2270861
159	0x3fa430ad	1.2827355
160	0x3ffcc38a	1.9747174
161	0x3fc43e31	1.5331479
162	0x3d455482	0.048176296
163	0xbf3586ff	-0.7090911
164	0x3f9e47ff	1.2365721
165	0xc0426357	-3.0373132
166	0xbf62ba85	-0.88565856
167	0x401b465d	2.4261696
168	0x4016f682	2.3587956
169	0x3ffb05cd	1.9611145
170	0xc08d9516	-4.424449
171	0xbff1837f	-1.8868254
172	0xbe915a63	-0.28389272
173	0x3eaba201	0.33522037
174	0x4046c6f3	3.105893
175	0x3fed07d4	1.8518014
176	0x3ecc0321	0.39846137
177	0xbf5520cb	-0.83253163
178	0x3eae54d4	0.34049094
179	0xc03b6de4	-2.9285822
180	0xbff9f8d2	-1.9529059
181	0x4047545f	3.1145246
182	0x3f7d776c	0.9901035
183	0x3f9fd59b	1.2487062
184	0xbfd138ee	-1.6345499
185	0xbf35284b	-0.7076461
186	0x3be2c69c	0.0069206487
187	0x3f2db574	0.67855
188	0x3f4084e4	0.75202775
189	0x3f53dcc9	0.82758766
190	0x3dc2d2b9	0.095128484
191	0xbef971cd	-0.48719636
192	0x3d6202c6	0.055178426
193	0xbfd389c5	-1.6526419
194	0xbf370f80	-0.71508026
195	0x3fb13473	1.3844131
196	0x4017b37f	2.3703306
197	0x4015f52e	2.3430896
198	0xc08ad050	-4.337929
199	0xbfc7cfe2	-1.5610316
200	0xbe8e8af1	-0.2784038
201	0x3e7fc669	0.24978031
202	0x4039ea33	2.9049194
203	0x4000915d	2.0088723
204	0x3f3939ce	0.7235383
205	0xbf6b2bee	-0.91863906
206	0xbe2d7d1d	-0.16942258
207	0xc0423382	-3.0343938
208	0xc00b5c8c	-2.1775236
209	0x40408b2c	3.0084944
210	0x3fbc863b	1.4728464
211	0x3fc3d1cd	1.5298401
212	0xc02933e1	-2.6437914
213	0xbfa11509	-1.2584544
214	0xbeea3ec7	-0.4575102
215	0x3e288999	0.1645874
216	0x4011526e	2.270656
217	0x3fa84517	1.3146085
218	0x3f6156c7	0.88023037
219	0xbf118869	-0.5684877
220	0xbea4a80d	-0.32159463
221	0xbfe4ede3	-1.7885097
222	0xbfa43a46	-1.2830284
223	0x3fe19f80	1.76268
224	0x3fff42c2	1.9942248
225	0x3ff3f92d	1.9060417
226	0xc05eaaa3	-3.4791648
227	0xbfda268e	-1.7043016
228	0xbe567ee4	-0.20946842
229	0x3fa878b4	1.3161836
230	0x3fca7823	1.5817913
231	0x3fe62161	1.7978936
232	0xbe574d49	-0.21025576
233	0xbf85520d	-1.0415665
234	0x3f67aa8e	0.9049462
235	0xc0562d54	-3.3465166
236	0xbf93e320	-1.1553688
237	0x4038325f	2.8780744
238	0xbfdb4b29	-1.7132312
239	0xbfc9fda2	-1.5780528
240	0x4022f2c4	2.5460672
241	0x3fa9895f	1.3245047
242	0xbf89895b	-1.0745043
243	0x403bc9a5	2.9341824
244	0xbfdf2f9e	-1.7436407
245	0xbd8189fd	-0.06325147
246	0x3bc689f6	0.0060589267
247	0x3f9dbfb3	1.2324127
248	0x3c097098	0.008388661
249	0xbe4286c3	-0.1899672
250	0x3f389c68	0.72113657
251	0xbfa35799	-1.2761108
252	0x4038cbd7	2.8874414
253	0x4046ec20	3.108162
254	0xc0b0eae4	-5.528673
255	0xc01ac81e	-2.4184642

9e f4 [14, 8]
0	0xbe3236c2	-0.17403701
1	0x3f308399	0.689508
2	0x3f138e66	0.5763916
3	0xbec72918	-0.3889854
4	0x3f330baa	0.6993967
5	0x3efd8380	0.4951439
6	0x3f1a6330	0.603076
7	0x3fe89c70	1.8172741
8	0x3fa81b58	1.3133345
9	0x3f327745	0.6971324
10	0x3f8b4790	1.0881214
11	0x3f23dec4	0.6401179
12	0x3f2301f9	0.63674885
13	0x3fdd97c6	1.7311943
14	0x3f308430	0.689517
15	0x3f02060b	0.5079047
16	0x3f8b3551	1.0875646
17	0x3e5753c5	0.2102805
18	0x3f77d2e7	0.96806186
19	0x3faa9257	1.3325909
20	0x3eb6d268	0.35707402
21	0x3e7ba6f0	0.245754
22	0x3f9234d2	1.142237
23	0x3fd376a0	1.6520576
24	0x3e8bbef2	0.27294117
25	0x3ed2c849	0.4116843
26	0x3f442ecc	0.76633906
27	0x3f16ef2a	0.58958685
28	0x3ecef9d1	0.4042497
29	0x3f5c5e74	0.86081624
30	0x3ec285e3	0.37992772
31	0x3f807fa2	1.003895
32	0x3f49656c	0.7867038
33	0x3f6fcc13	0.9367077
34	0x3f93a0c1	1.1533433
35	0x3f7b3819	0.98132473
36	0x3f6f41e9	0.93459946
37	0x3f1542b3	0.583049
38	0x3e98f412	0.2987371
39	0xbec7b637	-0.39006206
40	0xbe3b7438	-0.18306053
41	0x3f81c13c	1.0137095
42	0x3f6cd6f8	0.92515516
43	0xbe56b974	-0.20969182
44	0x3f2c5652	0.67319214
45	0x3f164f81	0.58715063
46	0x3f4ff3fa	0.81231654
47	0x3f823828	1.0173388
48	0x3f476455	0.7788747
49	0xbd8ff91b	-0.07029935
50	0x3fa145c2	1.2599413
51	0x3f2ad82e	0.66736114
52	0x3f16b82a	0.5887476
53	0x3f4c0ebc	0.7970998
54	0x3f35d323	0.71025294
55	0x3f70079b	0.93761605
56	0xbd80aa2d	-0.062824585
57	0x3d462615	0.04837616
58	0x3ed848d4	0.42243063
59	0x3fcc8fb0	1.598135
60	0x3fe341f8	1.7754507
61	0x3e45c81d	0.19314618
62	0x3f8e3e0c	1.1112685
63	0x3e503549	0.20332827
64	0x3f0e43df	0.55572313
65	0x3fbfb10c	1.4975905
66	0x3e5576b8	0.20846069
67	0x3f6769ee	0.9039601
68	0x3e377827	0.17916928
69	0x3eeed8c5	0.46649757
70	0x3f5ee71e	0.87071407
71	0x3f9c21e5	1.2197844
72	0x3ff3a8b0	1.9035854
73	0x3f81050b	1.0079664
74	0x3e82079d	0.25396433
75	0x3f5ae3e2	0.8550397
76	0x3f91917f	1.1372527
77	0x3fd47e78	1.6601095
78	0x3eb9ad34	0.36264956
79	0x3e43c9f7	0.19120012
80	0x3f419d5f	0.75630754
81	0x3f24ea9b	0.6442048
82	0x3f77c5bb	0.9678609
83	0x3fa04c95	1.2523371
84	0x3e90b248	0.28261018
85	0x3f8ebbb8	1.1151037
86	0x3f8f0c98	1.1175718
87	0x3f95a67b	1.1691431
88	0xbf0a9ee0	-0.54148674
89	0x3fac3248	1.3452845
90	0x3f164454	0.5869801
91	0x3ed8b73f	0.42327306
92	0x3f741aa8	0.95353174
93	0x3ef6cc62	0.48202807
94	0x3f613193	0.8796627
95	0x3f2949c3	0.66128176
96	0x3f219808	0.63122606
97	0x3f234bcd	0.6378754
98	0x3c293289	0.01032699
99	0x3eb60a09	0.3555453
100	0x3f77d078	0.96802473
101	0x3f58a8a0	0.846323
102	0xbdc206f8	-0.094739854
103	0x3df86888	0.12129313
104	0x3f47fbf7	0.7811884
105	0x3fb8637b	1.4405359
106	0xbe19cced	-0.15019579
107	0x3fae905c	1.3637805
108	0x3e407525	0.18794687
109	0xbdb082b9	-0.08618683
110	0x3f221a49	0.6332136
111	0x3f9836fc	1.189178

9y f4 [8, 1]
0	0xbfe2b7a7	-1.7712296
1	0xc00091d4	-2.0089006
2	0xbfd1cba9	-1.6390277
3	0x40041283	2.0636299
4	0x3ff560e9	1.91702
5	0xbfe834ff	-1.8141173
6	0x4017bb67	2.3708131
7	0x401087d0	2.2582893

8p f4 [2]
0	0xbebe3cba	-0.37155706
1	0x3e224478	0.15846431

w8 f4 [16, 8]
0	0xbef9fb53	-0.48824558
1	0xbe87fad7	-0.26558563
2	0xbe18bf71	-0.14916779
3	0x3e55281b	0.2081608
4	0xba7e6481	-0.00097043073
5	0xbce14fbd	-0.027503842
6	0xbe284b00	-0.1643486
7	0x3e889749	0.2667792
8	0xbe6c5ba1	-0.23081829
9	0xbe80e6a5	-0.25175968
10	0x3b59d9b1	0.0033241326
11	0x3e4b957a	0.1988124
12	0x3a654797	0.00087463245
13	0xbe6d4cfe	-0.23173901
14	0xbd081edb	-0.03323255
15	0x3ef8eaef	0.4861674
16	0x3e956d0f	0.29184768
17	0x3da1b494	0.07895771
18	0x3e2bca65	0.16776426
19	0xbe117286	-0.14203843
20	0xba21daa5	-0.0006174243
21	0xbcfeb3ae	-0.031091537
22	0x3e19ea0a	0.15030685
23	0xbe0c595c	-0.13705963
24	0xbe1741af	-0.1477115
25	0x3ee5d8ef	0.4489207
26	0x3dde305d	0.10849068
27	0x3ea835e0	0.32853603
28	0xb8d3d3c4	-0.000101007085
29	0xbf0e0dc1	-0.55489737
30	0x3df28abc	0.11842868
31	0x3cb4b3d7	0.02205841
32	0xbda19712	-0.078901425
33	0xbf1eb096	-0.619882
34	0xbed8d01c	-0.42346275
35	0x3f067e49	0.52536446
36	0xb9267f1c	-0.00015878346
37	0xbd6c30aa	-0.057663597
38	0xbe903f2f	-0.28173205
39	0x3dc33fd8	0.095336616
40	0x3de52451	0.111885674
41	0x3e31227d	0.17298312
42	0x3dc2c6fd	0.0951061
43	0xbe4aefc9	-0.19818033
44	0x39ec1a12	0.00045032852
45	0xbe5e3074	-0.21698171
46	0x3d3a9463	0.04555167
47	0xbe15f8ca	-0.14645687
48	0xbcbce574	-0.02305863
49	0xbded55fc	-0.11588666
50	0xbdcb6d68	-0.09932977
51	0xbcce5beb	-0.025190314
52	0x3a31a1ae	0.00067761063
53	0x3ee0078c	0.43755758
54	0xbda3a4b1	-0.07990397
55	0x3e28aea6	0.16472873
56	0x3eaa042b	0.33206305
57	0x3ec53874	0.38519633
58	0xbcfc7820	-0.030818999
59	0x3e75b521	0.23994876
60	0x396dabe8	0.00022666121
61	0x3dd48d57	0.10378521
62	0x3ee4618d	0.44605675
63	0x3e877493	0.26456127
64	0xbe96a979	-0.29426172
65	0xbe63e6b9	-0.22255982
66	0xbe66e06a	-0.22546545
67	0x3ebfaf8e	0.37438625
68	0x3a185d63	0.00058122555
69	0xbe997a36	-0.29976052
70	0xbde68f53	-0.11257806
71	0x3e9bcd45	0.30430046
72	0x3c4a07b6	0.01233094
73	0xbdce2a82	-0.100667015
74	0xbd87d433	-0.06632271
75	0xbe390749	-0.18069185
76	0x392636a2	0.00015851346
77	0x3c90cf85	0.017677078
78	0xbc0a0f02	-0.00842643
79	0x3d925893	0.071458004
80	0x3e10f23f	0.1415491
81	0x3e3ff5de	0.18746135
82	0x3d11a611	0.035558764
83	0xbdd8b0e3	-0.105806135
84	0x39e6ce3e	0.0004402268
85	0x3f406fed	0.75170785
86	0x3cc79000	0.024360657
87	0xbdd35038	-0.10318035
88	0x3ee9e025	0.4567882
89	0x3cea8dfd	0.028632158
90	0x3e28c10e	0.16479895
91	0x3e8d54a7	0.27603647
92	0x3a33b37b	0.0006855053
93	0x3e482170	0.19544005
94	0xbc00457c	-0.007829066
95	0x3ee410db	0.4454411
96	0x3f12f16c	0.5739963
97	0x3f3b2dd3	0.731168
98	0x3ebf9e8b	0.37425646
99	0xbba1a6da	-0.0049332203
100	0xba11a822	-0.0005556365
101	0xbe8f8015	-0.28027406
102	0x3e412d12	0.18864849
103	0xbed55144	-0.41663563
104	0x3c450e55	0.012027343
105	0x3d38aa9a	0.045084573
106	0xbc41b93a	-0.011823947
107	0xbc103ea6	-0.008803999
108	0xb7f6d860	-2.9426243e-05
109	0x3e872509	0.26395443
110	0xbc01df8c	-0.007926833
111	0x3d8c3ad8	0.06847161
112	0x3d955de7	0.07293301
113	0x3e941fb1	0.2893043
114	0x3ef6bd56	0.48191327
115	0xbf178c87	-0.591988
116	0x3977ed9c	0.00023644272
117	0xbd89ba0d	-0.067249395
118	0x3d3b8d66	0.045789145
119	0xbedd4619	-0.43217543
120	0xbed4fac7	-0.41597578
121	0xbe440680	-0.19143105
122	0xbe241581	-0.16023828
123	0x3e96e92b	0.29474768
124	0xba84af0e	-0.0010122971
125	0xbc4bc7b6	-0.0124377515
126	0xbe079621	-0.13240863
127	0x3e2c6836	0.16836628

g f4 [8]
0	0x00000000	0.0
1	0x3f800000	1.0
2	0x40000000	2.0
3	0x40400000	3.0
4	0x40800000	4.0
5	0x40a00000	5.0
6	0x40c00000	6.0
7	0x40e00000	7.0

a9 f4 [16, 1]
0	0x3f537158	0.82594824
1	0x3fadf3a1	1.3589975
2	0x3f8fd517	1.1236905
3	0x3e3d4008	0.18481457
4	0x3f2d8a67	0.6778931
5	0x3f2f460b	0.6846625
6	0xbf0c5e27	-0.54831165
7	0x3fcfdfca	1.624017
8	0xbfb6bbc9	-1.4276057
9	0x3f017709	0.5057226
10	0xbe15efbc	-0.14642233
11	0xbfc150c9	-1.5102779
12	0xbf85b8ea	-1.0447056
13	0xbff84f81	-1.9399263
14	0xbf2667b9	-0.6500202
15	0xbf56dc81	-0.8393021

ms f4 [16]
0	0x00000000	0.0
1	0x3d800000	0.0625
2	0x3e000000	0.125
3	0x3e400000	0.1875
4	0x3e800000	0.25
5	0x3ea00000	0.3125
6	0x3ec00000	0.375
7	0x3ee00000	0.4375
8	0x3f000000	0.5
9	0x3f100000	0.5625
10	0x3f200000	0.625
11	0x3f300000	0.6875
12	0x3f400000	0.75
13	0x3f500000	0.8125
14	0x3f600000	0.875
15	0x3f700000	0.9375

tn f8 []
0	0x4044000000000000	40.0

yk f4 [8]
0	0x3de6b893	0.112656735
1	0x3e2148a9	0.15750374
2	0xbc79ddfe	-0.015250681
3	0xbd0e0c59	-0.034679744
4	0xbcdc6e79	-0.026908146
5	0x3f8112b6	1.0083835
6	0x3d4d910b	0.050187152
7	0x3e5ff777	0.21871744

8w f4 [16]
0	0x3def2016	0.11676042
1	0xbd99cbb4	-0.075095564
2	0xbd8b34c5	-0.06797174
3	0xbe4e6a77	-0.201578
4	0x3e42a06a	0.19006506
5	0xbe4ba324	-0.19886452
6	0x3f6580bf	0.89649576
7	0x3e3d3f3b	0.18481152
8	0x3eae82b9	0.34084108
9	0x3eac22f8	0.3362043
10	0x3f8362ef	1.0264567
11	0x3f13d349	0.5774427
12	0x3ddcb146	0.10776
13	0x3f2a7a38	0.6659274
14	0x3d81a642	0.06330539
15	0xbd9d6ee1	-0.07687164

5k f4 [2, 1]
0	0xbff6da0b	-1.9285291
1	0x3f7dd35b	0.9915063

bj f4 [16, 1]
0	0xbf80660a	-1.003114
1	0xbf6dae65	-0.9284423
2	0xbf242d21	-0.6413136
3	0x3f0124d7	0.5044684
4	0xbdeea611	-0.116527684
5	0xbfae2218	-1.3604155
6	0x3f37e1de	0.7182902
7	0xbf6d2bb0	-0.92644787
8	0x3e3f9bda	0.18711796
9	0xbdc4be58	-0.09606618
10	0xbe3aa5f3	-0.18227367
11	0x3e9fa3fe	0.31179804
12	0x3fa1dc78	1.2645407
13	0x3f8d4161	1.1035577
14	0x3f09c4b6	0.5381578
15	0x3f176ee0	0.59153557

kn f4 [8]
0	0x00000000	0.0
1	0x3e000000	0.125
2	0x3e800000	0.25
3	0x3ec00000	0.375
4	0x3f000000	0.5
5	0x3f200000	0.625
6	0x3f400000	0.75
7	0x3f600000	0.875

uh f4 [16, 16]
0	0x3e139567	0.14412461
1	0x3cd40c69	0.025884824
2	0xbdae1f4b	-0.085020624
3	0x3c214321	0.009842665
4	0x3c0de7ad	0.008661193
5	0xbcdf435a	-0.027253795
6	0x3e1e9ce4	0.15489537
7	0xbd17735f	-0.03697526
8	0x3c0dc37c	0.008652564
9	0xbcaba201	-0.020951273
10	0x3e79f7f6	0.24410996
11	0x3ca6a62c	0.020342909
12	0xbe30203e	-0.171998
13	0x3d8c5826	0.068527505
14	0xbb38a716	-0.0028175763
15	0x3e06a87d	0.1315021
16	0x3e2b6b5f	0.16740178
17	0x3cb16994	0.021656789
18	0xbdc0f9d4	-0.09422651
19	0x3c820ec2	0.015876178
20	0x3d41bc61	0.047298793
21	0xbd12ca0c	-0.03583722
22	0x3e2a072f	0.16604303
23	0xbd16c2f7	-0.036807027
24	0x3cf689d8	0.030095026
25	0xbcc7006c	-0.024292193
26	0x3e847e1a	0.25877458
27	0x3c6893c4	0.014195386
28	0xbe3f215c	-0.1866507
29	0x3d9d2107	0.07672315
30	0xbcb02f9a	-0.021507073
31	0x3e0b3da6	0.13597736
32	0x3e285bdb	0.1644129
33	0x3d127db2	0.035764404
34	0xbda41f94	-0.080138355
35	0x3c2265ff	0.009912013
36	0x3cdeb8ef	0.027187793
37	0xbcd75191	-0.026284011
38	0x3e08986e	0.13339397
39	0xbd095e95	-0.033537466
40	0x3ce128b1	0.027485223
41	0xbc99db96	-0.018781465
42	0x3e56ed0e	0.20988867
43	0x3c83faf7	0.01611088
44	0xbe4f0b81	-0.20219232
45	0x3d753151	0.059861485
46	0xbdc187a3	-0.09449699
47	0x3dfe3b6c	0.124136776
48	0xbdec3a5f	-0.11534571
49	0xbd8610e8	-0.06546193
50	0x3dc08bf2	0.094016925
51	0xbd83acb7	-0.06429427
52	0xbe5b9f8c	-0.21447581
53	0x3d460fbc	0.04835485
54	0xbd4e582e	-0.050377063
55	0x3ce5b6dc	0.028041296
56	0x3d89eb2e	0.0673431
57	0x3d010d61	0.0315069
58	0xbddc0bea	-0.1074446
59	0x3d9c2756	0.0762469
60	0x3e7fe816	0.24990878
61	0xbce97f92	-0.028503213
62	0x3d097760	0.03356111
63	0xbd969780	-0.07353115
64	0xbd2c52cb	-0.042071145
65	0x3d7d96c4	0.06191136
66	0x3d97ad8d	0.07406149
67	0xbdc37cb1	-0.095452674
68	0x3d25d9d8	0.040490955
69	0x3d5fd8ea	0.054650225
70	0xbba80442	-0.0051274607
71	0x3a9d84b1	0.0012017695
72	0x3d8da6e8	0.069166005
73	0x3d1b85d9	0.037969444
74	0xbd276eeb	-0.040877264
75	0x3dfa59f2	0.12224187
76	0x3d897e21	0.0671351
77	0xbc184cf4	-0.009295691
78	0xbdf51e6c	-0.11968693
79	0xbce1df03	-0.02757216
80	0x3e3caab5	0.18424495
81	0x3d80706a	0.06271441
82	0xbde08c15	-0.109642185
83	0xbcc81a4f	-0.024426607
84	0x3d9b895f	0.07594561
85	0xbcd1362b	-0.025538525
86	0x3e29c57f	0.16579245
87	0xbd5a8799	-0.053351972
88	0x3cdbe9c9	0.026844876
89	0xbc1b0283	-0.009461048
90	0x3e79dd36	0.24400792
91	0x3d492778	0.049109906
92	0xbe1d2e94	-0.153498
93	0x3d93abff	0.0721054
94	0xbe32ca46	-0.17459974
95	0x3e26ea3f	0.16300295
96	0xbd001bea	-0.03127662
97	0xbdf096b2	-0.11747493
98	0x3e5dbc45	0.2165385
99	0xbe3706b2	-0.17873648
100	0xbd7614a6	-0.060078286
101	0x3e1a9154	0.15094501
102	0xbe2bec83	-0.16789441
103	0x3d30d751	0.04317409
104	0x3ec13b07	0.37740347
105	0x3db4957d	0.08817575
106	0xbe994ead	-0.29942837
107	0x3e808ba8	0.2510655
108	0x3ed63b5d	0.41842166
109	0xbdc06466	-0.093941495
110	0x3ed7d55d	0.4215497
111	0xbe097cf5	-0.13426574
112	0x3e19b513	0.1501048
113	0x3f01771b	0.50572366
114	0xbdc36e25	-0.09542493
115	0xbeacfb44	-0.3378545
116	0x3ec9eebb	0.3943995
117	0x3dd84790	0.105605245
118	0x3bd48dac	0.006486615
119	0xbd107b4c	-0.035273835
120	0x3ef1a0d4	0.47193015
121	0x3e071062	0.13189843
122	0xbcdec491	-0.02719334
123	0x3ebcd85f	0.36883828
124	0xbdac7e20	-0.08422494
125	0x3c33757c	0.010953303
126	0xbe9a0f21	-0.30089667
127	0xbc27e6be	-0.010247884
128	0xbcc143fd	-0.02359199
129	0xbde63a87	-0.11241632
130	0x3d199d13	0.037503313
131	0xbe3fe96b	-0.18741386
132	0xbcc9cfd4	-0.024635233
133	0x3d8c1dbc	0.06841609
134	0x3e1c445e	0.15260455
135	0x3e08a313	0.13343458
136	0x3e5f465c	0.21804184
137	0x3d6afe27	0.057371285
138	0x3db1a21b	0.08673497
139	0x3e21cb2b	0.15800159
140	0x3e0a412a	0.1350142
141	0x3d357dc5	0.044309396
142	0x3e514e7c	0.20440096
143	0xbe239bf3	-0.15977459
144	0xbe75cbea	-0.24003568
145	0xbe1dc114	-0.15405685
146	0xbdf26ca2	-0.11837126
147	0x3e188496	0.14894328
148	0xbe2d2812	-0.16909817
149	0x3e593fbc	0.21215719
150	0x3d9b19c8	0.07573277
151	0xbeac623e	-0.33668703
152	0x3dd79c1c	0.105278224
153	0x3da59ef0	0.080869555
154	0x3e0a925f	0.13532399
155	0xbea8eafa	-0.32991773
156	0xbe3d548b	-0.18489282
157	0x3c591d7e	0.01325166
158	0xbe6f15a4	-0.23348099
159	0xbe78c7c6	-0.24294958
160	0xbe9f5217	-0.31117317
161	0xbe984cfc	-0.29746234
162	0x3e110dd8	0.14165437
163	0x3e201237	0.15631948
164	0xbedd7feb	-0.43261656
165	0x3c96fd91	0.018431457
166	0x3daa2eea	0.083097294
167	0x3e267703	0.16256337
168	0xbe532a12	-0.20621517
169	0xbd53e177	-0.051728692
170	0x3e167da5	0.14696367
171	0x3e0042b8	0.12525451
172	0x3e92bf17	0.28661415
173	0x3d11dec0	0.03561282
174	0x3e90d9c8	0.28291154
175	0xbe18bb53	-0.14915209
176	0xbcc54157	-0.024079008
177	0x3dd9ec16	0.10640733
178	0xbe07697e	-0.13223836
179	0x3e4a51b9	0.19757737
180	0x3e7a4584	0.2444058
181	0xbe0706d7	-0.13186203
182	0x3e22a209	0.15882124
183	0xbe0a07a7	-0.13479482
184	0x3ebe5037	0.37170574
185	0x3c57e07e	0.013176082
186	0x3e49353a	0.1964921
187	0x3c849ce5	0.016188094
188	0xbf1f6087	-0.62256664
189	0x3d5bb144	0.05363585
190	0xbee6b321	-0.4505854
191	0x3d9042aa	0.07043965
192	0xbe2063a0	-0.15663004
193	0xbeae4085	-0.340336
194	0x3dcd8256	0.10034625
195	0x3d8eba87	0.06969171
196	0xbf0239ee	-0.50869644
197	0x3d9f1f25	0.07769612
198	0xbd4c9aa9	-0.049952183
199	0x3e73d1db	0.23810522
200	0x3df77641	0.12083102
201	0xbcb72374	-0.022355773
202	0x3daa3580	0.083109856
203	0xbded9e55	-0.11602465
204	0x3ef45eb6	0.4772851
205	0xbd4aacd0	-0.049481213
206	0x3ee7dee5	0.45287243
207	0x3d33e996	0.043923937
208	0xbf1c5fc5	-0.6108363
209	0xbf1994cf	-0.5999269
210	0x3ec62a7f	0.38704297
211	0xbe6d446c	-0.23170632
212	0xbf387505	-0.7205356
213	0xbc35a16c	-0.011085849
214	0x3e3d683b	0.18496792
215	0x3e7920e0	0.24328947
216	0xbed8d684	-0.42351162
217	0x3d654913	0.055977892
218	0x3e831bfe	0.25607294
219	0x3e083c7d	0.13304324
220	0x3f4d0636	0.800876
221	0x3dad000b	0.08447274
222	0x3f31222c	0.6919277
223	0xbecb57cb	-0.39715418
224	0xbcfcabe1	-0.030843677
225	0xbd40d529	-0.047078285
226	0x3cc06397	0.023484988
227	0x3e44e286	0.19227037
228	0xbdadb44a	-0.08481653
229	0x3cf89ff1	0.030349704
230	0xbe1680c7	-0.14697562
231	0x3cbea706	0.023273002
232	0x3e76b71f	0.24093293
233	0xbd65c3d0	-0.056094944
234	0xbed95ee8	-0.4245522
235	0xbdcf38ec	-0.10118279
236	0x3e4831b3	0.19550209
237	0xbddec6a4	-0.108777314
238	0x3e1ffb6c	0.15623254
239	0x3c9ed20b	0.019387266
240	0xba9f87dc	-0.0012171227
241	0xbebeccc4	-0.372656
242	0xbd0f8bd3	-0.035045456
243	0xbef208dd	-0.47272387
244	0xbe3b7a5d	-0.18308397
245	0x3ed782ee	0.4209208
246	0x3e97b637	0.29631206
247	0xbe3871ee	-0.1801221
248	0x3dd34b07	0.10317045
249	0xbd4a1698	-0.049337953
250	0x3e27a817	0.16372715
251	0xbcb2f0ec	-0.021843396
252	0x3cb5eca8	0.022207573
253	0x3d4d2454	0.050083473
254	0xbe2bc956	-0.16776022
255	0x3d423b5c	0.04741989

iq f8 []
0	0x4058000000000000	96.0
