OpenUtau.Core/Vogen/Data/g2p.man.onnx (onnx, 11010 bytes, 11 tensors)

h f4 [16, 16]
0.816281 -0.23384629 1.5059451 -0.056759916 -0.79721636 0.95393485 -0.6041982 0.84360707
1.5796226 0.14622216 0.6223522 0.79151917 -0.65243244 -0.03940244 -0.734834 1.0996747
0.8774733 -0.07718852 0.5431546 1.510505 1.1937554 0.8461263 1.5773662 -0.9197491
1.0000106 -0.73966813 -0.7061356 0.60661536 -0.9717033 0.7604734 0.10393256 1.1324787
0.6412011 1.0792114 1.0089182 -0.2668383 0.8016164 0.98486125 -1.2044991 0.28881836
-0.09291913 0.18045941 -0.5507784 1.1114435 1.4816422 1.1285089 -0.6514003 0.85722995
0.58027583 -1.4570009 -0.63888675 0.8133129 -0.7993839 -0.14722626 0.8216178 0.75253814
0.00788288 0.59835094 0.90395814 -1.2881515 0.82997394 -0.29761934 0.6821314 -0.7570496
-0.5703485 0.70762825 0.52697563 0.63628894 -0.23057179 0.96615684 1.1690743 -1.0903008
-0.5746082 -0.22234093 0.80952966 1.039426 0.24174878 -1.0161983 -1.4139377 -0.45895723
0.9325919 0.38977388 0.8759667 1.2179428 0.16802076 0.4818884 -0.21400473 0.851116
-0.26190284 0.7181739 -0.9272094 -0.0091322 -1.6648784 0.27451786 -0.705891 0.33573553
0.6201539 0.39602962 0.99936134 0.21223196 0.44904697 -0.9840927 -0.9066563 0.025450194
0.22802897 0.66619253 1.2456492 -0.61987966 -0.59753096 -0.09071692 -0.26090246 0.012435364
-0.6406252 0.9942146 -0.10780816 -0.26990646 0.95224786 1.2654586 1.1300982 0.7729193
0.89578146 -0.26685402 -0.3910842 -0.4325973 0.8932042 -0.22981057 -1.284028 1.5729467
0.43905193 0.9152712 0.90527755 0.5585498 -0.65560746 -0.29385078 0.5712531 -0.18258296
0.3885813 0.3662655 0.13600565 0.11583024 -0.2746974 1.128508 1.4791377 -0.7415109
0.399802 0.51665866 -0.7998269 -0.57414824 0.83207095 -0.04298071 0.4003232 -0.24289341
0.94461894 0.6672098 -0.33838084 0.47438774 0.925016 -0.73674065 0.8041704 -0.9536976
0.02215285 0.5481165 0.9220642 0.16605635 -0.3605693 -0.65084285 -0.36810544 0.8571293
-0.33460647 0.5624824 0.034158286 0.940276 0.7847575 1.6369183 1.5104983 -0.38656297
-1.4662014 -0.17697911 -0.14698872 0.34315264 0.6209888 1.214978 1.205637 -0.9533273
0.27446404 -0.18251915 1.462887 0.6398495 0.42632553 0.93750054 -0.9335292 1.121248
0.2603478 -1.3464063 -0.034863126 -0.96487343 0.60214853 0.9990599 -0.4667818 -0.35380232
-0.7266649 0.80053216 -0.9103688 1.1101549 0.6405441 -0.8776193 0.12888578 0.023770308
1.0369421 1.2622259 -1.1992782 1.1678761 -1.5382475 -0.39066023 -0.9540317 0.365289
0.8046181 -0.00871563 1.2498631 -0.49846414 1.3586594 0.83139575 0.41036528 0.12737645
0.401719 1.3544459 -0.19804263 0.53628224 -0.46965125 -1.7913884 -0.30712834 0.9339554
1.3228625 1.1639364 1.9828893 0.06624865 0.089017235 0.722476 -0.25496763 0.010016953
-0.9187835 -0.5889796 -0.5193093 0.5881837 -1.0430182 -0.33222285 0.7527282 1.1492242
-0.62962145 -1.1683326 0.46893102 1.3551598 0.6593531 -0.5320042 0.7457966 -0.6063929
00000000: cbf7 503f 6775 6fbe cfc2 c03f 167d 68bd
00000010: 5f16 4cbf 1335 743f bcac 1abf a2f6 573f
00000020: 1331 ca3f 43bb 153e 7952 1f3f 00a1 4a3f
00000030: d005 27bf 7464 21bd 151e 3cbf 24c2 8c3f
00000040: 17a2 603f 0415 9ebd 2e0c 0b3f 3a58 c13f
00000050: facc 983f bc9b 583f 23e7 c93f ad74 6bbf
00000060: 5900 803f e45a 3dbf 4dc5 34bf 254b 1b3f
00000070: 8cc1 78bf 62ae 423f 98da d43d 10f5 903f
00000080: c125 243f 9923 8a3f 3b24 813f 089f 88be
00000090: bb36 4d3f de1f 7c3f 072d 9abf 00e0 933e
000000a0: 634c bebd 5aca 383e d0ff 0cbf c843 8e3f
000000b0: 74a6 bd3f fb72 903f 2cc2 26bf 6c73 5b3f
000000c0: f58c 143f 017f babf 158e 23bf 4635 503f
000000d0: 6ca4 4cbf 7bc2 16be 8b55 523f 57a6 403f
000000e0: 3227 013c 872d 193f cd69 673f 26e2 a4bf
000000f0: 2c79 543f 9061 98be 2aa0 2e3f 01ce 41bf
00000100: 5c02 12bf 2027 353f e0e7 063f d5e3 223f
00000110: 031b 6cbe 0e56 773f 3aa4 953f fa8e 8bbf
00000120: 8619 13bf 57ad 63be 563d 4f3f e90b 853f
00000130: fe8c 773e c912 82bf e9fb b4bf 71fc eabe
00000140: 58be 6e3f 7190 c73e 5b3f 603f 8de5 9b3f
00000150: a20d 2c3e 14ba f63e 0e24 5bbe bde2 593f
00000160: 2118 86be 3fda 373f 985d 6dbf 399f 15bc
00000170: bc1a d5bf 9b8d 8c3e 46b5 34bf 87e5 ab3e
00000180: 68c2 1e3f 65c4 ca3e 25d6 7f3f 5653 593e
00000190: 7ce9 e53e 80ed 7bbf a11a 68bf ed7c d03c
000001a0: 6d80 693e 988b 2a3f 6f71 9f3f 6fb0 1ebf
000001b0: caf7 18bf cbc9 b9bd 0295 85be b2bd 4b3c
000001c0: 0300 24bf d984 7e3f 86ca dcbd 2e31 8abe
000001d0: 84c6 733f 8cfa a13f 0fa7 903f 0ade 453f
000001e0: ef51 653f 17a1 88be 303c c8be 657d ddbe
000001f0: 08a9 643f 7653 6bbe 085b a4bf 5156 c93f
00000200: 6acb e03e 374f 6a3f 45c0 673f 1ffd 0e3f
00000210: e4d5 27bf 9c73 96be a53d 123f 07f7 3abe
00000220: 21f4 c63e 2787 bb3e 1145 0b3e 6838 ed3d
00000230: 23a5 8cbe f372 903f 6254 bd3f a9d3 3dbf
00000240: d9b2 cc3e be43 043f 75c1 4cbf 61fb 12bf
00000250: 9a02 553f 8a0c 30bd 2af7 cc3e 0db9 78be
00000260: 8cd2 713f 43ce 2a3f 4140 adbe f3e2 f23e
00000270: d9cd 6c3f 099b 3cbf 1dde 4d3f 8725 74bf
00000280: e579 b53c 5d51 0c3f 660c 6c3f ad0a 2a3e
00000290: 8a9c b8be a39d 26bf 5178 bcbe d36c 5b3f
000002a0: 8a51 abbe d9fe 0f3f 8fe9 0b3d eeb5 703f
000002b0: dee5 483f 8a86 d13f 0258 c13f 95eb c5be
000002c0: 7dac bbbf 033a 35be 3684 16be b4b1 af3e
000002d0: 1ff9 1e3f 6684 9b3f 5052 9a3f 420d 74bf
000002e0: 8d86 8c3e 4de6 3abe e23f bb3f 2dcd 233f
000002f0: 5747 da3e 0900 703f c5fb 6ebf 0e85 8f3f
00000300: 4f4c 853e 0b57 acbf a3cc 0ebd f201 77bf
00000310: 6826 1a3f 64c2 7f3f 06fe eebe 9425 b5be
00000320: b606 3abf adef 4c3f ee0d 69bf 8e19 8e3f
00000330: b3fa 233f a9ab 60bf a2fa 033e f3b9 c23c
00000340: 85ba 843f 9e90 a13f f381 99bf f77c 953f
00000350: 4be5 c4bf 9e04 c8be 6c3b 74bf 2907 bb3e
00000360: 74fb 4d3f 00cc 0ebc 84fb 9f3f b136 ffbe
00000370: 8de8 ad3f 5ad6 543f 661b d23e f96e 023e
00000380: 1dae cd3e 7c5e ad3f b0cb 4abe cb49 093f
00000390: 2176 f0be 374c e5bf ed3f 9dbe b317 6f3f
000003a0: 8f53 a93f defb 943f 51cf fd3f 5fad 873d
000003b0: ab4e b63d 30f4 383f 1e8b 82be 251e 243c
000003c0: 6535 6bbf 5ec7 16bf 74f1 04bf 3593 163f
000003d0: 9f81 85bf 1d19 aabe ccb2 403f c719 933f
000003e0: df2e 21bf ec8b 95bf ba17 f03e e075 ad3f
000003f0: 5dcb 283f 6d31 08bf 87ec 3e3f 913c 1bbf

1 f4 [16, 70]
0.5034854 0.018109145 0.08697174 -0.10978977 -0.5871251 0.17642833 0.44863188 -0.3848262
-0.79286116 0.052051377 0.19264266 0.35686335 -0.12395271 -0.1590267 -0.4776343 0.3075932
0.19784625 0.2798264 0.6786988 0.6804788 -0.26181388 -0.29003316 -0.59967893 0.4412433
0.1166269 0.17160738 -0.113631815 -0.48211172 -0.6182912 0.70860595 -0.3616551 -0.20016478
-0.12631063 -0.16500077 -0.0323114 -0.79448473 -0.46676487 0.49571574 0.6518644 0.45149326
-0.6821205 -0.31448385 -0.098349296 0.36257353 -0.57438207 -0.42503074 -0.2982833 -1.1905177
0.65753204 -0.25465614 -0.39165404 -0.35721803 0.35096642 -0.003787929 -0.04158566 0.17382897
0.057017583 -0.3371959 0.7766899 -0.26970094 0.4629526 0.2994163 -0.1382717 0.55084217
0.018408775 0.07739472 -0.58837205 -0.7470954 -0.78164077 -0.65483564 0.26197165 0.11570468
-0.063151784 0.30752006 0.42056614 0.7613189 0.6930428 0.20971172 0.28255233 -0.24055682
-0.50119483 0.97512543 0.16548191 -0.3697466 0.38100165 0.63381124 -0.50020325 -0.2640307
-0.34978852 -0.2672047 -0.4587767 0.2881583 -0.55040437 -0.46490076 -0.28037626 1.1731101
-0.64530826 0.3090134 -0.76011235 1.3835955 -0.3501781 -0.17477077 1.1172432 0.48743728
-0.3230674 -0.074857175 -0.5520439 -0.41281837 -0.50466335 -0.011193222 0.7004839 0.6259183
-0.08409077 -0.45805445 1.6009545 -0.511285 -0.63357854 -0.17676386 -0.8985129 0.1353603
0.5808091 -0.6830134 -0.5061267 -0.6127696 0.34236154 1.2269453 -0.6126191 -1.0326014
-0.027915336 -0.3228391 0.21236002 -0.32932535 -0.0706228 1.2912006 -0.8072509 -0.43441582
-0.6729889 -1.1047814 -0.16200425 -0.94013387 0.3386926 -0.16612174 -0.64964 -0.7094825
0.3091744 -0.5408198 -0.49456343 -0.36301073 0.36307174 -0.11272703 0.5964146 0.32687247
0.026892995 -0.16868268 0.34530392 0.32726264 -0.89975023 -0.17304096 0.21846657 0.47653937
0.6348026 0.14258318 1.0103253 0.15136896 0.48449793 0.71778494 -0.38655892 0.5469347
0.7630333 -0.9225848 0.58908516 -0.5283117 -1.1887935 -0.15334702 0.7223118 -0.67020124
-0.38753816 -0.18994816 -0.0662792 -0.16244967 0.23199226 0.91378546 0.17127928 -0.5984316
0.15566061 -0.54263866 -0.74257046 -0.4278791 0.98781526 0.78086174 -1.230706 -0.7962652
-0.8046453 0.29779643 0.34407523 0.5142906 -0.666875 -0.578517 -0.5966142 -0.29684117
-0.95964754 0.05621248 0.6993641 -1.6588151 -1.0386195 -0.5559852 0.034042485 -0.5550623
-0.36091173 -0.31155673 0.1787281 -0.6128229 0.2302065 -0.68507326 0.4265008 -0.029930182
0.48146424 -0.25185147 -1.0058179 0.9278127 -0.52558625 0.09745911 0.34143835 -0.03372317
0.713119 -0.1592986 -0.52097976 0.5081155 1.0422733 -0.5896865 -1.0728288 0.21856105
-0.30560106 0.67563546 -0.22386396 -0.7093698 0.60346645 -0.4380295 0.47608823 0.1987282
-0.99386173 0.38855612 0.12021135 -0.9606346 0.88500315 -0.40026933 -0.52967244 0.203809
-0.34761637 0.12314143 -0.053147618 -0.059394054 -0.45230713 -0.19764996 -0.47660682 -0.114572465
00000000: 6be4 003f a159 943c 3d1e b23d 75d9 e0bd
00000010: d54d 16bf a1a9 343e 14b3 e53e f107 c5be
00000020: f3f8 4abf d333 553d 1e44 453e cbb6 b63e
00000030: ebda fdbd e5d7 22be 7c8c f4be db7c 9d3e
00000040: 3598 4a3e 6845 8f3e 34bf 2d3f dc33 2e3f
00000050: 780c 86be 3a7f 94be 8f84 19bf a4ea e13e
00000060: 16da ee3d d8b9 2f3e ccb7 e8bd 59d7 f6be
00000070: 5548 1ebf 3367 353f db2a b9be fff7 4cbe
00000080: 9357 01be f6f5 28be f558 04bd 5a63 4bbf
00000090: cefb eebe 74ce fd3e 96e0 263f 202a e73e
000000a0: 739f 2ebf 0704 a1be 5b6b c9bd 3da3 b93e
000000b0: b40a 13bf a19d d9be 97b8 98be e262 98bf
000000c0: 0554 283f 4a62 82be e186 c8be 48e5 b6be
000000d0: dfb1 b33e e73e 78bb ba55 2abd 3900 323e
000000e0: 458b 693d f1a4 acbe 26d5 463f 3e16 8abe
000000f0: 2008 ed3e 184d 993e 1997 0dbe fe03 0d3f
00000100: 00ce 963c 1f81 9e3d 8d9f 16bf a541 3fbf
00000110: 9c19 48bf 4fa3 27bf 2621 863e 93f6 ec3d
00000120: b955 81bd 4573 9d3e 7254 d73e cce5 423f
00000130: 416b 313f abbe 563e b3aa 903e 8754 76be
00000140: 4e4e 00bf d2a1 793f 1774 293e 6d4f bdbe
00000150: a612 c33e 7441 223f 520d 00bf 082f 87be
00000160: 7b17 b3be 0ecf 88be c8e4 eabe 7c89 933e
00000170: 4de7 0cbf 7907 eebe 7a8d 8fbe 7928 963f
00000180: ec32 25bf 0137 9e3e b996 42bf a819 b13f
00000190: 8b4a b3be 1cf7 32be d301 8f3f 6191 f93e
000001a0: 1769 a5be b84e 99bd c052 0dbf ee5c d3be
000001b0: 9e31 01bf c763 37bc ea52 333f 2f3c 203f
000001c0: c837 acbd 1d86 eabe 14ec cc3f 93e3 02bf
000001d0: 3432 22bf 9601 35be f104 66bf e49b 0a3e
000001e0: e8af 143f f7d9 2ebf 8591 01bf 78de 1cbf
000001f0: 034a af3e 8b0c 9d3f 9bd4 1cbf 482c 84bf
00000200: b4ae e4bc 2b4b a5be e874 593e 559d a8be
00000210: b0a2 90bd 1046 a53f ffa7 4ebf c06b debe
00000220: 0049 2cbf 7a69 8dbf 71e4 25be 9dac 70bf
00000230: 1e69 ad3e d11b 2abe cf4e 26bf a5a0 35bf
00000240: 1b4c 9e3e 2b73 0abf 6b37 fdbe 8bdc b9be
00000250: 8ae4 b93e 6edd e6bd a1ae 183f d45b a73e
00000260: b34e dc3c 27bb 2cbe adcb b03e f88e a73e
00000270: 0856 66bf a631 31be b3b5 5f3e f8fc f33e
00000280: 6c82 223f 5301 123e 5752 813f 7700 1b3e
00000290: 1d10 f83e c1c0 373f 0deb c5be ea03 0c3f
000002a0: 2656 433f 842e 6cbf 49ce 163f 703f 07bf
000002b0: 632a 98bf 0007 1dbe 6de9 383f 4f92 2bbf
000002c0: 676b c6be c581 42be 64bd 87bd 3559 26be
000002d0: 618f 6d3e d8ed 693f d663 2f3e d032 19bf
000002e0: 7f65 1f3e 5eea 0abf 1919 3ebf f812 dbbe
000002f0: 76e1 7c3f 8ee6 473f c687 9dbf 09d8 4bbf
00000300: 3cfd 4dbf c678 983e a12a b03e 8ca8 033f
00000310: 52b8 2abf b119 14bf b5bb 18bf 91fb 97be
00000320: 76ab 75bf 0f3f 663d 8709 333f 0e54 d4bf
00000330: 7cf1 84bf 0c55 0ebf 2270 0b3d 9018 0ebf
00000340: 6cc9 b8be 5d84 9fbe 8004 373e f6e1 1cbf
00000350: 41bb 6b3e f660 2fbf 505e da3e 2430 f5bc
00000360: 7b82 f63e adf2 80be a4be 80bf 2285 6d3f
00000370: d28c 06bf a498 c73d 02d1 ae3e 4f21 0abd
00000380: f78e 363f 2c1f 23be ee5e 05bf db13 023f
00000390: 3669 853f b2f5 16bf 7452 89bf 78ce 5f3e
000003a0: be77 9cbe 72f6 2c3f 983c 65be 4299 35bf
000003b0: c77c 1a3f 6745 e0be d6c1 f33e 687f 4b3e
000003c0: b96d 7ebf d4f0 c63e 5e31 f63d 26ec 75bf
000003d0: 918f 623f 1af0 ccbe 9d98 07bf 4eb3 503e
000003e0: c6fa b1be 9331 fc3d 51b1 59bd 2e47 73bd
000003f0: cd94 e7be c064 4abe cf05 f4be f8a4 eabd

e f4 [37, 16]
0.16112052 0.23102982 -0.90239245 0.39269763 -0.85467726 0.6636306 0.4133397 0.4847925
0.07773373 0.35666665 0.28138563 0.47797713 0.489877 0.86468244 -0.03410241 0.26658005
0.5295528 -0.286683 0.15247326 0.95119613 -0.16097267 -1.2192359 -0.74351984 0.8175856
-0.43190074 -1.0889485 -0.4633011 -0.011600594 -0.43030855 -0.5916789 0.6678026 0.59570026
0.3940458 1.3272136 0.79681975 1.2473716 0.36821398 -1.2625575 -0.72816414 -0.5152608
-0.11590717 -0.11731983 -1.1822425 -0.3809174 0.6057701 -0.4658457 -0.56203043 0.21498062
-0.1797564 0.21894337 -0.6580597 -0.49476117 -0.29802406 0.148203 -0.8144659 0.15738124
0.6485327 -0.33405676 -0.44115222 -0.33736572 -0.09828567 -0.38893497 0.14896746 -0.24829368
0.065668836 -0.7540002 0.9005941 0.64328265 0.05019629 0.63736594 -0.17604955 -0.7559513
0.1303572 0.6999251 0.5852243 1.3560797 0.1683082 0.23253985 1.4010106 0.7648869
0.08943147 -0.35944042 0.29313824 0.018519469 0.35905802 0.92587066 0.7913929 0.030568246
0.48688823 0.721703 0.65555596 0.81585366 -0.57052976 0.6064007 0.6708304 0.102158844
0.28965524 0.043666724 1.6899487 0.09314259 0.5722079 -0.06494247 -0.69190603 -0.5843672
0.23176086 -0.30890858 -0.50976825 -0.1744943 1.1180565 0.8832169 0.5143807 -1.1161573
-0.45959693 -0.33287993 0.015156873 0.02791525 -0.10795476 0.5645382 0.77552325 0.41598412
0.11032298 -0.5556865 0.6936823 -0.033547442 0.4658069 -1.4699392 -0.09748132 -0.20953049
0.5260558 0.506373 0.0042877384 0.7309024 -0.36995074 0.7445888 0.642786 0.26808596
-0.08131362 0.7215068 -0.90305847 -0.19384485 -1.0738205 -0.12177004 0.46659556 0.5855832
0.092693835 -0.4565677 -1.0396789 -0.045288496 -0.3769819 -0.07304851 0.9838868 0.32326096
0.79559034 -1.2931013 -0.9256822 -1.1228557 -0.58026946 1.3907129 -0.2650054 0.13208316
0.7169853 0.42862844 0.22840486 0.9550658 0.4749263 -0.43661416 0.8757316 0.37577015
-0.19622965 0.13723542 -0.08324557 -0.02037906 -0.689167 0.47391132 0.15155448 0.40492585
-0.7259088 0.40428802 -0.29683203 -0.33651495 -0.22670086 -0.74695146 -0.47152433 0.9050102
-0.5413283 -0.23119266 0.13704 -0.15289572 -0.0068783504 0.9886119 0.6954861 0.27684936
0.6368248 0.24771376 -0.054373745 0.5974243 0.66802144 0.7187124 0.41250572 -0.34207654
-0.12231193 0.19126336 0.05496015 0.1279547 0.35855326 0.10230966 0.59419596 0.70051247
-0.09332863 -0.055373494 0.3317059 0.6133916 0.5557182 -0.5191999 0.29397884 0.40490285
0.58710307 0.62356466 0.6684127 0.65308106 -0.48339266 0.48831913 0.6838867 -0.40548205
0.6095511 0.022747578 0.2372655 0.6730803 0.3805758 0.40438873 0.8137698 0.7582488
0.4501224 0.64783 0.43664786 0.3871642 -0.64652336 0.62072444 0.59289956 0.27289906
0.436736 0.9251597 -0.032063108 0.35229623 0.619173 1.0005602 1.0585437 -0.07932079
0.91132843 0.6694179 0.79873747 0.49507788 0.16162018 0.7941605 -0.24976961 -0.43396202
00000000: c7fc 243e 1593 6c3e 3103 67bf aa0f c93e
00000010: 21cc 5abf b2e3 293f 43a1 d33e b936 f83e
00000020: dd32 9f3d 039d b63e c711 903e 6bb9 f43e
00000030: 28d1 fa3e d45b 5d3f f8ae 0bbd 2e7d 883e
00000040: c690 073f 1dc8 92be f321 1c3e 9781 733f
00000050: 05d6 24be ec0f 9cbf 5157 3ebf 4a4d 513f
00000060: 1822 ddbe aa62 8bbf cd35 edbe 6b10 3ebc
00000070: 6751 dcbe 4578 17bf 1cf5 2a3f d07f 183f
00000080: 5fc0 c93e 23e2 a93f 61fc 4b3f dfa9 9f3f
00000090: 8b86 bc3e 7c9b a1bf f768 3abf 22e8 03bf
000000a0: bd60 edbd 6145 f0bd b953 97bf 9b07 c3be
000000b0: c013 1b3f 5483 eebe 3ae1 0fbf e123 5c3e
000000c0: 1012 38be b132 603e 9a76 28bf 5651 fdbe
000000d0: 9c96 98be 87c2 173e d680 50bf 8c28 213e
000000e0: 3d06 263f 7d09 abbe b4de e1be 33bb acbe
000000f0: ff49 c9bd 7c22 c7be ed8a 183e b340 7ebe
00000100: 627d 863d 2806 41bf 568d 663f 2cae 243f
00000110: a09a 4d3d 6a2a 233f 5546 34be 0686 41bf
00000120: 5c7c 053e 4b2e 333f 42d1 153f 0594 ad3f
00000130: fc58 2c3e ed1e 6e3e 5154 b33f a1cf 433f
00000140: d927 b73d 9308 b8be 3716 963e 24b6 973c
00000150: 74d6 b73e dc05 6d3f ba98 4a3f 426a fa3c
00000160: 6a49 f93e 87c1 383f 84d2 273f c9db 503f
00000170: 3d0e 12bf 143d 1b3f 8bbb 2b3f a838 d13d
00000180: b14d 943e e1db 323d 3d50 d83f 8bc1 be3d
00000190: 387c 123f 8f00 85bd c120 31bf 1799 15bf
000001a0: b852 6d3e 4429 9ebe 2c80 02bf a2ae 32be
000001b0: 7a1c 8f3f 811a 623f 74ae 033f 3ede 8ebf
000001c0: 4a50 ebbe 3d6f aabe 8854 783c 86ae e43c
000001d0: 6317 ddbd 9385 103f b188 463f dffb d43e
000001e0: 04f1 e13d 7841 0ebf 2a95 313f 0b69 09bd
000001f0: 3e7e ee3e f826 bcbf 49a4 c7bd 298f 56be
00000200: 98ab 063f a9a1 013f 2880 8c3b 6b1c 3b3f
00000210: 2f6a bdbe 5f9d 3e3f a08d 243f 9042 893e
00000220: c187 a6bd abb4 383f d72e 67bf 447f 46be
00000230: f372 89bf 9262 f9bd 9de5 ee3e c8e8 153f
00000240: 44d6 bd3d 3ec3 e9be 3314 85bf 6e80 39bd
00000250: c603 c1be 759a 95bd 01e0 7b3f 7682 a53e
00000260: cfab 4b3f 5884 a5bf 82f9 6cbf bcb9 8fbf
00000270: 8a8c 14bf e102 b23f caae 87be cf40 073e
00000280: 598c 373f 3075 db3e f7e2 693e 317f 743f
00000290: 8a29 f33e e48b dfbe f22f 603f f264 c03e
000002a0: 6df0 48be 7187 0c3e a77c aabd fdf1 a6bc
000002b0: 406d 30bf 81a4 f23e 1931 1b3e 7152 cf3e
000002c0: 29d5 39bf d7fe ce3e 5efa 97be b04b acbe
000002d0: 4524 68be 3638 3fbf a36b f1be c0ae 673f
000002e0: 7e94 0abf c5bd 6cbe 3754 0c3e b290 1cbe
000002f0: c963 e1bb ab15 7d3f 610b 323f 33bf 8d3e
00000300: f306 233f ada8 7d3e 01b7 5ebd cdf0 183f
00000310: 7403 2b3f 89fd 373f f333 d33e a824 afbe
00000320: ad7e fabd 8bda 433e e51d 613d 8f06 033e
00000330: 4b94 b73e ba87 d13d 3a1d 183f c954 333f
00000340: 1523 bfbd 51cf 62bd 5bd5 a93e 3b07 1d3f
00000350: 8c43 0e3f 49ea 04bf 6584 963e 6d4f cf3e
00000360: 634c 163f efa1 1f3f 181d 2b3f 5230 273f
00000370: 3e7f f7be f704 fa3e 3313 2f3f 589b cfbe
00000380: 8a0b 1c3f 2159 ba3c baf5 723e fe4e 2c3f
00000390: d5da c23e 0a0c cf3e 3853 503f 981c 423f
000003a0: 7176 e63e 30d8 253f 4f90 df3e 633a c63e
000003b0: 8e82 25bf cce7 1e3f 44c8 173f 6db9 8b3e
000003c0: dc9b df3e 44d7 6c3f 9b54 03bd 2c60 b43e
000003d0: 1f82 1e3f 5b12 803f 5c7e 873f f072 a2bd
000003e0: d24c 693f f95e 2b3f 0f7a 4c3f d97a fd3e
000003f0: c37f 253e 1a4e 4b3f 9bc3 7fbe 4530 debe

9 f4 [70]
0.12731151 -0.2765123 -0.047253486 -0.1420292 -0.056074716 0.34422347 0.109259866 -0.15274535
-0.11026172 0.46781814 -0.008073823 0.19188449 -0.42333907 -0.32200173 -0.019417683 -0.013900573
-0.28424492 -0.084751494 -0.015204393 -0.35631093 -0.18155658 -0.13257153 -0.13401401 0.014038785
-0.20493168 -0.33547494 -0.36972463 -0.092318274 -0.2595426 1.0925205 0.21277173 -0.37154692
0.77347463 -0.073022485 0.008562225 -0.04197937 -0.23450443 0.14319663 -0.28001922 -0.37302682
0.23101358 -0.078691304 -0.2380147 -0.31646693 0.15478374 -0.28445035 -0.3321652 -0.1348997
-0.12111597 0.22257195 0.3772218 -0.216282 -0.27117133 -0.17997251 -0.34646398 -0.059789408
-0.1575665 -0.12459183 0.29432824 -0.23735164 0.16769467 0.1189821 -0.14518991 0.51711994
-0.12666398 -0.2629328 -0.20675471 -0.109307565 0.14152913 -0.20454253
00000000: f35d 023e 0593 8dbe df8c 41bd 1a70 11be
00000010: 9aae 65bd 0f3e b03e a3c3 df3d 4769 1cbe
00000020: e6d0 e1bd dc85 ef3e 1148 04bc 5e7d 443e
00000030: e6bf d8be 69dd a4be d511 9fbc 3bbf 63bc
00000040: 8d88 91be 3192 adbd d91b 79bc 636e b6be
00000050: f8e9 39be d5c0 07be f83a 09be ef02 663c
00000060: 9cd9 51be 5fc3 abbe 8c4c bdbe 5d11 bdbd
00000070: c5e2 84be b6d7 8b3f d5e0 593e 663b bebe
00000080: 6f02 463f d08c 95bd 9348 0c3c 8ff2 2bbd
00000090: ee21 70be 23a2 123e ae5e 8fbe 5ffd bebe
000000a0: d38e 6c3e e828 a1bd 20ba 73be f407 a2be
000000b0: a17f 1e3e 7aa3 91be 8f11 aabe 2623 0abe
000000c0: a60b f8bd e7e9 633e 3723 c13e 0779 5dbe
000000d0: f8d6 8abe b74a 38be ba63 b1be bde5 74bd
000000e0: 1d59 21be 002a ffbd 31b2 963e 4f0c 73be
000000f0: 27b8 2b3e e3ac f33d aaac 14be f961 043f
00000100: 34b4 01be 219f 86be 82b7 53be a5dc dfbd
00000110: 03ed 103e 9973 51be

r f4 [16, 16]
-0.9666699 0.8496661 1.0040125 0.6148369 -0.11358453 0.8292792 0.86536264 -1.2839668
0.26223132 0.91892374 1.1068814 1.5370513 1.2563325 -0.21672058 0.2602287 -0.45352122
1.1193634 1.3299726 0.5995291 -0.056972615 0.42614776 0.42650038 0.7504346 0.6844182
0.90383446 0.6380937 0.33737183 -0.15037309 1.3745341 -0.029954374 1.2394876 -0.5531849
0.9749299 1.4341459 0.08735486 -0.73344994 1.2411568 -0.7815142 -0.772537 1.3516368
-0.0492191 0.3845218 -0.9252868 0.74385226 0.6063665 -0.8032223 1.6632618 0.25016344
0.46707904 0.9282408 0.92160314 0.5428811 0.5355492 0.80381525 0.42788166 0.6059617
0.22430141 1.4119328 0.39658716 1.3257579 1.1133741 -1.1994816 -1.9235126 0.10635074
1.7160643 0.842782 0.41412362 -0.49724674 1.2279562 0.2343984 -1.4142468 1.0507632
-0.9816438 0.33517605 0.28091934 -0.28021604 0.992136 -0.4319855 0.7392088 1.3921278
-0.2509081 -0.5896999 0.62257665 0.83322906 -0.0032021443 0.21590523 0.18193376 0.15673313
0.62253267 0.43694773 1.3965675 -0.9071209 1.2883483 -0.5511276 -0.09026231 1.30474
0.16743939 0.4466382 0.32664156 1.2273569 -1.2618364 0.030322196 0.059793442 -1.2434064
0.37755936 1.6652942 0.81709296 -1.0882589 -0.08556736 0.45522273 -1.1358776 1.4229329
0.101237714 1.1199826 -0.048317004 -0.73112065 0.009723893 -1.2147344 0.0706174 0.8454289
-0.1570161 1.0050544 -1.1777681 -0.51887804 0.4583935 0.2921653 -0.35503256 1.0382178
1.4840963 1.1455752 0.023544913 1.1012594 1.4609541 -0.08542334 -0.39547822 0.503855
0.2657807 0.3639406 1.2371653 1.4212649 -0.3000988 0.6595732 0.46334463 0.6090352
-0.9913776 0.59768397 1.0076393 0.6797188 -0.56969994 0.2990661 0.87132764 1.2441332
0.66527444 1.292247 0.25914684 0.9958107 0.034751818 -0.443828 -0.11708973 -0.8642773
0.3280836 -0.6993418 0.40650865 1.0494453 0.61694866 0.4641639 0.99852264 1.2413437
-0.65805966 -0.3547983 -0.54245484 -1.1806115 -0.9398709 -0.13772766 0.5713313 1.336299
-0.1564148 -0.05627817 -0.17698266 0.9254123 0.5267259 0.57755095 0.83159447 1.1235886
0.8641023 0.10228656 0.02270027 0.8850339 -0.45592448 -1.1270947 -1.8069112 -0.0078051724
-1.1265348 1.177808 0.9128522 0.3739079 0.7618155 1.0550627 0.4437589 1.0010146
0.101743765 -0.72243696 0.51096237 -1.7464838 0.8581754 0.21507667 0.65733624 0.9917703
-0.20825112 -0.12069289 -0.9064701 0.32677403 0.86957353 0.036084104 1.0649985 -0.9104369
1.6109921 -0.04484781 0.12213714 1.0407985 0.6033316 0.40263203 0.011711132 0.5348014
1.3069835 -1.5860196 -1.2212362 0.94113845 1.5200508 -0.35052514 0.28753036 0.6122636
-0.49929446 1.0566334 -0.73977685 0.9725481 1.2385284 -0.33261955 1.1680245 0.7964811
0.7192909 -1.0390569 1.1437842 -0.72341067 -0.41521898 1.1309106 0.31345516 0.41718888
-0.09990051 1.0349617 -0.10068037 -0.2294746 0.98399395 0.05175242 0.83933276 -0.49067995
00000000: ae77 77bf b883 593f 7b83 803f f365 1d3f
00000010: 029f e8bd a44b 543f 6888 5d3f 0659 a4bf
00000020: 2f43 863e 963e 6b3f 4aae 8d3f 19be c43f
00000030: 81cf a03f 00ec 5dbe b23c 853e ef33 e8be
00000040: 4d47 8f3f 8b3c aa3f bd7a 193f 1e5c 69bd
00000050: 0a30 da3e 425e da3e 7b1c 403f 0836 2f3f
00000060: b261 673f 1c5a 233f 00bc ac3e 67fb 19be
00000070: bcf0 af3f e062 f5bc 88a7 9e3f 879d 0dbf
00000080: 0295 793f 1892 b73f 1be7 b23d 60c3 3bbf
00000090: 3ade 9e3f 5111 48bf fcc4 45bf 6f02 ad3f
000000a0: f899 49bd 0be0 c43e 99df 6cbf 1a6d 3e3f
000000b0: d63a 1b3f fa9f 4dbf c3e5 d43f 6c15 803e
000000c0: fc24 ef3e 30a1 6d3f 2fee 6b3f 41fa 0a3f
000000d0: c119 093f d6c6 4d3f 4e13 db3e 4e20 1b3f
000000e0: 45af 653e 37ba b43f 790d cb3e 6fb2 a93f
000000f0: 0b83 8e3f 9d88 99bf a935 f6bf 6bce d93d
00000100: ffa7 db3f 90c0 573f 0308 d43e 2097 febe
00000110: ab2d 9d3f 2206 703e 0a06 b5bf 697f 863f
00000120: 024d 7bbf 329c ab3e a9d4 8f3e 7a78 8fbe
00000130: a0fc 7d3f 342d ddbe ca3c 3d3f 3e31 b23f
00000140: 0777 80be 93f6 16bf 2f61 1f3f 804e 553f
00000150: 11db 51bb 4316 5d3e d84c 3a3e a67e 203e
00000160: 4d5e 1f3f 9db7 df3e b9c2 b23f 1339 68bf
00000170: 99e8 a43f b316 0dbf 72db b8bd b801 a73f
00000180: 3b75 2b3e c3ad e43e 903d a73e 081a 9d3f
00000190: db83 a1bf 4166 f83c f8e9 743d f127 9fbf
000001a0: 764f c13e 5c28 d53f 012d 513f 114c 8bbf
000001b0: f13d afbd f412 e93e 7064 91bf aa22 b63f
000001c0: b855 cf3d 975b 8f3f 0de8 45bd b92a 3bbf
000001d0: f750 1f3c 6b7c 9bbf db9f 903d 076e 583f
000001e0: d4c8 20be 9fa5 803f 1bc1 96bf 31d5 04bf
000001f0: 8eb2 ea3e b196 953e d4c6 b5be 52e4 843f
00000200: def6 bd3f 35a2 923f 43e1 c03c 11f6 8c3f
00000210: 8b00 bb3f 6ff2 aebd 1f7c cabe a4fc 003f
00000220: 6814 883e 6c56 ba3e 6f5b 9e3f 02ec b53f
00000230: 8da6 99be cad9 283f 823b ed3e bbe9 1b3f
00000240: ecca 7dbf d101 193f 53fa 803f 0d02 2e3f
00000250: dbd7 11bf 311f 993e 540f 5f3f c23f 9f3f
00000260: 6d4f 2a3f 5a68 a53f e5ae 843e 73ed 7e3f
00000270: ec57 0e3d 6c3d e3be becc efbd 4741 5dbf
00000280: 93fa a73e 1008 33bf e721 d03e 3954 863f
00000290: 59f0 1d3f e4a6 ed3e 2e9f 7f3f 5ae4 9e3f
000002a0: 9976 28bf 1fa8 b5be 52de 0abf 471e 97bf
000002b0: 619b 70bf 7b08 0dbe c542 123f d80b ab3f
000002c0: 342b 20be f083 66bd f13a 35be d2e7 6c3f
000002d0: 82d7 063f 61da 133f 60e3 543f c0d1 8f3f
000002e0: cf35 5d3f 9e7b d13d ebf5 b93c 9591 623f
000002f0: ef6e e9be a444 90bf de48 e7bf 88c2 ffbb
00000300: 4b32 90bf 6ac2 963f afb0 693f db70 bf3e
00000310: 5706 433f 4b0c 873f 5e34 e33e 3f21 803f
00000320: 095f d03d a1f1 38bf 6ece 023f c88c dfbf
00000330: 62b1 5b3f 0f3d 5c3e 3047 283f a9e4 7d3f
00000340: c83f 55be d52d f7bd 6d0e 68bf ed4e a73e
00000350: 5f9c 5e3f edcc 133d df51 883f 6512 69bf
00000360: fd34 ce3f 56b2 37bd 0923 fa3d e338 853f
00000370: f173 1a3f c925 ce3e 0ce0 3f3c bfe8 083f
00000380: 3c4b a73f b102 cbbf 7851 9cbf 73ee 703f
00000390: 0691 c23f 0878 b3be 2e37 933e 4fbd 1c3f
000003a0: 86a3 ffbe c33f 873f 0462 3dbf eaf8 783f
000003b0: 1988 9e3f 1c4d aabe d481 953f 2fe6 4b3f
000003c0: 7323 383f d1ff 84bf 8567 923f 7131 39bf
000003d0: 9597 d4be aec1 903f 327d a03e c899 d53e
000003e0: a398 ccbd a079 843f 8331 cebd 64fb 6abe
000003f0: 07e7 7b3f 58fa 533d 83de 563f 673a fbbe

c f4 [6, 4]
1.3189023 1.3945353 -0.12758987 -1.1672783 0.5835305 -0.8785033 0.90651155 0.5135486
0.6412097 1.5838711 -1.9233955 1.1708076 0.89041674 -1.4031771 -1.8601738 1.1613528
0.5481982 -0.16796651 1.4315655 -1.359781 1.0973933 1.2318316 1.3041241 0.01037088
00000000: cad1 a83f 2280 b23f eba6 02be 6069 95bf
00000010: 4162 153f 98e5 60bf 2411 683f ec77 033f
00000020: 5226 243f 4abc ca3f d331 f6bf 06dd 953f
00000030: 5af2 633f 4f9b b3bf 2d1a eebf 35a7 943f
00000040: b856 0c3f 6aff 2bbe 8a3d b73f 4e0d aebf
00000050: 6277 8c3f a8ac 9d3f 8aed a63f a0ea 293c

i f4 [4]
-0.0048974734 0.38982022 0.87376356 0.16091171
00000000: fc7a a0bb 8496 c73e f8ae 5f3f 0ac6 243e

j f4 [16]
0.26199448 0.5017488 -0.69706994 0.3261055 -0.33415717 -0.16513146 -0.2914376 0.30799106
0.25659293 0.08733974 0.38856733 -0.10836178 0.41411167 0.38145706 0.14194393 0.28149673
00000000: 2424 863e 9c72 003f 2d73 32bf 4df7 a63e
00000010: a616 abbe 3918 29be 4f37 95be 01b1 9d3e
00000020: 2660 833e 2ddf b23d 4cf2 c63e c8ec ddbd
00000030: 7206 d43e 574e c33e c059 113e 5720 903e

5 f4 [6]
0.72971904 0.2172288 0.29285023 0.3753941 1.2839807 1.1771585
00000000: dece 3a3f 3a71 5e3e 77f0 953e a833 c03e
00000010: 7b59 a43f 21ad 963f

o f4 [8, 6]
1.1144444 0.9379823 0.31797192 1.0661563 0.93247813 0.46025544 0.063709706 0.14308596
-1.9702948 0.34004256 1.5969296 -0.6153063 -0.34185174 -0.24886024 0.11150646 1.4052616
-0.3484517 -1.074752 0.21570246 0.62987816 0.5197479 1.1115887 -1.0116235 -0.98063177
0.6748477 0.0715883 0.9068735 0.7153504 -1.320205 0.081926964 -0.5235922 0.39532933
1.1380854 0.92514914 -0.15499689 1.6749334 -0.8572046 1.0590657 -0.020191072 0.9940341
0.12938733 0.7771977 -0.23133057 0.74191236 0.6660121 1.2030882 0.19523208 0.78619254
00000000: 1da6 8e3f 9c1f 703f 37cd a23e cf77 883f
00000010: e3b6 6e3f 9aa6 eb3e 3c7a 823d 2085 123e
00000020: 9f32 fcbf 0f1a ae3e 3068 cc3f b784 1dbf
00000030: 3107 afbe 38d5 7ebe 805d e43d 9ddf b33f
00000040: 4368 b2be 7991 89bf 1be1 5c3e b23f 213f
00000050: 330e 053f 8a48 8e3f e17c 81bf af0a 7bbf
00000060: d2c2 2c3f e39c 923d dd28 683f 3421 373f
00000070: 7afc a8bf 53c9 a73d 230a 06bf 9b68 ca3e
00000080: c8ac 913f 93d6 6c3f 81b7 1ebe 3864 d63f
00000090: c371 5bbf 778f 873f bf67 a5bc 0579 7e3f
000000a0: 1d7e 043e 6ef6 463f ece1 6cbe f8ed 3d3f
000000b0: c57f 2a3f cbfe 993f ebea 473e ea43 493f

x f4 [16]
0.52080005 0.43729454 0.4640784 0.035099734 0.3568848 0.13191597 0.14310406 0.32839367
0.29978007 0.1506428 0.10456072 0.2758677 0.40160128 0.54244363 0.585816 0.2513195
00000000: 2753 053f 12e5 df3e af9b ed3e bdc4 0f3d
00000010: 9bb9 b63e fb14 073e df89 123e 3723 a83e
00000020: c67c 993e 1b42 1a3e ee23 d63d 883e 8d3e
00000030: af9e cd3e 96dd 0a3f 0af8 153f f3ac 803e
