OpenUtau.Core/Vogen/Data/g2p.yue.onnx (onnx, 10799 bytes, 11 tensors)

7 f4 [16, 67]
00000000: 6dd4 943f 58a1 fcbe f943 6dbf 1599 61bf
00000010: e785 31bf 704d 8bbf a72c 3abf 5af0 a2be
00000020: 5eaf 3abf dc59 6cbf c832 1abf 8e43 3dbe
00000030: b55a 84bf 6258 47bf 0bd1 6b3f cc88 2cbf
00000040: 5603 49bf 6afe 06bf a6bb 2dbf 9a90 41bf
00000050: 0c9d 1bbf 54d7 82bf c7ef 48bf cc54 1ebf
00000060: 462b 113f cef6 56bf d27d 0dbf 2990 43bf
00000070: f8ad 10bf aaf6 56bf 0cf6 a6bf adfb 663f
00000080: 3f69 95bf a552 1dbf d601 a1be de2b 763f
00000090: b19f 163f c465 ec3e f94c 81be 79d1 5fbf
000000a0: 625b 57be 91a3 23be 44cf 5dbf 3458 3bbf
000000b0: 37e6 5fbf 8d9a 32bf 5f1e 78bf 1034 043f
000000c0: bff6 3fbf 9e6d 84bf 46c6 5ebf 4978 4bbf
000000d0: 87a6 e63e 72e8 0ebf e54a 13bf b509 58bf
000000e0: ef69 3fbf 0e08 62bf b4c2 65bf 8d35 693f
000000f0: 6523 21bf b3f3 b1be 9529 53bf 6bec 16bf
00000100: e4cc 02bf adc0 9cbf 1c32 8bbf bc50 94bf
00000110: a04f eebd f3de 883e da8f 783f 5828 c6be
00000120: 68ca 06bf 156c 8a3d 500c fd3d 63e8 b8be
00000130: b52e c8be 60b0 98bd 3168 943f 9433 18bf
00000140: 8b2d 5f3f 76d6 52be 52f2 09bf 0ef2 81be
00000150: ae1f aa3e bfbd 61bd 9b0f b33d 045d 06bf
00000160: 0830 dbbe bbed 993e 9483 edbe 5f87 82bd
00000170: 5bf4 253f 2fe6 04bf 0d03 873e 501a 043f
00000180: 5d21 183f dca3 5f3e 3bee 2b3f 547a 0e3f
00000190: bdd1 1cbf 9f32 7e3f 6fb3 bcbe 0771 a2bf
000001a0: 9f41 adbf fa13 033f 8c27 abbe e3bb 333f
000001b0: 1888 bdbc e346 f2be 3816 89be 0c0b fc3e
000001c0: 4c0f d5bd 27a4 993f cb63 39bf 7653 673f
000001d0: f866 1b3d 64d7 66bf 3d5f 0d3f 0621 2d3f
000001e0: 29f0 683d ffe0 12bf 9996 cbbe 87cc a4be
000001f0: f9f6 05be c61d bebe 7f59 50bd caa0 d23e
00000200: 110e b7bc ee49 2bbf 324b 013f dd80 b2be
00000210: 547e 03bf c146 b33e 7071 923e 1762 323f
00000220: cb10 35bf 24a0 f9be b438 3abe 4802 38bf
00000230: 8090 77be 3ac7 823f aa5c 39bf f7f2 b6be
00000240: c800 9dbe 0719 3bbf 06f4 0dbe 83b8 0b3f
00000250: 6fe0 5f3d 3553 29be bffd 44bf b6d3 0cbf
00000260: 031f 29be 80d4 55be 5965 26bf a600 2cbd
00000270: e4e4 433f fedd 10bf f917 28bf 01a8 bc3c
00000280: d21c b4be a18f 7abf 587e c23d 2ef7 37bf
00000290: 3bd0 b1bd 57e3 6dbf 0636 3abf 68a5 dfbe
000002a0: 347b 0d3f 4248 7e3f 2771 a5bd ddf0 713f
000002b0: eefb cf3e 3403 80be 536e 1fbf f8eb 00bf
000002c0: 1c7b 7bbe 54a4 57bd 1d55 8e3e 4263 67be
000002d0: 313c 4dbf fa04 11bf 34cf cbbc 843e 04bf
000002e0: 02ae 1dbf 3c70 88bf 3a52 62be ebdc bb3e
000002f0: 87f1 ccbe 2964 75bf 7630 72be aa52 c2bd
00000300: 93ce b7be cabd 21bf e1b2 29bf c46d 313f
00000310: 6a23 48be 23ce c1bd 21fe 40bf 9fe7 4cbd
00000320: d028 0bbf bdb0 f33e 89a7 dabe 757a f9bd
00000330: a144 24bd 295c 83be e372 08be 3dd0 c6be
00000340: 85e3 81be db65 703d 0879 99be 315d 54be
00000350: fd03 0cbe 1667 673e 141b 0d3d 6c19 dcbd
00000360: 3885 193f 9ea5 ae3d cfdc f7be 1ee9 0dbd
00000370: 4c3e 1dbf f33c bcbd 1120 833c 89e3 473c
00000380: 522b 9e3e 16d7 2fbd 1f59 d1bb 8214 d0be
00000390: 0b70 75be 6d9c ae3e 050c babe 5ab2 c9be
000003a0: 7341 a3bd 6ce6 e53c e304 d5be 404d 89be
000003b0: c4e9 46be 1148 18be 65c3 9c3d ec2d 3dbd
000003c0: 4c19 65be 0b87 593d 3e7a 9dbd 0a4f 84be
000003d0: 8be8 e13c ce4a f3be 482a 25bd d8f0 d1be
000003e0: c97a 35bf eb93 65be 2294 20be 2219 fcbe
000003f0: 8dc2 23be f5b6 02bf 2452 a4be ba77 5d3d
1.1627327 -0.49341846 -0.92681843 -0.8812421 -0.69344944 -1.0883007 -0.72724384 -0.31824
-0.7292384 -0.92324615 -0.60233736 -0.18482801 -1.0340182 -0.77869236 0.9211585 -0.67396235
-0.78520715 -0.52731955 -0.67864454 -0.7561127 -0.6078651 -1.0221963 -0.7849087 -0.6184814
0.56706655 -0.83970344 -0.5527011 -0.76391846 -0.56515455 -0.8397013 -1.3043838 0.90227777
-1.1672744 -0.6145423 -0.31446713 0.96160686 0.5883742 0.4617139 -0.25254038 -0.87429005
-0.21030954 -0.15980364 -0.8664439 -0.7318146 -0.87460655 -0.69767076 -0.9692134 0.5164194
-0.7498588 -1.0345953 -0.8702129 -0.79480416 0.45048925 -0.55823433 -0.57536155 -0.8438981
-0.74771017 -0.8829354 -0.8975022 0.91097337 -0.6294463 -0.3475624 -0.82485324 -0.58954495
-0.5109389 -1.22463 -1.0874667 -1.1587138 -0.11636281 0.26732597 0.970945 -0.38702655
-0.526526 0.06758896 0.12355864 -0.36114797 -0.39098135 -0.07455516 1.1594297 -0.594537
0.8717887 -0.20589623 -0.53885376 -0.25379986 0.33227295 -0.055112597 0.08743211 -0.5248568
-0.42810082 0.30064186 -0.4638945 -0.06373476 0.6482598 -0.5191373 0.26369515 0.5160265
0.5942591 0.21839851 0.67160386 0.5565541 -0.61257535 0.9929599 -0.36855647 -1.2690743
-1.3535651 0.51202357 -0.3342861 0.7020857 -0.023136184 -0.47319707 -0.26774764 0.49227178
-0.10403308 1.200322 -0.72417897 0.90361726 0.037939996 -0.9017241 0.5522345 0.67628515
0.05686966 -0.57374567 -0.39763334 -0.32187292 -0.13082494 -0.3713209 -0.0508666 0.41138297
-0.022345575 -0.6690968 0.50505364 -0.3486394 -0.51364636 0.35014918 0.2860217 0.69680923
-0.7072875 -0.4875499 -0.18185693 -0.7187848 -0.24176216 1.0217049 -0.7240702 -0.35732242
-0.3066466 -0.73085064 -0.13862619 0.5457842 0.054657396 -0.16535647 -0.76949686 -0.55010545
-0.16515736 -0.20881844 -0.64998394 -0.041992806 0.76521134 -0.56588733 -0.6566158 0.02302933
-0.35178238 -0.9787541 0.094967544 -0.7186154 -0.08682295 -0.9292502 -0.72738683 -0.43680882
0.5526612 0.99329007 -0.08078223 0.94508153 0.40621895 -0.25002444 -0.62277716 -0.5036006
-0.24558681 -0.05264695 0.2779931 -0.22596458 -0.8016997 -0.5664822 -0.024879076 -0.5165789
-0.6159364 -1.0659251 -0.2210168 0.36691985 -0.4002802 -0.9585596 -0.23651299 -0.09488423
-0.3589979 -0.6318022 -0.6628857 0.69308114 -0.1954476 -0.094631456 -0.7538777 -0.05002558
-0.5435915 0.47595778 -0.42705944 -0.1218156 -0.040104512 -0.2565625 -0.13325076 -0.38830748
-0.25368896 0.058690887 -0.29975152 -0.20738675 -0.13673396 0.22597918 0.03444965 -0.10747036
0.599689 0.08527683 -0.4841065 -0.034646146 -0.6142318 -0.09191313 0.016006501 0.012200245
0.30892426 -0.04292973 -0.006388798 -0.40640646 -0.23968522 0.34103718 -0.36337295 -0.39393884
-0.07971468 0.028063975 -0.4160529 -0.2681675 -0.19425112 -0.14871241 0.07654456 -0.046186373
-0.22372931 0.053107303 -0.076893315 -0.25841552 0.027576705 -0.4751801 -0.040323526 -0.41004062
-0.7089048 -0.22419707 -0.15681508 -0.49237925 -0.15992184 -0.5106042 -0.32093918 0.05406926

1 f4 [4]
00000000: 783a 8dbe 10dd cb3e e85e 4f3f b50b 503e
-0.2758367 0.39817095 0.8100419 0.20316966

jr f4 [16]
00000000: e709 1a3b a097 d53d 8532 3e3e 10e1 613e
00000010: 8533 243f 5460 413e f323 7b3e cab4 e53d
00000020: a95f 033f 53d0 6e3f 9fb2 213e 235d 663e
00000030: db09 1a3e b251 0a3e a93c 363e f339 33be
0.0023504437 0.10429311 0.18573959 0.22058511 0.6414111 0.18884403 0.24525432 0.112161234
0.5131784 0.9328663 0.15790795 0.22496466 0.15042822 0.13507727 0.17796578 -0.17502575

5 f4 [37, 16]
00000000: c503 333f 145d d03d 2457 0b3f dd40 263e
00000010: 9205 1cbf 34b8 723d fa07 06bf 7239 013f
00000020: 4be5 213e 8a3c f1be 06a5 26bf 8aa1 9d3e
00000030: f7ed f93e a071 ebbd e040 a43d a374 c53e
00000040: 7408 22bc 228c ef3c 068e 27bd 240e 7b3c
00000050: 5813 57bc 5256 9b3c e837 adbb 2eba ad3c
00000060: 07d1 c8bc 988d a5bb 00c3 afb9 d243 d03c
00000070: 5d79 26bd 9d7b 273d 679b a0bc ac62 89bc
00000080: 62fe 23bd 8db4 98bf 712d 8fbf d975 5bbf
00000090: b733 7d3f b929 b33d 422a 6ebf a50e 7cbf
000000a0: cc63 abbe 885e 22bf 54dc 443f a937 42bf
000000b0: b720 29be 11ac 77bf 5654 6cbf 8bab 243e
000000c0: 14dd 993d b6d6 e2be 6b6d 2f3f 93b0 97be
000000d0: 4351 bcbd e78b 62bd c9f9 27be 8960 44bf
000000e0: e883 1a3f e7c4 b8bd e055 653f 3905 95be
000000f0: 13c6 603f 92cc 98bd 3bda 63be 5079 183f
00000100: 3d8e 413d 865d 03bd d736 3abd 628c ae3c
00000110: 1895 28bc e7ed a7bc 33bb 423d 03e9 30bd
00000120: 9159 4a3d e0f4 9bbc baf1 21bd ea2a 26bd
00000130: adf3 9abc 263b 9f3c 71be 073d e082 a1bc
00000140: b8b8 6c3f d63c 3dbf 17df cbbd 75f6 1d3f
00000150: 549f 413b d14f 32bf 6a81 84be 02c3 b23d
00000160: a6a3 3fbf 5dde 41bf 9fe0 c8be 2b17 a6bf
00000170: 8cb3 f13d 84d2 8cbe 7ad0 233f f723 cbbd
00000180: 51c2 03bf bc39 2fbf 479e 8a3f f920 483f
00000190: 9cbc d6be 11ab d93e a976 59bf f697 9e3f
000001a0: 4538 943e c96a b2bc bc04 50bd 4752 4abf
000001b0: d733 223f fee9 f83e a48f 253f 6107 ab3e
000001c0: c5c5 dabe 7265 d1be a4d3 d73e 7e26 343f
000001d0: d8a9 21bf 489a 4dbf 092a 40bf b66a 2abf
000001e0: c8e8 33bf 8011 aabe f366 773c b62a 2f3e
000001f0: 2510 323f 2ccd 973d 4db0 f0be e2e2 eb3e
00000200: f554 85bf 6b5d 83be e662 3c3e 87bc 2cbd
00000210: dd5b 4d3f 42e1 af3e 0116 1abf 76d5 673e
00000220: 349b ae3e f255 b33e a6d6 163f 7698 1d3e
00000230: 0596 fc3e 5d0a 06bf 5b33 17bf bb57 aa3e
00000240: 119c 8f3e 980d 1ebe 0b11 6d3e 49d5 92bf
00000250: e5a9 f2be 3ff1 c8be 3c30 46bf 6734 ce3e
00000260: 941e 313f adf2 62bf 880d 8b3f f04f 3b3e
00000270: aa25 543f 93d5 f1be eda0 32be d2f5 4e3f
00000280: 459e 9fbe c4ff bbbe 6a7a 0cbf 1355 f23e
00000290: be4d 02bf b53e 11bf 2476 29bf 44c5 3d3f
000002a0: 9795 33be 7f5f f6be 90f1 4cbf 1a37 2ebf
000002b0: 22f1 3dbf 6801 aebd e9ef d63e b423 773e
000002c0: 5eb0 8bbe 132e 73be 368e f33e b325 cebe
000002d0: bc63 423f 7fbd 96be abc5 cbbd ccb6 52bd
000002e0: 7714 0d3f 2b03 15be 818d c8be a358 a9be
000002f0: 33c8 2c3f 5ca7 a2be 7863 97be 3bca 223f
00000300: 4250 7d3e bad7 d73e ccb8 b2be 0a28 50bf
00000310: 4b26 98bd 13ec c2bb dbd8 1cbf 0480 c7be
00000320: 302f 933d e125 893e 65e0 cebd 5e59 eabe
00000330: baf6 41bf b858 ccbb 626a b3bd c2d3 d3be
00000340: ff6f 193f 27c0 30bf 50b8 c23b 7cf6 e8be
00000350: e457 963d 00f1 82bd e8bf 50bf 0d8e 083e
00000360: f2e5 ffbe d83c f1be c113 20bd 32d4 d8bd
00000370: b195 16bf 680a 60bf e43f abbd ed5d 0cbf
00000380: e5dd 9bbe 270f 2d3f 7cdc 25bf 14a9 c03e
00000390: 0f72 bf3d b9b7 c8bd ae1f a7be 7422 2cbd
000003a0: 00ef 0dbf f322 40bf 39be f8be 3bf1 14be
000003b0: f133 2abf 339d a4be 06c2 04bf 081c 16bf
000003c0: e04d 553f abbb 9bbf 1410 bb3c 0866 8fbd
000003d0: a6ed 0c3e c9ee a4be 7d57 56bf cf87 3c3d
000003e0: 48a2 45be fa2d 1abf e3e5 0b3c 4d62 9f3d
000003f0: f450 00be 6934 9cbe 032e 233e 31fa 42bb
0.69927627 0.10174003 0.5442984 0.16235681 -0.60946 0.0592577 -0.5235592 0.5047828
0.15810125 -0.471165 -0.65095556 0.30787307 0.48814365 -0.114962816 0.080201864 0.3856555
-0.009889711 0.029241625 -0.04090693 0.015323196 -0.0131271705 0.01896206 -0.0052862056 0.021206941
-0.024513735 -0.0050522797 -0.00033523887 0.025422964 -0.040643085 0.04088937 -0.019605352 -0.016770683
-0.04003752 -1.19301 -1.1185743 -0.85726696 0.98907036 0.08748192 -0.9303323 -0.98459846
-0.33474576 -0.63425493 0.76898694 -0.7586618 -0.16516386 -0.9674693 -0.92316186 0.16081063
0.075128704 -0.44304436 0.68526334 -0.29626903 -0.09195187 -0.055309203 -0.16403879 -0.767098
0.6035752 -0.09021931 0.8958416 -0.29105547 0.8780224 -0.07460894 -0.22251217 0.5956011
0.04725479 -0.032071613 -0.045462456 0.021307174 -0.010289453 -0.020499183 0.04754181 -0.043190967
0.049401823 -0.019037664 -0.03953717 -0.04056827 -0.018915022 0.019437384 0.033140603 -0.019715726
0.9246936 -0.73920953 -0.099546604 0.6170419 0.002954443 -0.6965304 -0.25879985 0.08728601
-0.7485908 -0.75729924 -0.39233872 -1.297582 0.11801824 -0.2750436 0.63989985 -0.09918969
-0.5146838 -0.6844747 1.0829552 0.7817531 -0.41940773 0.42513326 -0.84946686 1.2390125
0.2894918 -0.021779435 -0.050785765 -0.79031795 0.6336035 0.48616022 0.64672303 0.33404067
-0.4272901 -0.4089771 0.42153656 0.70371234 -0.63149786 -0.8031354 -0.7506414 -0.6656908
-0.7027707 -0.33216476 0.015100229 0.17106137 0.69555885 0.0741218 -0.47009507 0.46071535
-1.0416552 -0.2565721 0.18397102 -0.04217198 0.802183 0.34351546 -0.60189825 0.22640023
0.34102786 0.3502651 0.5892128 0.1539019 0.49333206 -0.52359563 -0.5906274 0.33270058
0.28048757 -0.15434873 0.23151033 -1.147134 -0.47395244 -0.39246556 -0.7741735 0.40274355
0.69187284 -0.88651544 1.0863504 0.18292212 0.8286997 -0.47233257 -0.17444201 0.8084384
-0.31175438 -0.3671857 -0.5487429 0.4733053 -0.50899875 -0.5673631 -0.66195893 0.7412913
-0.17537533 -0.48119733 -0.80056095 -0.6805283 -0.74196064 -0.08496362 0.41979912 0.24134713
-0.27282995 -0.23748045 0.47569436 -0.40263137 0.7593343 -0.2944145 -0.099498115 -0.05144386
0.5510935 -0.1455199 -0.3917046 -0.33075437 0.6749298 -0.3176831 -0.29568076 0.6358983
0.24737647 0.42156774 -0.34906614 -0.81311095 -0.07429179 -0.0059485524 -0.61268395 -0.38964856
0.07186735 0.26786712 -0.101013936 -0.45771307 -0.757671 -0.006236162 -0.08760525 -0.41372496
0.5993652 -0.690432 0.005942382 -0.45500553 0.073409826 -0.06393623 -0.81542826 0.13335438
-0.49980122 -0.47116733 -0.03908134 -0.10587348 -0.5882216 -0.8751588 -0.083617955 -0.5483082
-0.3044273 0.67601246 -0.6478956 0.37628996 0.09347927 -0.09800667 -0.32641357 -0.042025045
-0.5544281 -0.7505333 -0.48582628 -0.14545147 -0.66485506 -0.32151183 -0.51858556 -0.5863652
0.8332195 -1.2166647 0.022834815 -0.07001883 0.1376253 -0.3221343 -0.83727247 0.046027955
-0.19300187 -0.60226405 0.008538696 0.07782421 -0.12530881 -0.30508736 0.15935521 -0.0029751176

3 f4 [6]
00000000: 5451 ce3e 46a8 9a3e d904 b13e 0db0 043f
00000010: 2715 9f3e 1ae8 e73e
0.40296423 0.30206507 0.3457401 0.5183113 0.31070825 0.45294267

h f4 [67]
00000000: 606f 633e 7ab5 39be de73 e7be 1ed0 75be
00000010: c553 65be a032 a8be e7bc 80be 7ed3 a9bd
00000020: 4d17 0ebf cdef 6abe ff06 e8be 1512 8cbe
00000030: 89b1 4fbe 6e66 3bbe 05f6 083f 97b8 01bf
00000040: 3bd0 9dbe 8ec0 88be 80a1 d2be cfed c0be
00000050: 3a49 e6be f81c e2be ff3f 543d d323 04bf
00000060: 1ba1 863e 3b26 9bbe 3b7b bdbe fb51 9dbe
00000070: 86da 85be a23d 90be 53b8 cebe 8f92 873e
00000080: ef57 10bf b248 a8be efb6 eebd 6d41 f83e
00000090: be5e ed3e bf8a e33e f779 6fbe 6a76 9ebd
000000a0: ae5f e2be cdda 7abe e38e 80be b288 61be
000000b0: 5455 84be da78 1dbf 1cc7 6dbe 5dc7 813e
000000c0: 9409 35be 5ce3 74be 89b6 74be eb4e 49be
000000d0: 2a7a 17be 3e05 c1be 93a8 81be 670c bdbe
000000e0: 8562 bbbe 5e00 c4be 53c8 12bf eb21 a93e
000000f0: ba98 8dbe de88 8bbe 730f 9cbe f693 8fbe
00000100: 2925 adbe 7461 8ebe 040a 80be
0.22210455 -0.18135634 -0.45205587 -0.24005172 -0.22395237 -0.32851124 -0.2514412 -0.08292292
-0.55504304 -0.22943039 -0.45317838 -0.27357545 -0.20282568 -0.18300793 0.53500396 -0.50672287
-0.3082293 -0.26709408 -0.4113884 -0.37681434 -0.44977742 -0.44162726 0.051818844 -0.51617163
0.2629479 -0.30302605 -0.3700808 -0.3072661 -0.26143283 -0.28172022 -0.40375003 0.26479003
-0.56384176 -0.32867962 -0.116559856 0.48487416 0.46361345 0.44441792 -0.2338637 -0.077374294
-0.44213623 -0.24497528 -0.25109014 -0.22024801 -0.2584635 -0.6151253 -0.23220485 0.25347415
-0.17679435 -0.23914856 -0.23897757 -0.19659011 -0.14792696 -0.37699312 -0.25323924 -0.36923525
-0.36598602 -0.3828153 -0.5733692 0.3303369 -0.27655584 -0.2725286 -0.30480537 -0.28042573
-0.33817413 -0.27808726 -0.2500764

w f4 [8, 6]
00000000: 7d37 713f 9deb 4cbf 5848 79bf 821d f4be
00000010: 2dee a8be b509 a6bf d755 2f3f 0180 03bf
00000020: 534a f0be 8b93 debf ce81 773f 9159 c43f
00000030: 2d60 f8bd 6cc6 72bf ec3e 683c e0f1 a2bf
00000040: 1321 bb3f d274 133f 7585 febe 8e25 3bbf
00000050: 5306 4f3d def9 90bf 00f1 693f d369 763f
00000060: 19a7 20bf 0357 0cbf e146 733d 2cf4 8bbf
00000070: cc65 703f 317f 0a3f 836e 23be 678c ff3e
00000080: 3b36 743e feae 9ebf db8a 693f 539e b7bc
00000090: 437b bf3f 6d83 aa3f f29e 1c3f cb95 adbf
000000a0: 5860 c33e bbb7 7b3f 782e d73e c872 3d3f
000000b0: 1c37 8abe e74b abbf 1f84 193f 844e 053d
0.94225293 -0.8004702 -0.9737601 -0.47678763 -0.32994214 -1.2971712 0.68490356 -0.51367193
-0.46931705 -1.7388777 0.9668244 1.5339833 -0.12127719 -0.9483402 0.014175158 -1.2730064
1.4619468 0.5760013 -0.49711195 -0.7310418 0.05054314 -1.1326253 0.9138336 0.96255225
-0.6275497 -0.5482027 0.059393767 -1.093389 0.9390533 0.5410033 -0.15960126 0.49911806
0.23848812 -1.2397153 0.912275 -0.022414362 1.4959491 1.3321358 0.6118003 -1.3561338
0.38159442 0.98327225 0.4202764 0.7400327 -0.2699517 -1.3382539 0.59967226 0.03254558

k f4 [16, 16]
00000000: b5b6 62bf 2b8f 483f 8304 193f f741 3b3f
00000010: 867d 7d3f 820a 1abf 47ce 30bf 0359 4a3f
00000020: d132 c03f 099c 3e3f c746 5abe a097 86bf
00000030: b1cb 563f b668 5a3e d762 2b3f 1f93 403d
00000040: a5ca d93e 8e39 3b3f 25ed b6be b8a8 8cbf
00000050: 3876 983f 02a5 4b3f f97d 6d3f c3fd 02bf
00000060: b32b cc3e e7da 813e 08b6 713f c37d 283f
00000070: 7c1f dbbe 553d 0b3f b5e0 513f 9f49 543f
00000080: 8a5c 073f f3e8 79bd 93f7 0a3f a552 8a3f
00000090: 6f7d 853e ad69 1a3f 0e29 0e3f a20e 153f
000000a0: 2252 e03d 5a83 98bf 6e3d 91bc 111e babe
000000b0: 26ee 623f f3fb 80bc 75c3 1e3d 34b4 0b3f
000000c0: e4df 54bf cad1 f13c e37c c23e 3192 363f
000000d0: 6ce3 c3be 5fe0 503f 8689 483f 3dea 96be
000000e0: 8148 693f 75bc 043f abe2 a1be 03d7 b73e
000000f0: e038 e63e c23f 0e3f d6e3 443f 966a f5be
00000100: 26c1 243f 4447 81bf 8dcc 2ebe 2546 78be
00000110: b32f 8d3f 0998 39bd 0688 3dbe 45ba a23f
00000120: 9c95 ed3e edd9 f73e 5eeb 49bf c6bf 803f
00000130: a59e 70bd f6a8 2cbf 49ed debe 905a 4a3f
00000140: cc9c 32bf 7321 623f 22f7 a93e 9993 9dbe
00000150: 6aca 363f 4d5e 7e3f d9aa 103f 8334 f93e
00000160: 86a9 09bf 94f0 313f 24f9 ca3e 45ab 43bf
00000170: b0aa df3c 518b 233f 5958 9e3d a4e5 e0be
00000180: 47a0 f13e 8776 0a3f 3c87 0cbf b36b 01be
00000190: 10f9 913f c092 823e 00bb 883f 1fee 9e3e
000001a0: d7ba 583f 3e19 35bf 12d4 893c 6153 7c3f
000001b0: 57cb cb3b c6f1 6d3f 08cb 643f 282c 2f3f
000001c0: 5f66 aebe f786 2ebd 1fa2 b83e bbdf 5a3f
000001d0: 05e0 e53e b847 433f 7701 02be e0b0 d2be
000001e0: 3bff bebf e766 673f 8c85 88bd f6b1 8f3e
000001f0: 50e1 483f 7cc8 c23e f380 4e3f bcaf 493f
00000200: b92f 913f c78e 503f c6cc 4d3f e4ea a73e
00000210: 16ff 0abf 897b 09be 23b2 5bbe d8bc 793f
00000220: 199e 36bf ac22 97bd 23ab 383f 68fe 0abf
00000230: 69a8 e1bd 9370 213e fe63 633e 8853 693f
00000240: 5a92 5c3f 0c68 7c3f 4e50 ab3e ba6f 46be
00000250: 2daf c73e c566 5b3f cf8e 883f bbd0 6e3f
00000260: 40ae 92be 4cda 18bf 90d8 423f f864 5e3f
00000270: 6fa3 333e 1496 f53c 12e8 1e3f d66f d0bd
00000280: ffa1 9c3f f750 9a3f e838 b3be 6eda 173f
00000290: b847 a23f 35a4 013e 51c3 7e3f 09a9 8c3f
000002a0: 247b 8f3e 13bb 963e 41ec 583e 71c7 663f
000002b0: 91d2 c23e 5f91 d1be 3ee1 1ebf 3dd7 85be
000002c0: 7106 c3be 0c78 0c3f a2c2 433f 178a ab3e
000002d0: 4a42 153f 1919 8d3f 0adf 01be 68d3 24bf
000002e0: 32fd 3f3d 6c87 9fbf 9585 6f3f 93e2 0c3e
000002f0: 2a9e 813d 8a30 033f 51d1 3fbe c35f 7bbf
00000300: 0951 853f 583e 41bf a5c5 9dbd 9b63 813f
00000310: a617 5dbe d678 b4be 7745 82be 96bd 543f
00000320: 4f32 113f 1d21 ec3d 1646 9bbd b5bd d4be
00000330: c79f 0f3f 79fd 503f 65e5 9abe 5e77 47bd
00000340: dd39 e83e 79c1 3d3f 3f69 f1be a4f5 bfbe
00000350: ccea 10bf 434b 3dbe 88c5 213f 6b3a f73e
00000360: 8eef 2f3f 5a50 21bc 0770 733f 4c34 e13e
00000370: 59f4 093e 85f5 5e3f ce69 813f 3beb 703f
00000380: fd01 44be b3ba 8f3f 546b 393f 12fe 673f
00000390: 6740 6dbf 4914 94bc 8373 da3e 1d4a 4f3f
000003a0: 91f7 9bbe 540f 013f 5d7d df3e 950e 363f
000003b0: 12fc 333f ee24 b13d ae81 953f e3f1 393f
000003c0: 3229 793f 9d12 7e3e cfae 01bb 1e72 4f3f
000003d0: 7975 98bf 7119 e5be bb6a 86be d6d9 1e3f
000003e0: 93f0 97be 63d3 3ebe 26b7 493f 8eeb 87bf
000003f0: 92be e23e 4714 523f f550 983d 2ac4 f7be
-0.8856004 0.78343457 0.5977251 0.7314753 0.9901966 -0.60172284 -0.69064754 0.7904207
1.5015508 0.7445684 -0.21316062 -1.0515022 0.8390456 0.21329007 0.6694769 0.047015306
0.42537418 0.73134696 -0.35727802 -1.0988989 1.1911077 0.79548657 0.92770344 -0.5116846
0.3987709 0.25362322 0.9441838 0.658169 -0.42797458 0.5439046 0.819835 0.82924837
0.5287558 -0.061013173 0.5428402 1.0806471 0.2607226 0.603175 0.55531394 0.5822545
0.109531656 -1.1915085 -0.017729487 -0.36351064 0.88644636 -0.015745139 0.03876062 0.54571843
-0.8315413 0.02951898 0.37985906 0.7131682 -0.38259447 0.81592363 0.78334844 -0.29475585
0.9112626 0.5185006 -0.31618246 0.35906228 0.44965267 0.55566037 0.7691015 -0.4793288
0.6435722 -1.0099874 -0.17070217 -0.24245508 1.1030182 -0.045311008 -0.1850892 1.2713095
0.46403205 0.48408452 -0.78874767 1.0058525 -0.058745045 -0.67445314 -0.4354041 0.7904444
-0.69770503 0.8833229 0.3319636 -0.3077667 0.7140261 0.9936264 0.5651069 0.48672876
-0.537743 0.6950772 0.39643204 -0.7643321 0.02730307 0.63884455 0.07731695 -0.43925202
0.47192594 0.5408711 -0.5489385 -0.1263874 1.1404133 0.25502586 1.0682068 0.31041047
0.84660095 -0.7074164 0.016824756 0.98564726 0.0062193084 0.9294704 0.893723 0.6842675
-0.34062478 -0.04260918 0.3606119 0.85497636 0.44897476 0.7628131 -0.12695871 -0.4115057
-1.492164 0.9039139 -0.06666097 0.2806546 0.784688 0.38043582 0.8066551 0.78783774
1.1342689 0.8146786 0.80390584 0.32796395 -0.5429548 -0.13426031 -0.21454673 0.9755378
-0.7133499 -0.0737966 0.72136134 -0.54294443 -0.1101845 0.157656 0.22206113 0.91143084
0.86160815 0.9859626 0.33459705 -0.19378558 0.39000836 0.8570369 1.0668582 0.9328725
-0.28648567 -0.59708095 0.761117 0.86872816 0.17542814 0.02997879 0.6207286 -0.10177581
1.2236937 1.2055959 -0.35004354 0.5931767 1.2678137 0.12660296 0.9951678 1.0989085
0.28023636 0.294396 0.21183874 0.90148073 0.38051274 -0.40931222 -0.6206244 -0.26140776
-0.38090852 0.54870677 0.7646886 0.33503792 0.58304274 1.1023284 -0.12682739 -0.6438508
0.046872325 -1.2463202 0.93563205 0.13758306 0.063289955 0.5124594 -0.18732192 -0.98192996
1.0415355 -0.75485754 -0.07703713 1.0108522 -0.21591052 -0.3524844 -0.25443622 0.83101785
0.5671739 0.11529753 -0.07581727 -0.41550985 0.56103176 0.8163677 -0.3025314 -0.04869782
0.45356646 0.7412334 -0.4715061 -0.37492096 -0.5660827 -0.18485741 0.63192034 0.48286757
0.68724906 -0.009845817 0.95092815 0.43985212 0.13472117 0.87093383 1.0110414 0.94108933
-0.19141383 1.1228851 0.72429395 0.90622056 -0.92676395 -0.018076079 0.42666253 0.8097246
-0.30462316 0.50414014 0.43650332 0.71116 0.70306504 0.08649622 1.16802 0.72634715
0.97328484 0.24811788 -0.0019788032 0.81033504 -1.191085 -0.44745973 -0.26253304 0.6205114
-0.2967573 -0.18635325 0.7879509 -1.061876 0.4428602 0.8206219 0.07437316 -0.4839185

r f4 [6, 4]
00000000: 8156 73bf ceb0 d33e 9bc6 9a3f bc22 e43e
00000010: 24cf a23f 1b98 413f 944c 903f 3a93 123f
00000020: 3e46 c63f 0be9 3f3c 7fe3 153d 3912 2e3f
00000030: 28f9 8f3e 1b6e b33f 3748 dbbd e2d2 3d3f
00000040: 5d56 103e 15be 96bf 3310 d5bf 8d10 763f
00000050: 3c6b 0f3f e6f8 84bf 3783 80be 7fff 243f
-0.9505387 0.4134583 1.209186 0.4455775 1.2719464 0.7562272 1.127337 0.572559
1.5490186 0.011713277 0.03659391 0.67996556 0.2811978 1.4017977 -0.10707133 0.74149907
0.14095445 -1.1776758 -1.6645569 0.96119004 0.56023 -1.0388458 -0.2510011 0.64452356

y f4 [16]
00000000: 6bc5 423f 18cd 70be ac13 c43e dc13 b63e
00000010: 69e1 fcbe 37bc 433f a292 953d 8c38 eb3d
00000020: e345 4e3f e7e7 f6bd a355 1e3f c2d5 593e
00000030: 84bc 183f 9cf9 163f f996 143f a2be 56bd
0.76082486 -0.23515737 0.38296258 0.35562027 -0.49390724 0.7645907 0.073033586 0.11485395
0.8057539 -0.120559506 0.6184942 0.21272948 0.5966265 0.58974624 0.58042866 -0.052427895

d f4 [16, 16]
00000000: 024f aa3e a187 9bbf f4cb 89bf abdb bb3e
00000010: c822 82be bcda 0e3d 1515 043e af5b a4bf
00000020: 3538 923f 815f 39bc 341d 98be 175a 633f
00000030: 3fe4 94bf 5283 06bf 764c 153f d2e0 a7bf
00000040: b23d fe3e 21f2 fd3e d13b 323e 1a73 1ebe
00000050: fb1b c83e 764f 923e 55b6 30bf ae62 14be
00000060: ef45 4b3f fd7b 8c3f a509 a7be 3e39 52bf
00000070: 2804 703f 6903 19bf 32a6 1d3f 9c09 193f
00000080: 5008 cfbd 17be 93be e2ee 3c3f 06ac c13e
00000090: 318c 06be a3ed dabe 5e87 993e 5fce a5bb
000000a0: de92 28bf fcbc 64bf cbbe 3abf c99b 0abd
000000b0: bb3b 103f b847 87bd 2a3f 3e3f c802 6f3f
000000c0: a1b7 913e 9e24 6dbe 2fca 5ebf 64d7 de3e
000000d0: 9bbf b5bf 8d3a a1bf e219 5e3e 4ee6 0cbf
000000e0: a11f 3abf 44f4 99bf a10f d0be 4c36 193f
000000f0: 98ae 1fbf e17e e1be 0852 943e a558 913f
00000100: 7cf6 d5be 010d 0bbe 6c1e e5be 10d6 22bf
00000110: ccb5 093d 286f aebe 74ec af3d 1ba5 9b3f
00000120: 8677 0fbf d289 f0be 9251 6fbf 12a5 2c3f
00000130: f912 953f a644 053e a709 2d3d 4beb 44bf
00000140: 3563 8c3e a77a cdbe 30ee e53e 4184 0d3e
00000150: 2843 f53e 14d4 873f e797 2f3f d697 4abe
00000160: 3ef0 afbf c480 88be 8b79 473f a268 e93e
00000170: d25f 913f 2ac6 11bd 8539 a83e 9c0b 1d3d
00000180: f026 e73e 258c 953f 3957 37be 5a0a 573e
00000190: fc6b 853f e7e5 acbc 13e9 983e 35c6 2a3f
000001a0: d693 593e 25cc 2a3f 5cdf 293f 9fe6 303f
000001b0: de20 5e3f 7b3e 743f c700 233c a495 8cbe
000001c0: 58b9 52bf 769d 9abf 4320 4cbf 9d85 9a3e
000001d0: 3957 b6bf 2160 8bbf 2a58 b63e f148 9ebf
000001e0: 9c04 22bf 6851 803f 39fc abbe 133e 623f
000001f0: 0f77 a73e a5ba dfbe 6cf4 913e 8fc0 d6bc
00000200: 8436 c63e b532 843f b569 16bf 4060 09bf
00000210: ead8 89bf 6f7c fa3e e7ec 45bc 5085 70be
00000220: 1215 9f3f 4c60 81bf eb13 cf3e 55ad 863f
00000230: b643 653d fac8 07bf ff67 acbf 30ef b1be
00000240: 3b1b b53f 2c15 ca3e a4a3 87bf c4b8 263c
00000250: 363b 8f3e 9e20 c33f cdef 94bf 07ae 603f
00000260: a077 dd3e 951a 61bf d87e a1bc 3b29 343f
00000270: e053 84bf b985 eb3e 782e 3b3f 44c7 33bf
00000280: ae16 833f c80f dcbe c4f8 48bd 286e 3b3f
00000290: 2860 853f d3b5 853f 7733 353f 2774 51bf
000002a0: 66a1 b83f 86e0 643f 1c2d 0d3f d693 89bf
000002b0: 3611 e33e abe1 f4be dfa0 153f 103a ddbc
000002c0: b840 85bf 0db8 0e3f 1272 67be 6814 3dbc
000002d0: f8d7 1a3f 095c 8bbf b112 82bf 3e45 283f
000002e0: 1d97 093f 981d 44be 370f c43e 5c8f 6c3f
000002f0: d529 6abe 161a 983e 7341 cbbd 3350 7cbf
00000300: 885b a63c 7612 cfbe dcfe 69be 72a9 003f
00000310: bc83 8cbf 2307 ddbf 15cc 033f 34fb 4b3f
00000320: e78c 5ebf 9eea 75bf 2caf 87be 0b07 813e
00000330: ae24 94be 16a1 713e 264a 1a3f 3491 8a3f
00000340: b17e a9bf 405a 85bf f32b e0be 888c 023f
00000350: 57f1 1f3e 3590 90bf 6954 433f b13b c73e
00000360: 1ebe 4abf 25c6 b03e 8e67 6e3f 17b5 ecbd
00000370: 2a91 0cbc e01d e13e f7d0 bcbe 1770 fc3e
00000380: a1f8 aebc 30cd b83f 10bb 663f 2625 d03e
00000390: 127a 813f df5f 01bf 1bd0 c93e e518 61bc
000003a0: 5976 78bf cc21 743f f570 533f 9963 00bf
000003b0: 546a 92bf 75f5 fbbe 5e23 0e3e aad3 8d3e
000003c0: e1e2 88bf 4bec 21be d625 ff3e 2659 f3bd
000003d0: 0c71 573f d456 9d3f 30f6 a0bd 808c 1f3f
000003e0: 2821 7c3f 8511 353f f398 04bf c3ef 5b3f
000003f0: ba80 b7bf a3f1 c4bd 9055 ee3e fa80 acbf
0.33263403 -1.2150766 -1.0765367 0.3669103 -0.2541716 0.03487657 0.12898667 -1.284048
1.1423403 -0.011314274 -0.2970978 0.8880934 -1.1632155 -0.5254413 0.58319795 -1.3115485
0.49656445 0.49598792 0.1740563 -0.15473595 0.39083847 0.2857625 -0.69028217 -0.14490768
0.79403585 1.0975338 -0.32624546 -0.82118595 0.9375634 -0.5977083 0.6158172 0.5978029
-0.10109007 -0.28855965 0.73802006 0.37826556 -0.13139416 -0.42759427 0.2998609 -0.0050600017
-0.658491 -0.8935087 -0.72947377 -0.033839975 0.5634114 -0.06605476 0.7431513 0.9336362
0.2846041 -0.231585 -0.8702726 0.43523705 -1.4199098 -1.2595993 0.21689561 -0.5503892
-0.7270451 -1.2027669 -0.40636924 0.59848475 -0.62375784 -0.44042113 0.28968835 1.1355177
-0.41789615 -0.1357918 -0.44749773 -0.63607883 0.03362064 -0.3406918 0.08590022 1.2159761
-0.56041753 -0.4698015 -0.9348384 0.6743938 1.1646415 0.13014469 0.042245533 -0.7692153
0.2741944 -0.4013264 0.44908285 0.13819982 0.479028 1.0611596 0.6859116 -0.19784483
-1.3745191 -0.2666074 0.77919835 0.4558764 1.1357367 -0.035589375 0.32856384 0.03834115
0.45146894 1.1683394 -0.17904367 0.21000043 1.0423579 -0.02110572 0.29865322 0.6670869
0.21247801 0.6671775 0.66356444 0.691019 0.867689 0.9540784 0.009948916 -0.27457917
-0.8231406 -1.2079303 -0.7973673 0.30180064 -1.4245368 -1.0888711 0.3561414 -1.236601
-0.63288283 1.0024843 -0.33590868 0.8837597 0.32708022 -0.43697086 0.28506792 -0.026214866
0.38713467 1.0327975 -0.58755046 -0.5366249 -1.0769322 0.4892306 -0.012080408 -0.23488355
1.2428305 -1.0107512 0.40444884 1.0521647 0.055972777 -0.5304104 -1.3469237 -0.34752798
1.4148935 0.39469278 -1.0596814 0.0101758875 0.27974862 1.5244329 -1.1635681 0.87765545
0.4325533 -0.87931186 -0.019713804 0.7037541 -1.0338097 0.4600046 0.7311778 -0.7022593
1.0241296 -0.4298079 -0.049065366 0.7321496 1.041997 1.0446113 0.70781654 -0.8181786
1.4424255 0.89405096 0.55146956 -1.0748241 0.44349068 -0.4782842 0.58448595 -0.027005225
-1.0410376 0.5574959 -0.22602108 -0.01154051 0.6048579 -1.0887462 -1.0161954 0.65730655
0.53746206 -0.19151914 0.38292858 0.9240625 -0.2286752 0.29707402 -0.09924593 -0.98559874
0.020307317 -0.40443772 -0.22851127 0.50258553 -1.0977702 -1.7267803 0.5148328 0.7968018
-0.8693375 -0.9606112 -0.26500833 0.25200686 -0.28934234 0.23596606 0.6026939 1.0825562
-1.3241788 -1.0418167 -0.4378353 0.50995684 0.15619408 -1.1294008 0.76300675 0.38912728
-0.79196346 0.34526172 0.9312676 -0.11557978 -0.008579532 0.43968105 -0.36878178 0.49304268
-0.02135879 1.4437618 0.90129185 0.40653342 1.0115378 -0.5053691 0.39416584 -0.0137388455
-0.97055584 0.9536407 0.82594234 -0.50151974 -1.1438699 -0.49210706 0.13880679 0.2770055
-1.0694238 -0.15812795 0.49833554 -0.11882238 0.8415687 1.2292123 -0.078594565 0.6232376
0.9848809 0.7072986 -0.5179588 0.8591272 -1.4336159 -0.09616401 0.46549654 -1.347686
