OpenUtau.Core/Vogen/Data/po.man.onnx (onnx, 30930 bytes, 23 tensors)

84 f4 [14, 8]
0.09984445 -0.14973395 -0.18347462 0.11241736 0.07456403 0.027728142 -0.22297905 -0.152827
-0.3311023 0.33602268 0.13531351 -0.11345177 0.36597466 0.2800972 0.24408993 -0.08710635
-0.28554234 -0.042794205 0.23813753 -0.37415513 0.053673152 -0.01048678 -0.2851767 0.15525231
-0.008107631 -0.2642861 -0.05950678 -0.27576596 0.4616665 -0.08463493 0.12892735 0.17240468
-0.029313022 -0.25348163 0.374914 0.24245283 -0.18192689 -0.13520873 0.25099495 0.39066863
-0.13551241 0.16018344 0.33104905 0.16440731 0.32022917 -0.47078836 0.6251502 -0.16632764
0.095993884 0.614299 -0.10653989 0.018948313 0.15486768 0.41354412 -0.23811917 0.040746596
0.09925616 0.037309166 -0.11463794 0.16728476 -0.057884358 0.5629424 -0.19846167 0.3039781
-0.11782717 -0.109323196 0.2779783 0.5876094 -0.52186716 0.08452649 0.47704518 -0.6764835
-0.2577816 0.5288659 -0.07501802 -0.23677762 -0.34522244 0.2823255 0.22689149 -0.05225316
-0.39471254 0.65234476 0.010481554 0.45214522 0.029800057 0.37016878 -0.025711931 0.2959319
0.15323718 0.31971383 0.30213428 0.2258469 0.13967091 0.14490475 0.013102461 0.30569163
-0.27672145 -0.0692336 0.118636034 0.015642475 0.34514672 0.14427246 -0.012373296 0.2905993
-0.08649489 -0.3192187 0.009677346 -0.18517984 0.15498981 -0.15148596 0.09515999 0.5239419
00000000: 3f7b cc3d db53 19be c5e0 3bbe 133b e63d
00000010: 07b5 983d 2126 e33c 9f54 64be ae7e 1cbe
00000020: 3e86 a9be 2a0b ac3e a08f 0a3e 6759 e8bd
00000030: 0861 bb3e e668 8f3e b6f2 793e d064 b2bd
00000040: 9b32 92be fa48 2fbd 53da 733e 4391 bfbe
00000050: 61d8 5b3d bed0 2bbc ae02 92be 76fa 1e3e
00000060: ded5 04bc 8250 87be 62bd 73bd 3231 8dbe
00000070: 8d5f ec3e 1455 adbd 8805 043e da8a 303e
00000080: dd21 f0bc 58c8 81be baf4 bf3e 8e45 783e
00000090: 0b4b 3abe 2874 0abe 6982 803e b805 c83e
000000a0: c4c3 0abe 2107 243e 437f a93e 645a 283e
000000b0: 14f5 a33e 2c0b f1be d809 203f cb51 2abe
000000c0: 7198 c43d b342 1d3f 9631 dabd 7e39 9b3c
000000d0: a295 1e3e 0ebc d33e 83d5 73be e7e5 263d
000000e0: d046 cb3d 7fd1 183d 4cc7 eabd b24c 2b3e
000000f0: 2618 6dbd fe1c 103f 8939 4bbe 04a3 9b3e
00000100: 5f4f f1bd d7e4 dfbd 2c53 8e3e 926d 163f
00000110: 1699 05bf 391c ad3d 443f f43e 062e 2dbf
00000120: f3fb 83be c163 073f 0ca3 99bd d575 72be
00000130: ffc0 b0be f88c 903e 3e56 683e 6907 56bd
00000140: c317 cabe 1100 273f d3ba 2b3c 947f e73e
00000150: 401f f43c c386 bd3e d4a1 d2bc 6384 973e
00000160: 35ea 1c3e 88b1 a33e 58b1 9a3e 6944 673e
00000170: e405 0f3e e961 143e b4ab 563c 9d83 9c3e
00000180: 6fae 8dbe 58ca 8dbd 73f7 f23d a624 803c
00000190: 12b7 b03e 29bc 133e 5db9 4abc 6ec9 943e
000001a0: 3c24 b1bd a270 a3be bb8d 1e3c c99f 3dbe
000001b0: a6b5 1e3e 231f 1bbe 3ee3 c23d 0e21 063f

6n f4 [16]
1.0 1.0 1.0 1.0 1.0 1.0 1.0 1.0
1.0 1.0 1.0 1.0 1.0 1.0 1.0 1.0
00000000: 0000 803f 0000 803f 0000 803f 0000 803f
00000010: 0000 803f 0000 803f 0000 803f 0000 803f
00000020: 0000 803f 0000 803f 0000 803f 0000 803f
00000030: 0000 803f 0000 803f 0000 803f 0000 803f

ll f4 [12]
0.29646152 -0.7430514 -0.05006187 0.072265804 -0.7132449 0.12947021 0.96241367 1.0922816
0.219881 0.77576756 0.12639757 0.5907832
00000000: cec9 973e 9e38 3ebf ad0d 4dbd 1800 943d
00000010: 3897 36bf d793 043e be60 763f e2cf 8b3f
00000020: 7c28 613e b498 463f 5d6e 013e 913d 173f

is f4 [16]
-0.0 0.0 0.0 0.0 -0.0 -0.0 0.0 -0.0
0.0 0.0 -0.0 -0.0 -0.0 0.0 -0.0 0.0
00000000: 0000 0080 0000 0000 0000 0000 0000 0000
00000010: 0000 0080 0000 0080 0000 0000 0000 0080
00000020: 0000 0000 0000 0000 0000 0080 0000 0080
00000030: 0000 0080 0000 0000 0000 0080 0000 0000

nd f4 [16]
3.748784 6.303503 3.8070467 3.4207418 4.485321 4.3492036 3.0388863 10.165464
2.3693423 3.5685842 5.0188766 4.2047725 2.6414735 3.6160727 12.6913395 3.1838498
00000000: 14ec 6f40 4cb6 c940 a7a6 7340 6fed 5a40
00000010: c087 8f40 ad2c 8b40 1d7d 4240 bea5 2241
00000020: 4ea3 1740 af63 6440 a39a a040 7f8d 8640
00000030: e70d 2940 bc6d 6740 ba0f 4b41 32c4 4b40

k8 f4 [16]
-9.456492e-06 -1.3665178e-07 1.6928531e-06 8.638509e-06 -1.627864e-05 -1.854246e-05 3.2186333e-06 4.695466e-06
-4.9223155e-07 8.166349e-06 6.3071125e-06 2.8536695e-05 9.233131e-06 -9.189698e-06 5.4480133e-06 -5.262241e-06
00000000: 53a7 1eb7 8eba 12b4 fd35 e335 1dee 1037
00000010: 1d8e 88b7 a18b 9bb7 b3ff 5736 bf8d 9d36
00000020: e521 04b5 3402 0937 afa1 d336 1662 ef37
00000030: ffe7 1a37 742d 1ab7 14ce b636 4e92 b0b6

io f4 [12]
1.2836642 3.0913007 1.5500286 0.71470803 0.84997064 1.2890438 5.708036 5.444943
1.9574733 1.5469102 1.1178247 0.98512924
00000000: 1c4f a43f dfd7 4540 5667 c63f 1bf7 363f
00000010: ad97 593f 63ff a43f 3ba8 b640 f93c ae40
00000020: 7c8e fa3f 2701 c63f e114 8f3f 6e31 7c3f

7f f4 [16]
1.5574018 2.030472 0.83191264 0.9991383 1.2701867 1.4813287 1.0359626 1.2314508
1.1008455 0.68701184 2.658997 1.3958428 1.3972346 0.9464097 1.0080769 1.2855804
00000000: f158 c73f 41f3 0140 3af8 543f 87c7 7f3f
00000010: 7a95 a23f 2e9c bd3f 6c9a 843f 2ea0 9d3f
00000020: 81e8 8c3f 02e0 2f3f 022d 2a40 faaa b23f
00000030: 95d8 b23f e847 723f aa08 813f e68d a43f

3 f4 [16]
0.0 0.0 -0.0 0.0 0.0 0.0 -0.0 -0.0
-0.0 -0.0 -0.0 -0.0 0.0 0.0 0.0 -0.0
00000000: 0000 0000 0000 0000 0000 0080 0000 0000
00000010: 0000 0000 0000 0000 0000 0080 0000 0080
00000020: 0000 0080 0000 0080 0000 0080 0000 0080
00000030: 0000 0000 0000 0000 0000 0000 0000 0080

mt f4 [12]
-5.4590913e-05 -9.6759e-05 -0.000108943 1.6424272e-06 2.432884e-06 7.983907e-06 -6.580524e-05 4.3325457e-05
-0.00013020601 2.7717366e-05 3.1812215e-05 -1.6342561e-05
00000000: 8cf8 64b8 18eb cab8 5478 e4b8 5e71 dc35
00000010: a144 2336 9ff2 0537 eb00 8ab8 5bb8 3538
00000020: e987 08b9 9782 e837 1b6e 0538 6217 89b7

h3 f4 [8, 16]
0.3024682 -0.09448972 -0.55080795 0.5024627 0.49500063 -0.09802019 -0.01577379 -0.16802762
0.35226977 0.14969467 -0.42176452 -0.031681117 -0.3755764 0.08886933 -0.095491916 0.3713348
0.37335977 0.62556535 -0.2931641 0.4690365 -0.6595838 0.11671875 -0.25608122 -0.12093736
0.71814615 0.0060286582 -0.20266941 0.36518914 -0.11441 -0.43079796 -0.26000443 0.6972992
-0.26639897 0.29768443 0.4147104 0.4051574 -0.25593746 -0.3949888 -0.0014976079 -0.17689386
-0.24126895 0.44744438 0.055453923 -0.6142559 -0.21211892 0.22664753 -0.50582105 0.04780522
0.15851869 -0.13442838 -0.075504 -0.1291769 0.422436 0.111712836 -0.48749194 -0.050214898
-0.15604787 0.6617094 0.13206738 0.044354413 -0.76759595 -0.6141573 -0.14058436 -0.19824076
0.18451002 0.284154 0.41391832 -0.49214795 0.2183297 -0.11536007 0.42980167 0.20643173
-0.17369683 -0.5402416 -0.37096554 0.26235837 0.15809432 0.35625494 -0.5627226 0.36387795
0.07558059 -0.1516612 0.023239668 -0.001467682 0.32958934 0.29850122 0.38284 -0.5137006
0.0026605502 -0.1613403 0.26793694 0.14936215 0.39469835 -0.0032365692 -0.35954347 0.2742795
-0.46748966 -0.17736055 -0.22159614 -0.0827794 0.14884222 -0.51971734 0.3984092 0.46026284
0.24123956 -0.074469596 -0.68480504 0.022249792 0.35990494 0.08070715 0.31521684 -0.42355382
0.10447349 -0.25656807 -0.11809726 0.28219435 0.27735597 0.42537534 -0.6739508 -0.0958578
0.0051285233 0.017304253 0.22853938 -0.033682674 -0.46813136 -0.63570225 0.06717359 -0.351512
00000000: 1ddd 9a3e d483 c1bd c001 0dbf 65a1 003f
00000010: b970 fd3e cfbe c8bd 0938 81bc 6f0f 2cbe
00000020: b45c b43e 8f49 193e 85f1 d7be 0fc4 01bd
00000030: 8d4b c0be 2001 b63d 4491 c3bd 981f be3e
00000040: 0329 bf3e 0d25 203f 9b19 96be 8d25 f03e
00000050: 7cda 28bf 3d0a ef3d 141d 83be 02ae f7bd
00000060: 6dd8 373f 0d8c c53b 9288 4fbe 12fa ba3e
00000070: ca4f eabd 8d91 dcbe 4d1f 85be 3382 323f
00000080: 7265 88be 186a 983e ec54 d43e ca70 cf3e
00000090: 3c0a 83be f93b cabe 624b c4ba aa23 35be
000000a0: 350f 77be 6e17 e53e a723 633d e03f 1dbf
000000b0: b435 59be 4a16 683e 7d7d 01bf 68cf 433d
000000c0: b952 223e 98a7 09be d7a1 9abd f346 04be
000000d0: 8849 d83e b3c9 e43d 8b98 f9be 23ae 4dbd
000000e0: 03cb 1fbe ca65 293f ac3c 073e f9ac 353d
000000f0: 2b81 44bf 6a39 1dbf 59f5 0fbe a0ff 4abe
00000100: 32f0 3c3e a27c 913e 1aed d33e d1fa fbbe
00000110: d291 5f3e e641 ecbd f70e dc3e d762 533e
00000120: 95dd 31be 464d 0abf 32ef bdbe d653 863e
00000130: 7ae3 213e 0c67 b63e 970e 10bf 364e ba3e
00000140: ffc9 9a3d 134d 1bbe 1e61 be3c 3c5f c0ba
00000150: efbf a83e 27d5 983e 9b03 c43e e281 03bf
00000160: a05c 2e3b 6436 25be 082f 893e 64f2 183e
00000170: e715 ca3e 9f1c 54bb 1516 b8be 5d6e 8c3e
00000180: ce5a efbe 019e 35be 19ea 62be 3f88 a9bd
00000190: 186a 183e 320c 05bf 4afc cb3e 92a7 eb3e
000001a0: 8107 773e 8483 98bd 624f 2fbf 3245 b63c
000001b0: 7645 b83e ca49 a53d 1a64 a13e 0cdc d8be
000001c0: 32f6 d53d e45c 83be fadc f1bd c77b 903e
000001d0: 9a01 8e3e ccca d93e 0a88 2cbf 1851 c4bd
000001e0: 2c0d a83b a6c1 8d3c 3a06 6a3e d8f6 09bd
000001f0: eaae efbe 62bd 22bf 4f92 893d 62f9 b3be

qb f4 [16, 16]
-0.2229431 -0.021049097 -0.18255565 -0.12599343 -0.43861377 0.24131468 -0.6065288 0.818974
-0.34669116 -0.4976956 0.111999035 -0.32702827 -0.34296325 -0.015942479 0.03516232 0.33404964
0.2807548 0.12187756 0.4307126 0.09343602 0.19912878 -0.18214884 -0.053422518 -0.019966088
0.11394087 -0.3304903 -0.35621113 -0.37579834 0.44486544 0.04582309 0.068238035 0.0325798
0.36478406 -0.19329713 0.062192876 0.5290682 -0.21723673 -0.17888185 0.23912655 -0.16341306
-0.0042501707 0.4707944 -0.34306106 -0.07926864 0.22617167 0.6396519 -0.04973671 0.35783875
-0.20470028 -0.019342303 0.23269062 -0.5499584 0.18326989 -0.37343627 0.24335918 -0.04276208
0.5705098 -0.36685258 -0.3838596 -0.27124774 -0.27993444 0.062351923 -0.38753688 -0.18401845
-0.49932927 0.20764942 -0.13751297 0.37138888 -0.19052953 -0.084501795 0.046148334 -0.35582677
-0.19867335 -0.15832037 -0.52251923 -0.15020275 -0.3194604 -0.3434548 0.43550307 -0.42210177
-0.09225062 0.25415283 -0.58364755 -0.23606627 0.058879375 0.13321896 -0.07001913 0.1324024
0.011434646 0.12210857 0.19403987 -0.53495973 0.19581638 -0.19623874 0.27011362 0.079307295
0.07293999 -0.08144803 0.1606182 0.25376767 0.08005703 0.49029875 0.2742234 -0.16563083
-0.5266796 -0.08695652 0.12904772 0.4076393 0.21197708 0.48657387 -0.24104248 -0.09689676
-0.06484038 0.762824 -0.11732178 0.046792693 0.26869747 -0.30012605 -0.23475069 -0.39725703
0.10894623 0.547068 -0.14086977 -0.32993108 -0.08455964 0.12631609 -0.22434244 -0.18032628
0.1791238 0.15254982 -0.3679728 0.07173597 -0.3314858 0.07987683 0.03013515 0.18790406
0.37895307 -0.27139568 -0.026616838 0.15300603 -0.5755415 -0.03590334 0.14308295 -0.4372123
-0.14544937 0.27259335 0.23267834 -0.15299983 -0.26846212 0.22213933 0.38011813 -0.05009849
-0.38608274 0.2670285 0.23940186 0.04964332 -0.2841007 -0.09951665 -0.41743672 0.17955622
-0.32811347 0.22404316 -0.39210293 -0.26621607 0.18791421 -0.041833866 -0.11283228 -0.1257714
0.05985756 -0.2734163 0.29505348 0.370425 0.15523125 0.5202869 0.5150679 0.31405523
0.051421303 -0.2530865 -0.47986025 0.44060567 -0.054503728 0.09718463 -0.68286735 0.20749812
0.17788415 -0.087690756 0.25589746 -0.25945544 -0.33407938 -0.3298292 -0.41561452 -0.3503027
0.54498184 0.19339469 0.25483063 0.23187841 0.4554384 0.372909 -0.19554044 -0.10957205
-0.21567468 0.13900137 0.2030176 0.026422355 0.32922906 0.12046421 0.2741887 -0.5601036
-0.14054242 -0.06473963 0.25858042 0.17395987 0.20246966 0.48985758 0.19886085 -0.31054676
-0.10540319 0.18820788 -0.4039157 0.14013985 -0.34984106 0.4478976 0.18491168 -0.11439959
-0.528829 0.6817329 -0.37410846 0.016598478 0.7949842 -0.17669141 -0.71044827 0.23278262
-0.20096374 -0.37788382 -0.43223423 -0.11049565 0.091934614 0.2621501 -0.35725427 0.29111752
0.24538049 0.4264743 -0.2663435 -0.10798925 -0.15318637 0.22956492 -0.4460626 -0.11227805
0.008250588 -0.36612087 0.18247905 0.15612592 0.18972427 0.07106392 -0.14943798 -0.2777993
00000000: 324b 64be 286f acbc deef 3abe 6c04 01be
00000010: fc91 e0be 321b 773e 7945 1bbf 48a8 513f
00000020: 8181 b1be f5d1 febe c05f e53d 4070 a7be
00000030: e198 afbe cd99 82bc 5d06 103d 8e08 ab3e
00000040: 18bf 8f3e f19a f93d 5d86 dc3e 625b bf3d
00000050: 6ae8 4b3e 3a85 3abe 92d1 5abd ec8f a3bc
00000060: d559 e93d 0636 a9be 4e61 b6be a468 c0be
00000070: 67c5 e33e feb0 3b3d 62c0 8b3d 6572 053d
00000080: fac4 ba3e afef 45be f5bd 7e3d 0371 073f
00000090: 4e73 5ebe ce2c 37be 97dd 743e c155 27be
000000a0: 0445 8bbb f70b f13e b3a5 afbe 9957 a2bd
000000b0: 8c99 673e 3ac0 233f b8b8 4bbd a436 b73e
000000c0: f39c 51be c073 9ebc 7346 6e3e 13ca 0cbf
000000d0: 1aab 3b3e 0a33 bfbe 2633 793e 4a27 2fbd
000000e0: ee0c 123f 1ad4 bbbe 3f89 c4be fce0 8abe
000000f0: 9153 8fbe bb64 7f3d 3c6b c6be 556f 3cbe
00000100: 16a8 ffbe 0da2 543e 33d0 0cbe af26 be3e
00000110: 2c1a 43be 470f adbd 0906 3d3d ed2e b6be
00000120: 0771 4bbe bc1e 22be d2c3 05bf c0ce 19be
00000130: 5090 a3be 4fd9 afbe 42fa de3e b91d d8be
00000140: e5ed bcbd 5220 823e ed69 15bf 5bbb 71be
00000150: 802b 713d 8d6a 083e 3166 8fbd 7f94 073e
00000160: 6258 3b3c 0f14 fa3d 63b2 463e 1ff3 08bf
00000170: 1784 483e cff2 48be 554c 8a3e dd6b a23d
00000180: 9061 953d 3ace a6bd 1979 243e d6ed 813e
00000190: f1f4 a33d 7008 fb3e 0267 8c3e 219b 29be
000001a0: 79d4 06bf 4316 b2bd 1625 043e 19b6 d03e
000001b0: 8510 593e 3620 f93e d7d3 76be cf71 c6bd
000001c0: 08cb 84bd 6f48 433f 6746 f0bd b2a9 3f3d
000001d0: b792 893e 1faa 99be 7c62 70be 4665 cbbe
000001e0: 331f df3d a60c 0c3f 2a40 10be baec a8be
000001f0: 9b2d adbd 0159 013e 06ba 65be 74a7 38be
00000200: 3b6c 373e 0536 1c3e ee66 bcbe 4fea 923d
00000210: 82b8 a9be 7796 a33d fddd f63c ec69 403e
00000220: 2306 c23e 60f4 8abe 8e0b dabc 9dad 1c3e
00000230: b056 13bf 610f 13bd 5684 123e 4ada dfbe
00000240: aef0 14be 5b91 8b3e 3b43 6e3e fdab 1cbe
00000250: de73 89be 7e78 633e d89e c23e 1334 4dbd
00000260: a3ac c5be f6b7 883e c325 753e cb56 4b3d
00000270: a675 91be 63cf cbbd 44ba d5be 96dd 373e
00000280: 7dfe a7be 926b 653e b7c1 c8be 794d 88be
00000290: 956c 403e fd59 2bbd 9c14 e7bd 38ca 00be
000002a0: 332d 753d 39fd 8bbe 4011 973e 58a8 bd3e
000002b0: f1f4 1e3e 8631 053f 7ddb 033f d9cb a03e
000002c0: 259f 523d 8e94 81be 3eb0 f5be 1197 e13e
000002d0: 4d3f 5fbd bc08 c73d 65d0 2ebf 637a 543e
000002e0: 4327 363e 3697 b3bd fe04 833e 58d7 84be
000002f0: 740c abbe 5fdf a8be 6dcb d4be e05a b3be
00000300: ee83 0b3f 4209 463e 2979 823e 8971 6d3e
00000310: 392f e93e eeed be3e c13b 48be 5067 e0bd
00000320: d3d9 5cbe 6056 0e3e d9e3 4f3e b273 d83c
00000330: b690 a83e f1b5 f63d 7662 8c3e f362 0fbf
00000340: 5aea 0fbe 3696 84bd a764 843e 8922 323e
00000350: 3554 4f3e 9dce fa3e 2ea2 4b3e fcff 9ebe
00000360: a1dd d7bd 91b9 403e 0ace cebe d280 0f3e
00000370: 5e1e b3be d652 e53e 7d59 3d3e 554a eabd
00000380: 5661 07bf 0c86 2e3f 258b bfbe 88f9 873c
00000390: 1684 4b3f 98ee 34be f0df 35bf 915e 6e3e
000003a0: 70c9 4dbe fd79 c1be ce4d ddbe 8b4b e2bd
000003b0: 3748 bc3d 8a38 863e 08ea b6be 5b0d 953e
000003c0: 0645 7b3e d75a da3e 2d5e 88be 7829 ddbd
000003d0: e3dc 1cbe 1113 6b3e 5162 e4be 09f2 e5bd
000003e0: 792d 073c 3274 bbbe cadb 3a3e 79df 1f3e
000003f0: 1447 423e f689 913d 4506 19be b63b 8ebe

wp f4 [12, 9]
0.20767221 -0.032301486 0.14029798 0.44649258 -0.5783216 -0.311456 2.5581021 0.27828407
0.44084933 0.024027234 0.16199547 0.44110987 0.08992242 -0.47126505 -0.03199778 1.3760796
-0.30111134 0.11960217 -0.23484808 0.50916904 0.008806269 0.05249073 -0.32541043 0.56695026
0.88239443 -0.18465038 -0.37909716 0.10454793 0.43240994 -0.17565529 -0.48007292 0.5513158
0.25659233 -0.120226316 -0.29498017 0.5830376 -0.3427927 0.28655225 0.26058653 0.04106523
0.38960582 0.13160811 0.29817036 0.07881308 -0.5965286 0.01724682 0.21995497 -0.15405272
0.5304707 -0.60381436 0.18125862 1.3538297 -0.17798686 0.15293783 -0.026577871 0.45386207
-0.028461576 0.1068385 3.9712367 0.0059486297 0.0027374458 0.39012265 0.6722198 -0.15786119
0.14385808 -0.08174341 0.0012920968 3.0149677 -0.098873615 -0.04268579 -0.71773714 -0.11025252
0.06604218 -0.416352 0.14323051 0.48896402 1.8670781 -0.29773325 0.42792684 -1.2914407
-0.23116586 0.05915327 -0.02500236 -0.11440854 -0.37169343 -0.88859046 0.24341278 1.0424896
0.3124242 -0.42379236 0.04416416 0.018021166 -0.44118163 0.39537778 0.6680969 0.023738785
-0.0851085 0.67109346 -0.09576544 0.4580823 0.20802158 0.023747107 0.34426594 0.8115914
0.19084965 -0.691995 0.34838933 0.08801875
00000000: 06a8 543e 904e 04bd 46aa 0f3e ad9a e43e
00000010: e20c 14bf 2977 9fbe f2b7 2340 407b 8e3e
00000020: 01b7 e13e c3d4 c43c 24e2 253e 27d9 e13e
00000030: 3f29 b83d a749 f1be 1b10 03bd 6023 b03f
00000040: 442b 9abe fcf1 f43d 047c 70be e758 023f
00000050: 2b48 103c 8500 573d 329c a6be a723 113f
00000060: 9ae4 613f fd14 3dbe 0619 c2be 3a1d d63d
00000070: d664 dd3e fbde 33be 1ecc f5be 0823 0d3f
00000080: 1260 833e 3739 f6bd a407 97be f441 153f
00000090: 8682 afbe fab6 923e 996b 853e 0434 283d
000000a0: 6a7a c73e 47c4 063e c9a9 983e c168 a13d
000000b0: 19b6 18bf 3449 8d3c e03b 613e ffbf 1dbe
000000c0: eecc 073f 9493 1abf dc9b 393e 4b4a ad3f
000000d0: 3042 36be bc9b 1c3e d6b9 d9bc 9c60 e83e
000000e0: 4028 e9bc 25ce da3d be28 7e40 b9ec c23b
000000f0: b866 333b 28be c73e 9916 2c3f 5da6 21be
00000100: 884f 133e 1769 a7bd 935b a93a 3bf5 4040
00000110: 407e cabd 4cd7 2ebd 9fbd 37bf 13cc e1bd
00000120: 1f41 873d 172c d5be 05ab 123e 7e59 fa3e
00000130: 6afc ee3f 7e70 98be 3a19 db3e ee4d a5bf
00000140: beb6 6cbe b34a 723d c0d1 ccbc 064f eabd
00000150: 9a4e bebe aa7a 63bf 3341 793e 4d70 853f
00000160: 11f6 9f3e 50fb d8be 7ae5 343d 20a1 933c
00000170: 8fe2 e1be f56e ca3e 6608 2b3f d777 c23c
00000180: 5e4d aebd c8cc 2b3f ac20 c4bd c389 ea3e
00000190: 9c03 553e 4b89 c23c a043 b03e 74c4 4f3f
000001a0: 176e 433e 9626 31bf 1660 b23e 2d43 b43d

p f4 [9]
0.1761268 0.0 -0.002801498 -0.19006105 0.31912974 0.4294921 0.57866484 0.12907995
-0.21272685
00000000: 955a 343e 0000 0000 5699 37bb 5d9f 42be
00000010: f964 a33e 63e6 db3e 6123 143f 892d 043e
00000020: 11d5 59be

b5 f4 [12]
-0.0 0.0 -0.0 0.0 0.0 -0.0 -0.0 -0.0
-0.0 -0.0 -0.0 -0.0
00000000: 0000 0080 0000 0000 0000 0080 0000 0000
00000010: 0000 0000 0000 0080 0000 0080 0000 0080
00000020: 0000 0080 0000 0080 0000 0080 0000 0080

oh f4 [16]
2.158667e-06 -5.4250617e-05 -3.7812074e-06 4.454844e-05 4.0067545e-05 -6.841988e-05 -5.31677e-05 0.000110248926
1.09510465e-05 2.7625825e-05 -2.1247699e-05 -4.550348e-07 3.6115187e-05 -7.4761374e-05 -0.00017804271 -1.08969225e-05
00000000: 9edd 1036 288b 63b8 a6c0 7db6 86d9 3a38
00000010: 330e 2838 a57c 8fb8 6200 5fb8 7135 e738
00000020: 63ba 3737 02be e737 163d b2b7 824b f4b4
00000030: 637a 1738 35c9 9cb8 fab0 3ab9 edd1 36b7

mo f4 [202, 14]
-0.88178945 -1.3953651 0.18001653 0.3822388 -0.47625992 0.23308647 1.154077 -0.12792966
0.62088764 0.20917341 -0.38110813 0.062249105 1.4100811 0.01828373 0.47502062 4.6799283
-0.13624635 0.4247899 2.6020854 -1.819298 -1.3854086 -0.6720925 -0.9656345 -1.0568922
0.057248488 0.54456663 -3.2655542 -1.606927 1.0045257 2.5375226 -0.6527349 -0.7283549
0.8133597 -0.13047668 -1.2570772 0.08920757 -0.90233606 -0.8034289 0.39962107 0.82818174
-2.6524594 0.1886199 -1.1381605 -0.31487706 -0.8418445 2.17088 2.024044 -1.9276817
1.118024 -2.711014 0.0255077 0.4789934 -0.19253625 0.7792245 0.29129764 -2.1668248
-2.2253375 -4.1220074 0.73437893 0.2664161 -2.4387038 1.5933936 2.4174504 1.0161462
2.3028023 1.4607506 -2.3008418 0.2806761 5.405673 0.7147509 -3.6795182 -6.794441
1.1277359 -0.2507135 -4.460039 3.0045052 3.4185863 1.7334119 3.1811743 1.9737877
-3.0849469 0.39375207 8.044276 1.4372125 -2.9550128 -4.9078465 0.4221394 0.5428629
-2.4273078 1.8391932 3.4664977 0.58278626 2.4887638 1.5613889 -2.618725 0.0941514
6.35458 0.5473916 -2.1634762 1.4361207 -0.90190417 2.0997894 3.1125698 -2.988874
-0.2633715 -2.7632532 -0.41211048 -1.6131506 0.62980264 0.65424526 -0.98444647 -3.501047
2.2071998 5.226987 0.031795606 1.3877512 4.030266 -2.639607 -2.289342 -1.6381409
-1.5580587 -0.62849766 0.93461716 0.92499465 -4.4888353 -2.6812174 -4.1878185 -8.2788315
1.0563095 2.4478006 -2.8274496 1.1877962 3.4460447 -0.6485928 2.7600772 1.7650295
-1.6522707 1.0365113 7.846952 -1.1607571 0.12834363 0.0977351 0.49047124 -1.3140724
-1.1773735 1.7342465 -0.023860242 1.9106724 0.33305362 -1.3786306 0.43203786 -0.8307408
-0.2831297 1.262082 -2.8023083 -2.930848 0.030244026 0.6443918 -1.4697608 0.66804576
1.6769073 -0.40298253 1.0723163 0.5213442 -0.964281 0.9468774 2.7855463 -0.2963798
-4.543331 -9.015353 0.9503478 0.30807814 -5.156446 3.4713533 4.4409943 1.5296987
3.899266 2.881185 -3.5601265 0.4552006 10.297296 1.4229842 0.29641226 1.8534534
-0.055703156 1.5475398 1.5616281 -1.6632177 -0.29857653 -1.2917662 0.48310968 0.35575345
-0.2969949 0.94245374 -0.68153316 -0.84487224 -3.4066167 -9.237344 0.9152113 2.427335
-4.1248426 2.4126642 4.7780623 -0.121325895 3.8077695 3.0321965 -2.7824972 1.1345979
9.514477 0.28687122 -0.96709144 -1.6442845 0.34198442 1.1720788 -0.3961054 0.077533655
1.215275 -0.27244312 1.4699454 1.2517219 -1.4121164 0.708137 2.9519682 -0.37120962
-2.8012707 -3.684922 -0.397751 2.33268 -0.79410386 -0.32819688 2.3377335 -1.7757671
1.510495 0.6117902 -1.0420698 1.2542166 3.7952948 -1.180012 -1.2070537 -1.6141411
0.32826215 1.7224491 0.102780245 -0.7103372 1.0043046 -1.1639152 1.0844207 0.9090269
-0.9320303 1.039889 2.8934188 -1.5839115 2.050429 5.7581067 -0.94890386 1.622507
00000000: f4bc 61bf 539b b2bf 4156 383e ceb4 c33e
00000010: 57d8 f3be 38ae 6e3e ccb8 933f feff 02be
00000020: 7ef2 1e3f 8e31 563e 9b20 c3be ebf8 7e3d
00000030: 8a7d b43f c3c7 953c e735 f33e f9c1 9540
00000040: 2a84 0bbe 107e d93e 9188 2640 c2de e8bf
00000050: 1255 b1bf 410e 2cbf d333 77bf 3e48 87bf
00000060: 647d 6a3d b868 0b3f d7fe 50c0 c9af cdbf
00000070: 4c94 803f c566 2240 a219 27bf 7775 3abf
00000080: 5738 503f ae9b 05be e8e7 a0bf 75b2 b63d
00000090: 7fff 66bf 84ad 4dbf 229b cc3e b803 543f
000000a0: e5c1 29c0 9325 413e 3eaf 91bf 9137 a1be
000000b0: 1f83 57bf b3ef 0a40 f089 0140 46be f6bf
000000c0: 691b 8f3f 4181 2dc0 86f5 d03c 9f3e f53e
000000d0: 3928 45be 427b 473f f724 953e 42ad 0ac0
000000e0: ee6b 0ec0 7ce7 83c0 4200 3c3f b167 883e
000000f0: b913 1cc0 52f4 cb3f 82b7 1a40 1411 823f
00000100: 1d61 1340 e0f9 ba3f fe40 13c0 c7b4 8f3e
00000110: 46fb ac40 eaf9 363f 3a7d 6bc0 106c d9c0
00000120: a659 903f 855d 80be a4b8 8ec0 d049 4040
00000130: 1eca 5a40 71e0 dd3f 5c98 4b40 13a5 fc3f
00000140: c56f 45c0 df99 c93e 5bb5 0041 94f6 b73f
00000150: ee1e 3dc0 140d 9dc0 a822 d83e 10f9 0a3f
00000160: 0359 1bc0 af6a eb3f 19db 5d40 7b31 153f
00000170: e847 1f40 97db c73f 3199 27c0 73d2 c03d
00000180: b858 cb40 db21 0c3f 6576 0ac0 ced2 b73f
00000190: 31e3 66bf f362 0640 5834 4740 b649 3fc0
000001a0: a1d8 86be 24d9 30c0 2500 d3be b87b cebf
000001b0: bf3a 213f 9e7c 273f af04 7cbf 2711 60c0
000001c0: c342 0d40 7a43 a740 1c3c 023d d5a1 b13f
000001d0: f0f7 8040 52ef 28c0 9484 12c0 9aae d1bf
000001e0: 786e c7bf 39e5 20bf 1243 6f3f 73cc 6c3f
000001f0: 8aa4 8fc0 1199 2bc0 9c02 86c0 1876 04c1
00000200: 2635 873f c4a8 1c40 eff4 34c0 b509 983f
00000210: ff8b 5c40 2e0a 26bf 1ba5 3040 7dec e13f
00000220: 9b7d d3bf 67ac 843f 3b1a fb40 b093 94bf
00000230: 836c 033e 5729 c83d 0c1f fb3e 8633 a8bf
00000240: 2db4 96bf cafb dd3f 8e76 c3bc ea90 f43f
00000250: 0186 aa3e f876 b0bf 1134 dd3e 6eab 54bf
00000260: 60f6 90be e78b a13f 0559 33c0 0393 3bc0
00000270: 52c2 f73c dcf6 243f 1f21 bcbf 0c05 2b3f
00000280: e6a4 d63f ba53 cebe a941 893f d076 053f
00000290: 1fdb 76bf 8f66 723f 6446 3240 18bf 97be
000002a0: f862 91c0 e33e 10c1 fe49 733f 6bbc 9d3e
000002b0: 9b01 a5c0 a72a 5e40 a01c 8e40 2bcd c33f
000002c0: 938d 7940 5665 3840 1dd9 63c0 0e10 e93e
000002d0: b9c1 2441 5924 b63f 59c3 973e f63d ed3f
000002e0: fe28 64bd c915 c63f 6ee3 c73f 51e4 d4bf
000002f0: 06df 98be 9858 a5bf 275a f73e 5125 b63e
00000300: b70f 98be a644 713f f578 2ebf 8c49 58bf
00000310: 0206 5ac0 29cc 13c1 4a4b 6a3f 7559 1b40
00000320: b6fe 83c0 1769 1a40 e3e5 9840 b679 f8bd
00000330: 7fb2 7340 820f 4240 6f14 32c0 813a 913f
00000340: 4c3b 1841 c9e0 923e 4e93 77bf ea77 d2bf
00000350: 9518 af3e ae06 963f 54ce cabe f7c9 9e3d
00000360: 228e 9b3f aa7d 8bbe 2c27 bc3f 6c38 a03f
00000370: 3bc0 b4bf 7748 353f 0ced 3c40 300f bebe
00000380: 0548 33c0 c3d5 6bc0 05a6 cbbe a14a 1540
00000390: 644a 4bbf 6c09 a8be 6d9d 1540 564c e3bf
000003a0: e657 c13f 489e 1c3f 8b62 85bf 2b8a a03f
000003b0: 1ce6 7240 a20a 97bf bc80 9abf 2d9c cebf
000003c0: fa11 a83e 3679 dc3f 737e d23d a9d8 35bf
000003d0: 0e8d 803f 2cfb 94bf 4cce 8a3f fdb5 683f
000003e0: 8a99 6ebf 151b 853f c62d 3940 9dbd cabf
000003f0: 3b3a 0340 6942 b840 5deb 72bf 4fae cf3f

vd f4 [4, 1]
7.7594566 -0.050396975 9.746369 -0.36422712
00000000: 784d f840 0f6d 4ebd 21f1 1b41 fa7b babe

2n f4 [12]
1.0 1.0 1.0 1.0 1.0 1.0 1.0 1.0
1.0 1.0 1.0 1.0
00000000: 0000 803f 0000 803f 0000 803f 0000 803f
00000010: 0000 803f 0000 803f 0000 803f 0000 803f
00000020: 0000 803f 0000 803f 0000 803f 0000 803f

13 f4 [16]
1.0 1.0 1.0 1.0 1.0 1.0 1.0 1.0
1.0 1.0 1.0 1.0 1.0 1.0 1.0 1.0
00000000: 0000 803f 0000 803f 0000 803f 0000 803f
00000010: 0000 803f 0000 803f 0000 803f 0000 803f
00000020: 0000 803f 0000 803f 0000 803f 0000 803f
00000030: 0000 803f 0000 803f 0000 803f 0000 803f

je f4 [16, 12]
0.25159 -0.44167238 -0.2526986 0.5174587 0.6774141 -0.28673893 0.16286197 -0.1837134
-0.20935404 -0.26895264 -0.018588612 -0.81015164 -0.18509033 -0.14230257 -0.4094654 0.33321312
-0.19598348 0.1520695 1.5088444 0.9986147 0.5908223 0.0056976015 0.6034358 0.09796449
-0.2798856 0.39771083 -0.10753066 -0.19876009 0.25823912 0.09680933 -0.12201505 0.07424609
0.11407008 -0.43246636 0.17344722 -0.5394156 0.49007592 -0.6300614 -0.021598568 -0.14494728
0.23228438 -0.40636602 0.27641603 -0.11487864 -0.369369 0.13116443 0.21426553 -0.034103114
-0.057422724 0.2544516 0.1476073 0.3501101 0.36292034 -0.14342028 0.63650304 0.46348286
0.7689169 -0.28295174 0.2577764 0.49402323 -0.5405544 0.14595954 0.27813643 0.1512127
0.5422922 -0.166807 -0.45279765 0.1942697 -0.33775228 0.4654652 0.23134924 -0.44247854
-0.4309157 -0.22727373 -0.33677396 -0.09678653 -0.03539652 -0.41280004 0.27584934 0.10220929
-0.26932243 -0.34567696 0.15536833 0.19673114 0.109090485 0.5306404 0.17058018 -0.41338152
0.25433275 0.5147664 0.1417332 -0.23336501 -0.02520282 0.17890403 -0.20416613 -0.2527224
0.2796568 0.19852547 0.24281053 -0.2603896 -0.3673159 0.11477828 -0.13816851 0.13417576
-0.054031808 0.27640358 -0.4805274 -0.12888183 -0.17853174 0.24696636 -0.42658785 0.11040777
0.284481 -0.13039915 -0.24985081 -0.31867778 -0.0381053 -0.46836054 0.11997582 0.36972022
0.058240782 -0.046242528 0.61572444 -0.36828452 -0.0068963002 0.06389982 0.13805233 0.41697627
0.40620494 -0.3107303 -0.1499283 0.013774693 -0.32303354 0.29442936 -0.33065394 0.4805417
0.5327999 0.032869447 -0.25956818 -0.512091 -0.02144288 -0.5061112 -0.12251807 -0.036498886
-0.45057338 0.17234066 0.19254018 0.38134 0.16167541 0.17521113 -0.27095583 0.124935165
0.1813193 0.07238657 0.0076425816 -0.1613789 0.16210645 -0.0076692756 0.3777352 0.4362014
-0.044957623 -0.21416816 0.4230872 0.45893034 0.22620071 0.12592845 0.14050709 0.29227018
-0.4426438 0.23484997 -0.49025422 -0.19897583 0.1463114 -0.3753763 -0.04730926 -0.09296545
-0.0052324026 -0.44154248 0.07670961 0.010845148 -0.43024296 -0.113972805 -0.2745995 -0.11866954
0.06552425 0.1192333 -0.033180516 -0.12588118 0.34781566 -0.43474868 -0.41628706 0.3500292
00000000: 68d0 803e e222 e2be b661 81be 2c78 043f
00000010: 036b 2d3f 72cf 92be 4ac5 263e 5e1f 3cbe
00000020: e860 56be 29b4 89be 2547 98bc 1966 4fbf
00000030: 5288 3dbe c4b7 11be 73a5 d1be e99a aa3e
00000040: e5af 48be 1bb8 1b3e d021 c13f 37a5 7f3f
00000050: 2140 173f f2b2 ba3b c57a 1a3f 9ba1 c83d
00000060: 2a4d 8fbe c1a0 cb3e 0939 dcbd c487 4bbe
00000070: eb37 843e f843 c63d 07e3 f9bd 560e 983d
00000080: 939d e93d 3b6c ddbe 269c 313e 2417 0abf
00000090: 3beb fa3e b44b 21bf 7bef b0bc 0f6d 14be
000000a0: f5db 6d3e 350f d0be 6786 8d3e 7e45 ebbd
000000b0: ef1d bdbe f84f 063e 6c68 5b3e b5af 0bbd
000000c0: 1734 6bbd 7b47 823e 5e26 173e a241 b33e
000000d0: b2d0 b93e c4dc 12be ddf1 223f a04d ed3e
000000e0: bdd7 443f 0ddf 90be 45fb 833e 9df0 fc3e
000000f0: c661 0abf 6b76 153e e667 8e3e 81d7 1a3e
00000100: a9d3 0a3f 74cf 2abe 18d5 e7be a3ee 463e
00000110: deed acbe 7451 ee3e d1e6 6c3e 8c8c e2be
00000120: fca0 dcbe 72ba 68be a36d acbe 0438 c6bd
00000130: f1fb 10bd 875a d3be 203c 8d3e 1b53 d13d
00000140: a1e4 89be 92fc b0be e018 1f3e e373 493e
00000150: d56a df3d 0dd8 073f 92ac 2e3e bea6 d3be
00000160: e737 823e bbc7 033f 8222 113e 3df7 6ebe
00000170: 2576 cebc 9e32 373e ed10 51be d564 81be
00000180: 2d2f 8f3e 434a 4b3e 53a3 783e c951 85be
00000190: d410 bcbe e010 eb3d 0c7c 0dbe 5f65 093e
000001a0: 7550 5dbd c584 8d3e b007 f6be 99f9 03be
000001b0: 06d1 36be c0e4 7c3e b969 dabe 781d e23d
000001c0: 7ea7 913e 5b87 05be e4d8 7fbe bc29 a3be
000001d0: 4e14 1cbd f4cc efbe e2b5 f53d f84b bd3e
000001e0: e38d 6e3d ce68 3dbd 1ea0 1d3f ca8f bcbe
000001f0: 5cfa e1bb e9dd 823d 975d 0d3e ea7d d53e
00000200: 18fa cf3e 0b18 9fbe ce86 19be 40af 613c
00000210: a764 a5be 72bf 963e 794b a9be 9009 f63e
00000220: 9365 083f 1da2 063d 1fe6 84be 6518 03bf
00000230: fba8 afbc 8190 01bf c1ea fabd db7f 15bd
00000240: 8eb1 e6be 127a 303e 4129 453e ff3e c33e
00000250: 3d8e 253e 8c6a 333e b9ba 8abe 02de ff3d
00000260: c4ab 393e 693f 943d 9f6e fa3b 8340 25be
00000270: 3cff 253e 8c4e fbbb 8266 c13e ca55 df3e
00000280: 7c25 38bd e64e 5bbe e39e d83e ebf8 ea3e
00000290: 29a1 673e 63f3 003e 17e1 0f3e 70a4 953e
000002a0: 35a2 e2be 837c 703e 9a02 fbbe 52c0 4bbe
000002b0: a8d2 153e 5331 c0be 5bc7 41bd ab64 bebd
000002c0: 9374 abbb db11 e2be ee19 9d3d d9af 313c
000002d0: ce48 dcbe 936a e9bd 4e98 8cbe 0409 f3bd
000002e0: 9431 863d 9730 f43d 4be8 07bd ffe6 00be
000002f0: e514 b23e 6197 debe 9423 d5be 0737 b33e

ve f4 [16]
0.22719288 -1.7693322 -0.10372718 -0.38498282 -0.6184027 -0.32793945 0.06636141 0.17533435
0.19404072 0.4688986 0.3065412 0.42031932 -0.094723746 -0.39216334 -0.14631498 -0.11412369
00000000: 40a5 683e 7a79 e2bf ea6e d4bd 781c c5be
00000010: a44f 1ebf aee7 a7be 7ee8 873d d98a 333e
00000020: 9cb2 463e 7a13 f03e f8f2 9c3e 1834 d73e
00000030: 86fe c1bd a2c9 c8be 98d3 15be aeb9 e9bd

i6 f4 [16]
0.45269802 -1.0551147 -0.19588362 -0.89992243 0.44541186 0.9483864 -0.1991846 0.12615997
-0.45880756 -0.5883111 0.9255549 0.7445166 -0.022306204 -0.59067774 2.1276624 -0.27231
00000000: 09c8 e73e 000e 87bf b795 48be 5161 66bf
00000010: 060d e43e 73c9 723f 0cf7 4bbe 1430 013e
00000020: d3e8 eabe 8e9b 16bf 2af1 6c3f a498 3e3f
00000030: 80bb b6bc a836 17bf 9f2b 0840 376c 8bbe
