OpenUtau.Core/Vogen/Data/po.yue.onnx (onnx, 30936 bytes, 23 tensors)

fu f4 [16]
00000000: 1c35 b6bc a445 a23c 1218 0ec0 8d7b 7fbe
00000010: 7f4a 32bf 9649 233e 5359 04bf 3e52 943d
00000020: 4ac9 543e 2a45 42be 03c9 c63e b0b4 c33c
00000030: 33e9 5bbf 932d 033f 1427 d7bd 3929 bebe
-0.022242121 0.019808598 -2.2202191 -0.24949475 -0.6964492 0.1594604 -0.516988 0.07242249
0.2077991 -0.18971696 0.38825235 0.02388987 -0.8590271 0.51241416 -0.105055004 -0.37140825

gs f4 [16]
00000000: fe39 e93e 934e f7bf acf4 0040 6e1b 8e3c
00000010: 6873 323e 0f77 893f d87b 9fbf c1a4 04bf
00000020: 9355 283f c35b ebbf 63f4 8b3f 701c c83f
00000030: fe67 a0bf 75aa 923f a11d de3f c7fc 50bf
0.45552057 -1.9320854 2.0149336 0.017347064 0.17426836 1.0739459 -1.2459669 -0.51813895
0.65755576 -1.8387378 1.0933956 1.5633678 -1.2531736 1.1458269 1.7352792 -0.8163571

7n f4 [16]
00000000: 0000 803f 0000 803f 0000 803f 0000 803f
00000010: 0000 803f 0000 803f 0000 803f 0000 803f
00000020: 0000 803f 0000 803f 0000 803f 0000 803f
00000030: 0000 803f 0000 803f 0000 803f 0000 803f
1.0 1.0 1.0 1.0 1.0 1.0 1.0 1.0
1.0 1.0 1.0 1.0 1.0 1.0 1.0 1.0

j6 f4 [16]
00000000: 4743 ad3f 5780 cb3f 9460 e040 e8aa 4c3f
00000010: 99a6 0a40 b7ca e73f 82ee 713f 08c6 a83f
00000020: 840d 6d3f 1c18 b03f c3e9 b23f 38ed b03f
00000030: 6c61 a53f 1989 be3f dde9 423f e480 af3f
1.3536156 1.5898541 7.0117893 0.7994828 2.1664183 1.8108739 0.9450456 1.3185434
0.9259875 1.3757358 1.3977588 1.3822393 1.2920356 1.4885589 0.761381 1.3711209

qx f4 [12]
00000000: 6ef2 2e3f 4dfc 1540 e6b3 7c3f 8e03 f93f
00000010: 39ab c23f 8070 823f 7c8a 903f 3d00 833f
00000020: 0bd5 0f3f bca5 4f3f 1b9d 0c3f 51be f03f
0.6833867 2.3435242 0.98712003 1.945421 1.5208503 1.0190582 1.1292262 1.0234448
0.5618445 0.81112266 0.54927224 1.880808

ns f4 [16]
00000000: 0000 0080 0000 0080 0000 0000 0000 0000
00000010: 0000 0000 0000 0080 0000 0000 0000 0080
00000020: 0000 0080 0000 0080 0000 0080 0000 0080
00000030: 0000 0000 0000 0080 0000 0080 0000 0000
-0.0 -0.0 0.0 0.0 0.0 -0.0 0.0 -0.0
-0.0 -0.0 -0.0 -0.0 0.0 -0.0 -0.0 0.0

jp f4 [202, 14]
00000000: 839c ca3f 08ec 983f 3aa4 60bf c92a 8ebf
00000010: af66 1ac0 c7d4 c1bf 6086 f9bf 8071 3c3f
00000020: 21b8 9e3f 4fa6 ae3f d3f5 343f 5d84 d03f
00000030: b5d4 13bf c38a 67be a8b1 2a40 f543 0140
00000040: 98fb 57c0 3d25 23c0 b1c0 5dc0 5e47 60c0
00000050: 04f7 92c0 b252 8b3f e139 5640 48e0 5740
00000060: 4a2e e83f 8543 4d40 6c51 bf3e cfd6 d8bf
00000070: b3ee 9740 0c57 3440 1e62 4ec0 19e1 31c0
00000080: 8374 c7c0 2351 b3c0 9b62 b0c0 8230 1b40
00000090: 5b46 7a40 b8ea ac40 7485 4540 7bb0 7c40
000000a0: af90 26c0 0dd3 76bf 226c 90bf a472 babe
000000b0: a3d5 0d3f a67b 863e e485 1740 e50d dc3f
000000c0: b830 de3f ca1f 95bf 99ba c5bf 9517 c3bf
000000d0: 29f6 69bf 871c 28bf d4a7 623f 5181 5d3e
000000e0: b412 c53e 5b14 163f a1c6 68bf 7d56 eb3c
000000f0: aace b5be 3201 163e 00ba 36be 6531 2ebf
00000100: d5cb 003e 6097 fe3d e052 693e ec31 233f
00000110: e128 9f3d 5303 e93e 071b ccbe d05b 5c3f
00000120: 9a14 eb3e 6725 b7be eb5c 9a3f 1d8c 863f
00000130: 2805 953f 760e a6bf 327d c5bf e6ce e4bf
00000140: 6382 33bf 8f30 cdbd 87d4 9b3f 36ac 5d3f
00000150: b822 9940 a6ff fe3f 107d 78c0 d6d5 0fc0
00000160: c3d2 cec0 2b9c afc0 81ec b5c0 b0d7 2740
00000170: 68e8 9940 83d4 b240 922c 3c40 e2e0 9140
00000180: f652 06c0 a0be f5bf 146e 8fbf ec14 92bf
00000190: e621 123f 7755 f23f 707c 1240 cf0c 0340
000001a0: 141e 4340 4183 eabf 4d65 f7bf 3e4e 0ec0
000001b0: 3df1 21bf 3936 abbf ff42 313f 2f07 6b3f
000001c0: 0434 4940 9531 b23f 5336 0bc0 31b7 c1bf
000001d0: 9730 97c0 15f0 84c0 38b1 8dc0 b85a 2540
000001e0: 11b2 7540 c75d 8f40 c83c ab3f e0c9 5940
000001f0: 3ccb ffbf 4555 5fbf 07ca 713f 1dca 1a3f
00000200: 21ca dcbf 2cb1 0dbe 6bb1 9ebf 6aef b9bf
00000210: 3e24 cdbf d4b8 943e 8621 d73f f486 b33f
00000220: f1ac 693f 04de cc3e 7b33 7bbe 1258 36be
00000230: 9fb9 6d3e 77c8 183e 65bb 1dbf 80b2 1ebf
00000240: b4cf 283f 600b 9f3e 1a44 8c3e aa71 bebe
00000250: 0e42 3cbe 8b59 0abe 16fb 68be 8317 533f
00000260: 3f82 ec3e a91b 25bf 5b25 46bf a474 603e
00000270: 61b9 1d3e 166d 98be e301 f43f 89f9 993f
00000280: 4f3d 843f 3f87 7dbf 9075 9dbf 97ec 9ebf
00000290: 9aa7 ebbe 923f 77be b55d 7d3f 0ade 14bd
000002a0: 458e 933e 308e b8be 32bd adbe 448e cfbe
000002b0: 562e 733f db5f 523e 8965 5f3f 99c0 80bf
000002c0: a964 27bf 789d 4abf e228 3fbe 11af 783e
000002d0: bc22 823f a228 0dbf 4174 8840 3419 0040
000002e0: 69f2 4ac0 a79a 43c0 cc0d a6c0 7157 98c0
000002f0: 0ab2 9fc0 efbb 1d40 8979 6540 73d3 9c40
00000300: eea2 fb3f e044 8740 f920 ebbf 3ce3 bdbf
00000310: 2588 a740 e605 bd3f 5e62 1ec0 f21f 38c0
00000320: 57ab bac0 fdea b3c0 7d0f 87c0 d8ff 1540
00000330: f6fb 5140 cfd3 a340 744a 1940 e7e5 7140
00000340: 9c14 3dc0 d70d b9bf 4f2c 9e3f 9b91 8cbe
00000350: f685 20bf b1d9 e7be 1ea0 7fbf cceb 0ec0
00000360: 1185 a1bf 7714 fd3f f87b 8e3f 9805 fa3f
00000370: 8aee fd3e 683f ae3f 487c 53bf 9035 89bf
00000380: ecc5 65c0 3bd4 56bf 1041 f13f 4e18 7a3f
00000390: e9b6 d740 bf88 ad40 63b0 9f40 1ae0 70c0
000003a0: ec17 95c0 9fe2 b3c0 347a 0dc0 a1c3 44c0
000003b0: 45d7 3b40 69d3 873f c8f8 5f40 e917 bb3f
000003c0: 4450 eabf ad19 edbf 098d a5c0 ce35 93c0
000003d0: ebc5 a0c0 45ba 2840 958d 6f40 7122 8f40
000003e0: 99cc d33f c65d 5540 4e69 b7bf 28c6 b4bf
000003f0: 3dc4 8140 750f 8e3f 8dd2 32c0 7275 82bf
1.5829014 1.1947031 -0.8775059 -1.1106807 -2.4125173 -1.514306 -1.9494133 0.7361069
1.2399942 1.3644503 0.706876 1.6290394 -0.5774644 -0.22611527 2.6670933 2.0197728
-3.374731 -2.5491478 -3.464886 -3.504356 -4.5926533 1.0884612 3.3472826 3.373064
1.8139126 3.207246 0.37366807 -1.6940554 4.747888 2.817813 -3.2247386 -2.7793639
-6.2329726 -5.6036544 -5.512037 2.4248357 3.9105442 5.403652 3.0862703 3.9482715
-2.6025808 -0.9641579 -1.1283 -0.3641559 0.5540411 0.2626621 2.367547 1.719174
1.7358618 -1.1650326 -1.544757 -1.5241572 -0.91391236 -0.6566853 0.88537335 0.21631362
0.38490832 0.5862481 -0.90928084 0.028727764 -0.35509235 0.14648893 -0.17844391 -0.6804412
0.12577756 0.12431216 0.2278552 0.6374805 0.07771469 0.4551035 -0.3986437 0.86077595
0.45914155 -0.35770723 1.2059606 1.0511509 1.1642199 -1.2973163 -1.5428832 -1.787564
-0.7012083 -0.100190274 1.2174233 0.865909 4.785488 1.9921768 -3.8826332 -2.2474265
-6.4632277 -5.4878135 -5.68512 2.6225395 4.80962 5.5884414 2.9402204 4.5587015
-2.0988135 -1.9198799 -1.1205468 -1.1412635 0.57082975 1.8932332 2.288845 2.0476568
3.0487108 -1.8321306 -1.932779 -2.2235255 -0.63258725 -1.3375922 0.6924285 0.91807836
3.1437998 1.3921381 -2.1751907 -1.513403 -4.7246814 -4.154307 -4.427883 2.583662
3.8389933 4.4801974 1.3377924 3.4029465 -1.9983897 -0.87239486 0.94448894 0.6046465
-1.7249185 -0.13837117 -1.2397894 -1.4526188 -1.6026685 0.29047263 1.6807106 1.402556
0.9127951 0.40013134 -0.24531357 -0.17807034 0.2321534 0.14920221 -0.61614066 -0.6199112
0.6594193 0.31063366 0.27395707 -0.37196094 -0.18384573 -0.1351072 -0.22752032 0.8245775
0.4619312 -0.6449533 -0.7740075 0.21919495 0.15402748 -0.29770726 1.9063076 1.2029277
1.033121 -0.99034494 -1.2301502 -1.2415951 -0.46026307 -0.24145344 0.9897111 -0.036344565
0.2881948 -0.3604598 -0.33933407 -0.40538228 0.9499258 0.20544378 0.87264305 -1.0058776
-0.6538797 -0.7914653 -0.1866794 0.24285533 1.016685 -0.55140126 4.264191 2.0015383
-3.1710455 -3.0563142 -5.189184 -4.760674 -4.9904833 2.4645956 3.585543 4.9008117
1.9659097 4.2271576 -1.8369437 -1.4834971 5.235369 1.4767425 -2.4747539 -2.8769498
-5.8334155 -5.622435 -4.2206407 2.3437405 3.2810035 5.1196055 2.3951693 3.7796571
-2.954383 -1.4457349 1.2357272 -0.27454838 -0.6270441 -0.45283273 -0.99853694 -2.233142
-1.2618734 1.977187 1.1131582 1.9532957 0.49596053 1.36131 -0.82611513 -1.0719471
-3.5902052 -0.8391759 1.884798 0.97693336 6.741078 5.4229426 4.9902816 -3.763678
-4.65917 -5.6214137 -2.2105837 -3.0744402 2.935014 1.0611392 3.4995594 1.4616672
-1.8305745 -1.8523461 -5.173466 -4.600318 -5.02416 2.636369 3.7430165 4.4729543
1.6546813 3.3338485 -1.4329011 -1.4122972 4.055205 1.1098467 -2.794101 -1.0192091

s4 f4 [16, 12]
00000000: 713c 30bf d795 613d 3ed8 0bbf aa13 6fbe
00000010: 71d1 b8be 2f47 b13d 7e19 863e e84f d2be
00000020: 386b 7a3e d123 0c3f 4b66 453e 4b9f 613e
00000030: 676a 0a3f 5504 343e 9f80 98be e6c9 9bbe
00000040: 60e0 513e 9e09 f93e 2531 c03e 1af3 363e
00000050: 66c8 b5bd 6455 e9be fa0e b7ba 6460 0b3e
00000060: fdc9 ca3e c08a 23be 3013 103f 0026 a63c
00000070: af27 c03e dcdb 93be bce2 e5bd 260c 513e
00000080: abf2 163f fa53 7abd 5ba9 d23e c4b3 593f
00000090: fe24 9a3e 452a b7be c7a0 51be 31f8 1ebe
000000a0: 2901 813e 21e0 c6be 153e 213e 8c70 f93e
000000b0: 0aca 9ebe fff3 803e 3f59 02be d1c3 7cbe
000000c0: 43eb 02be e8db 7d3e 1144 d13e 3e75 6e3d
000000d0: c67a c6be df24 a4be 67c5 e93e ca6d 2ebf
000000e0: 3162 b8be c9b4 06bd c6f1 b6be f116 ef3d
000000f0: a21c 543e afc8 9ebe 2952 2c3e e7ad 593e
00000100: e365 9fbe a8fc e7be 8bf9 4d3e b679 45be
00000110: 72f5 1fbf 8d2c 3f3d 78f1 46bf d3d9 c73e
00000120: 2e2b f23d cb28 bbbd 0285 65be 5212 153e
00000130: b26b 143d 9ae8 91bc 0c78 f93e a84a ee3e
00000140: 0454 f4bd 5e8a 6ebe f74f 29be 22e6 ab3e
00000150: f7bb 713e 5d92 a4bc ec6a e5bb e69c 493e
00000160: 06fb a0be bfb6 623d bc05 e5be b798 a73e
00000170: b122 81be 1920 92be ee1d 68be c328 3a3e
00000180: 13bf 143e 24f7 383e 295e 6cbe 4d3d 55be
00000190: 96a3 aebe b405 14be 88c2 c73b 6fe6 873d
000001a0: d6e7 3f3e dc98 0b3d 28c5 ce3e da77 4a3e
000001b0: 8f72 00bf 52c9 1dbe 5fad a9be ea1d d13e
000001c0: 79da a8be 6503 2dbe 5949 8fbd ca00 1dbe
000001d0: 164c 513c e768 ee3e 5497 24be daa0 03bd
000001e0: d8bf 29bf 55af 22be 2452 253e b0be c23c
000001f0: d5e5 153f 00ea 1ebf a377 b23e 6f76 603e
00000200: bae1 293e 86c8 1fba e710 a33e 040c b9be
00000210: 2737 003f 769b 77bc 5a71 213e f8a4 dfbe
00000220: a919 033e 7c2b d4be 4a2f 503e 0fa1 413d
00000230: 967f ed3e 2fd7 64be 1c60 a83e a5b8 b13e
00000240: c97c 163d 1531 023f 6d9c a43e b97f 7d3e
00000250: 25e9 b73e 4603 86be 2038 b2be 8266 d5bd
00000260: 986b 993d f0d8 49bc c4d8 26bd f1a0 21be
00000270: a89f e0be 0390 a73d 9ab7 013f f548 bcbe
00000280: 9fb9 96bd 7e1c a93d 75bd 903e e7bf 7fbe
00000290: ffaf b0be a8c2 923e 79f4 d9be ce29 bfbd
000002a0: 1b1b 46bc e141 aa3e 8f67 b2bd efab d9bc
000002b0: 30e8 013e ed1d 31bb f316 c43e 93f2 25be
000002c0: 58f8 05be bb22 11bd 4564 cb3d 530d 3fbe
000002d0: 8110 8a3e 1a45 97be f551 18be 219f a03e
000002e0: 1027 88be e14a 1c3f 0b5f 843e ad56 c1be
000002f0: e147 8dbe a7c6 05bf de27 1bbf 69fd 5dbe
-0.68842226 0.05507454 -0.54626834 -0.23347345 -0.3609729 0.08656155 0.26191324 -0.4107659
0.24454963 0.5474215 0.19277303 0.22033422 0.5406861 0.17579778 -0.2978563 -0.30427474
0.20495749 0.4864015 0.37537494 0.17866173 -0.088761136 -0.4557296 -0.0013966255 0.13610989
0.3960723 -0.15970898 0.5627928 0.020281792 0.37530276 -0.28878677 -0.11224887 0.2041479
0.5896403 -0.061115243 0.41144833 0.85039926 0.30106348 -0.35774437 -0.20471488 -0.15524365
0.25196198 -0.38842872 0.15746339 0.4871868 -0.3101352 0.25186154 -0.12729357 -0.24684073
-0.12785058 0.24790919 0.40872243 0.05821728 -0.38765544 -0.3205938 0.4565842 -0.68136275
-0.36012414 -0.032887254 -0.35731333 0.116742976 0.20714048 -0.31012484 0.16828217 0.21257745
-0.3113242 -0.4530995 0.20114724 -0.1928471 -0.62483895 0.046673346 -0.777122 0.39033374
0.11824642 -0.0913864 -0.2241402 0.1455777 0.03623552 -0.017811108 0.487244 0.46541333
-0.11930087 -0.2329497 -0.1653441 0.33574015 0.23606859 -0.020089323 -0.0070012715 0.19688758
-0.31441516 0.05535006 -0.44730937 0.327337 -0.2522178 -0.28540114 -0.22667667 0.18179612
0.14526014 0.18063027 -0.23082794 -0.20824166 -0.3410918 -0.144553 0.006096188 0.066357486
0.18740782 0.034081325 0.40384793 0.19772282 -0.501748 -0.15408829 -0.33140084 0.40843135
-0.3297918 -0.16895826 -0.06996412 -0.15332332 0.012774488 0.4656441 -0.16073352 -0.032135822
-0.66308355 -0.15887196 0.16144615 0.023772568 0.5855382 -0.62075806 0.348569 0.21920179
0.16590014 -0.0006095249 0.31848833 -0.3614198 0.50084156 -0.015112748 0.15765896 -0.4368055
0.12802757 -0.41439426 0.2033054 0.047272738 0.46386403 -0.22347711 0.32885826 0.34711185
0.0367401 0.50856143 0.32150593 0.24755754 0.35920063 -0.26174372 -0.34808445 -0.104199424
0.07491225 -0.012319788 -0.040734068 -0.1578405 -0.43871808 0.08181765 0.5067078 -0.36774412
-0.07359623 0.082573876 0.28269544 -0.24975549 -0.34509274 0.28664136 -0.4256933 -0.093341455
-0.012091423 0.33253387 -0.087111585 -0.026571242 0.12686229 -0.0027025894 0.3829876 -0.16205816
-0.13083017 -0.035433512 0.09931234 -0.18657427 0.26965716 -0.29544908 -0.14875014 0.31371406
-0.26592302 0.61051756 0.25853762 -0.3776144 -0.27593902 -0.52256244 -0.6060771 -0.216787

no f4 [16]
00000000: 9848 df40 e2cf 8e40 c2ab 3d41 8f22 af40
00000010: c92c 9f40 ee59 9b40 4d57 3340 14cb 8640
00000020: a20f a940 d4da e440 83f1 9940 2535 2e41
00000030: d5a7 2c41 5088 9340 9e09 aa40 acd9 c840
6.9776115 4.4628763 11.854433 5.4729686 4.974217 4.8547277 2.8022034 4.21229
5.2831583 7.1517124 4.8107314 10.887975 10.790975 4.6103897 5.313674 6.2765713

ho f4 [12, 9]
00000000: 68a3 c43c cacd 06bf 45a5 91be c5d8 1c3c
00000010: 7819 983e 93d4 1abe e727 503e 3209 8ebd
00000020: d3ae 59bf 00aa 1cbc d865 10bd 529e 85be
00000030: c129 d0bd 3bba 16bf a761 8e3f c8b9 49bc
00000040: a23c 63be 7050 a23f 3b56 d8bc 1825 bf3e
00000050: 0487 06bf f4d5 d5be 01d1 043f 18f2 533e
00000060: 6009 463f cb4e b13e 1df3 403f dd8f a4be
00000070: 806b dcbb 6702 4b3e 3e60 6f3e 5316 52be
00000080: e58f c43e b23c eabc 00a5 903e e037 09bf
00000090: 2ee2 4ebe a01f d1bc f3ed ef3e dbb6 02bf
000000a0: 9ffa a83f 9899 98be ef9b 0abf 61c6 0b3f
000000b0: 2349 fdbd b0b0 e03d 0aa7 d43e 09b4 333e
000000c0: 6fb8 0ebe bc00 0a3b 3122 083f dd55 cb3e
000000d0: 0c8b bcbe 60ce 34c0 e06b 143c e271 fa3e
000000e0: 6620 adbe 6a3e 803e dae3 d3bd 2189 d8be
000000f0: 5e7e 8dbe f6a9 a2bf 7e0f f6bd 066e c33d
00000100: 3683 bcbe 2b38 95bd 6861 89bd 0baf b93f
00000110: 9fef 1fbe 83e7 f1be 0bc5 223e 8aaf bcbe
00000120: a178 99be a063 f8bc 367e 6b3e 70cd ed3c
00000130: e21e 693f 0ec1 9f3e f62f 01bf 72f7 d2bd
00000140: 419f ac3d 86d8 763e 905a e2be 008e 2abe
00000150: aec9 6ebe ceb2 05bf 1130 17bf dc87 6abe
00000160: b8f8 ad3e 14bb b33e 59e0 db3e c0e7 b73d
00000170: cc5b 963e 4cbe 97be c259 883f b0a2 2cbf
00000180: 0def 12bf a843 213f a4fa 65be c29f 003d
00000190: 00ae 593e e161 13be 0ba1 ad3d 97e4 0441
000001a0: 4667 27be 867a bebe 1bc1 4a3f 85be 783d
0.0240037 -0.5265776 -0.28446403 0.009573166 0.2970693 -0.15120153 0.20327722 -0.069353476
-0.85032386 -0.0095620155 -0.035253376 -0.2609735 -0.10164214 -0.58877915 1.1123551 -0.01231236
-0.22191098 1.2680798 -0.026408305 0.37332988 -0.5254977 -0.41764796 0.51881415 0.2069782
0.77358055 0.34630427 0.7537096 -0.3214101 -0.006726682 0.19825135 0.23376557 -0.20516329
0.38391033 -0.028593395 0.28250885 -0.53600883 -0.20203468 -0.025527775 0.46861228 -0.51060265
1.3201483 -0.29804683 -0.54144186 0.5459958 -0.12367465 0.109712005 0.4153369 0.17549147
-0.13937543 0.0021057567 0.5317717 0.39713946 -0.36824834 -2.8250961 0.0090589225 0.4891501
-0.3381378 0.25047618 -0.103461936 -0.4229212 -0.27635473 -1.2708118 -0.12014674 0.0954247
-0.36818856 -0.07286104 -0.06708032 1.4506544 -0.15618752 -0.47246942 0.15895478 -0.36852676
-0.29974845 -0.030320942 0.22997364 0.029028624 0.9106275 0.31201977 -0.5046381 -0.10301103
0.08428813 0.24106035 -0.4420972 -0.16655731 -0.23319122 -0.5222596 -0.5905772 -0.22903389
0.3397882 0.35103667 0.429446 0.0897975 0.2936691 -0.29637372 1.0652392 -0.6743574
-0.5739601 0.6299386 -0.22458893 0.031402357 0.21257782 -0.14392807 0.08477982 8.305808
-0.1634799 -0.37202853 0.79200906 0.06072857

6e f4 [16]
00000000: 0000 803f 0000 803f 0000 803f 0000 803f
00000010: 0000 803f 0000 803f 0000 803f 0000 803f
00000020: 0000 803f 0000 803f 0000 803f 0000 803f
00000030: 0000 803f 0000 803f 0000 803f 0000 803f
1.0 1.0 1.0 1.0 1.0 1.0 1.0 1.0
1.0 1.0 1.0 1.0 1.0 1.0 1.0 1.0

d7 f4 [16, 16]
00000000: e954 693e 0d3d 8d3e 5735 af3e 5a3e ca3e
00000010: 0800 883e 9435 48be 5c4c fe3d 594b 2b3e
00000020: 13f8 28be f268 ccbe f5cd 15bd 1d3e f9bd
00000030: ace2 8fbe ecc9 e23e 4cb2 733e a8f9 7c3f
00000040: 64a8 84be 42fc d5be 235c 46be b85b dbbe
00000050: a6d1 1cbe b108 98be 925c 29bd f79f aa3b
00000060: 4355 b8be cd6a 44be 55f8 e9be adba b3be
00000070: a439 043f 8a48 b4bd 9d06 54be a785 ccbd
00000080: e6a9 9dbd db86 a7be f4dc 3f3f 1982 363c
00000090: 59cf 9c3e 6913 03be 47fd cd3e d44c c53d
000000a0: 29d9 073e d2a8 283e bef9 6d3b 44bf 9e3e
000000b0: f933 8cbe ac1c 3ebb f858 24be 1340 d7bc
000000c0: e293 9a3e 621c f8bd 5de8 913e a1e7 e23e
000000d0: aede 723e f697 bb3e 750c 133d 5381 113e
000000e0: bff0 7fbe 77c8 3bbe c110 b8be 214f 0fbf
000000f0: 5ef4 fb3d 39cc 35be 9cc1 17be 0169 f23e
00000100: 01f8 003f 1f92 0ebf d309 d4bd 5ee2 66be
00000110: 3525 6a3d cd89 c0be df25 573e fe17 22be
00000120: d7d6 933e e15a cfbd 6080 fa3e f9a5 8b3d
00000130: fcc9 993e ab23 573e bcc8 07bd cedb b5bc
00000140: 68ff 89bc 1fa5 4a3e 7c95 73bd e067 f53e
00000150: 0792 b53e ee59 a63d 2993 1b3e 5a60 b4be
00000160: 6ed5 193c e7d8 5fbe b4d5 e0be a493 66be
00000170: ae93 fa3e db75 8a3e c085 34be 5527 7bbe
00000180: 7d6f ffbe 9b32 edbc 8c92 163e 9081 6e3e
00000190: 83cc b33e d689 f73e 0f6f 6f3c e8ed c43e
000001a0: 000a 4f3c fa78 e53d fb6c fcbe 8489 7f3e
000001b0: 69f5 cd3e 8e23 35be 3b2b 23bf a20a 30bd
000001c0: d4d0 f5be e1a4 a5bd 4aee 893e e42a 2dbf
000001d0: 638e 363d 4949 16be ddc7 aebe 6afa b6be
000001e0: 41f3 39bf 3dc2 bbbe 235b e53e 324f 71bd
000001f0: 7309 eb3d 453d b6be fac8 41be 0e80 2a3c
00000200: c820 af3e 5893 01bf d395 c03d c2fc 423d
00000210: 5f54 d43e 4ee0 5ebe c195 fc3d 4eb9 573d
00000220: be7e cc3e b620 e83e 1b64 c13e e0a2 b23c
00000230: 4299 4c3e c352 b7be 25f7 9e3e 5ee7 b1bd
00000240: c18e f33e 6309 b13e 68ec 0bbe 69d6 72be
00000250: 260d e23e 9fb2 afbe 9f5b da3d 4085 23bd
00000260: 1fe3 433d b3cb 8f3e a632 16be ad4c 623e
00000270: 9dde ff3e 19e4 06bf 6eaa 2cbf 2e8c 8e3d
00000280: ac14 a83b 3e4d 063f ee45 bfbd c448 02be
00000290: 4f0b 16be 3c45 25be 814d 903e 0ef1 02bf
000002a0: 5e85 08bd f4b4 ce3e 26c5 573e 46e7 f33d
000002b0: 36e3 2fbd a38b 67be 552a 3e3e 9976 13be
000002c0: a7a7 9ebe e140 1bbf fb99 bb3e 9a05 a03e
000002d0: 4591 abbe 8b15 93be 70a8 09be dd23 c6be
000002e0: f532 7cbd dbe1 023e 4ee5 8cbe a2fc 353f
000002f0: bfe2 1fbe dd65 b9bd 6db5 473c eb85 66be
00000300: 9e24 0bbe dfd1 983e b7ad 37bd 33f3 c73e
00000310: a879 e9be 8c0f 0fbe 60b5 3fbe f32a 183f
00000320: d5e3 9b3e 81b9 c9be 2f07 1fbe 3a7d 803e
00000330: 368d 8d3d 4eef 11bf b10e 57bd bef6 613e
00000340: c3df 083f 51e6 a2be 87b4 bf3e 475a aa3e
00000350: fab0 ecbd 881d ecbd 9f72 19be a798 d93d
00000360: 3afb 203e 392f f6bd 717c 9cbe c4ad 5ebe
00000370: 3fca e3bd 4463 edbe 7372 a6be 5519 003e
00000380: 434f ebbe fc2d 5e3d 5bf3 a1be cf03 03be
00000390: 3747 a2bb 14db 52bd 2307 513f b0b6 5abe
000003a0: 68e7 fbbd bfb4 cc3e 803a 81be 7f5a 81be
000003b0: 397d f73d 389d 8abe 32ec 293e 8e81 c93e
000003c0: a68a a33e 3bf8 c6bd 2cf4 9e3e 9a93 0bbe
000003d0: 6907 10bf 48b3 8d3e 6490 92bd 4ca4 e53d
000003e0: c818 983d c7d9 913d 3731 05bf aa93 313e
000003f0: 49f9 f1bd dca2 843d e19c d1be 3900 893e
0.22786297 0.2758564 0.34220383 0.39500695 0.26562524 -0.19551688 0.12416908 0.16727962
-0.16500883 -0.39923817 -0.03657337 -0.1217005 -0.28102624 0.4429468 0.23798484 0.98818445
-0.25909722 -0.4179402 -0.19371085 -0.42843413 -0.1531435 -0.2969413 -0.041348048 0.0052070576
-0.3600255 -0.19181366 -0.45697275 -0.3510336 0.5165045 -0.08802898 -0.20705648 -0.0998643
-0.07698421 -0.32720074 0.7494652 0.011139416 0.30626944 -0.12800373 0.40232298 0.096337944
0.13266434 0.1647065 0.0036312188 0.310053 -0.27383402 -0.002900879 -0.16049564 -0.02627567
0.3019095 -0.121147886 0.28497592 0.44317344 0.23717758 0.36639374 0.03590055 0.1420949
-0.24994181 -0.1833819 -0.35950282 -0.55980116 0.12302469 -0.17753686 -0.1481995 0.47345737
0.50378424 -0.55691713 -0.10353436 -0.2254729 0.05716439 -0.37605134 0.2101054 -0.15829465
0.28874847 -0.10124756 0.48926067 0.06818766 0.30036914 0.210097 -0.03315042 -0.022199538
-0.01684542 0.19789551 -0.05946873 0.47930813 0.35462973 0.081226215 0.15192856 -0.3522976
0.0093892645 -0.21860085 -0.43913043 -0.22517258 0.48940796 0.27043042 -0.17629147 -0.24526723
-0.49889746 -0.028954795 0.1470434 0.23291612 0.35116968 0.48347348 0.014613881 0.38462758
0.0126366615 0.11204715 -0.49301895 0.24954802 0.40226296 -0.17689344 -0.6373784 -0.04297889
-0.48010886 -0.08088089 0.26939613 -0.6764357 0.044569384 -0.14676394 -0.3413686 -0.35737926
-0.726368 -0.3667163 0.44796094 -0.058913417 0.11476412 -0.3559362 -0.18924323 0.010406507
0.34204698 -0.50615454 0.09403577 0.04760433 0.4147062 -0.21765253 0.12333251 0.052666955
0.39940447 0.45337456 0.37771687 0.02180618 0.19980338 -0.3580533 0.3104793 -0.08686708
0.4756985 0.34577474 -0.136644 -0.23714603 0.44150656 -0.34315965 0.106620066 -0.039922
0.04782402 0.28085098 -0.14667758 0.22099562 0.49974528 -0.526918 -0.67447555 0.06960331
0.0051294174 0.5246161 -0.0933951 -0.1272307 -0.14652751 -0.16139692 0.2818413 -0.5114907
-0.033330314 0.4037243 0.210713 0.11909346 -0.042941295 -0.22611861 0.18570836 -0.1440071
-0.30987284 -0.6064587 0.36640915 0.31254274 -0.3350927 -0.28727373 -0.1344316 -0.38699237
-0.061572034 0.1278147 -0.27518696 0.7108861 -0.1561384 -0.09052632 0.012189251 -0.22512023
-0.13588187 0.2984762 -0.0448434 0.39052734 -0.4560063 -0.13970774 -0.18721533 0.59440535
0.3044726 -0.3939934 -0.15530084 0.2509554 0.069116995 -0.57005775 -0.052504245 0.22066781
0.53466433 -0.31816342 0.3744242 0.33272 -0.11557193 -0.1152907 -0.1498513 0.10624819
0.15720835 -0.12020726 -0.3056369 -0.21745974 -0.1112256 -0.46364796 -0.32509193 0.12509663
-0.4595891 0.054243073 -0.31630978 -0.12794422 -0.004952337 -0.05147846 0.81651515 -0.21358752
-0.122999966 0.39981648 -0.25239944 -0.25264356 0.12084431 -0.27073073 0.16594008 0.39356655
0.31941718 -0.09715315 0.31045663 -0.13630524 -0.56261307 0.27675843 -0.071564466 0.11212978
0.07426602 0.07121616 -0.5202822 0.17341486 -0.118151255 0.064763755 -0.40940002 0.26757982

3w f4 [12]
00000000: ed1f 9e3e e10c 04be 7846 793e 1aa8 ec3d
00000010: 189d d53d c313 c73e 88c1 f0be 50c3 113e
00000020: d6f5 afbd 9845 dc3d a463 2f3e 900b dcbe
0.30883732 -0.12895538 0.24343288 0.115555 0.10430354 0.38882264 -0.47022653 0.14234662
-0.08591811 0.107554615 0.17127854 -0.4297757

hc f4 [12]
00000000: 8dc1 6b36 a53e abb8 3ac0 c0b7 fc23 9d38
00000010: 0c93 4cb7 7424 e0b5 3160 1037 985c 5137
00000020: 3ada b7b7 5abf e8b7 521c 46b7 f9bf a437
3.513039e-06 -8.165584e-05 -2.2977696e-05 7.493046e-05 -1.2193585e-05 -1.669991e-06 8.605465e-06 1.2478929e-05
-2.191692e-05 -2.774566e-05 -1.18083135e-05 1.9639718e-05

d3 f4 [9]
00000000: 7879 a23d 0000 0000 93ee 003d ccf0 71be
00000010: 08ed ce3e 83d7 443e 169a 923e 831c 8dbe
00000020: 2099 90be
0.079333246 0.0 0.031477522 -0.23627013 0.40415215 0.19222836 0.28633183 -0.27560815
-0.28241825

z8 f4 [16]
00000000: 6c0e 2437 5147 9fb7 229b d5b7 e558 b3b5
00000010: 9c0f 1938 cc26 8737 0ec6 6836 2709 88b7
00000020: ea8c d535 c44a c536 1268 7b37 a8af 2336
00000030: 9b2b 2938 e05e 43b7 a6b9 9736 4513 2938
9.77852e-06 -1.8987486e-05 -2.5463818e-05 -1.3362411e-06 3.649258e-05 1.611132e-05 3.4685977e-06 -1.6216725e-05
1.5910748e-06 5.8797614e-06 1.4984997e-05 2.4391138e-06 4.033335e-05 -1.16449955e-05 4.521763e-06 4.0310686e-05

2y f4 [4, 1]
00000000: 5a94 483f a580 3abc 1e46 c140 7253 c73e
0.78351367 -0.01138321 6.039809 0.3893085

i8 f4 [12]
00000000: 0000 803f 0000 803f 0000 803f 0000 803f
00000010: 0000 803f 0000 803f 0000 803f 0000 803f
00000020: 0000 803f 0000 803f 0000 803f 0000 803f
1.0 1.0 1.0 1.0 1.0 1.0 1.0 1.0
1.0 1.0 1.0 1.0

qk f4 [12]
00000000: 0000 0080 0000 0080 0000 0000 0000 0080
00000010: 0000 0080 0000 0080 0000 0000 0000 0080
00000020: 0000 0080 0000 0080 0000 0080 0000 0000
-0.0 -0.0 0.0 -0.0 -0.0 -0.0 0.0 -0.0
-0.0 -0.0 -0.0 0.0

8u f4 [16]
00000000: e488 54b6 8ffe bdb7 720c 90b8 6664 1db9
00000010: 30bf fb37 c7d6 89b7 1dab 6cb9 9ab0 64b8
00000020: 6a4a c336 9e08 3bb9 6fbf 6039 1645 69b8
00000030: 2267 9fb8 132e 82b8 912e 81b8 5158 aeb8
-3.1670143e-06 -2.2649094e-05 -6.868773e-05 -0.00015010088 3.001056e-05 -1.6431686e-05 -0.00022570459 -5.452391e-05
5.820116e-06 -0.0001783692 0.00021433619 -5.561587e-05 -7.600921e-05 -6.207465e-05 -6.159873e-05 -8.313417e-05

f4 f4 [14, 8]
00000000: 30e6 583e f612 ad3e 9f46 22be 8411 183f
00000010: 0713 ac3d eec9 c23e 313d 0b3f 7885 043f
00000020: 641d 03bf 5040 9a3d 3f8b 45be 7f78 84be
00000030: 8d0b fe3e 0fbc 473f a341 b53e d4b2 a63d
00000040: b7f2 ee3d e917 9fbe 975a 59be ed1c 3aba
00000050: 6d77 db3e bb64 bd3e 6fbf 5e3e 61d4 31be
00000060: 1ff5 08bf 6ce9 80be c841 e1bd 5be6 87ba
00000070: 3db7 623e 4252 d33e ff0f c33e 75cf f13e
00000080: b1f9 b7bc 29cd 2cbe fffc c8bc 6898 ec3e
00000090: ed89 d3bd f7f6 cd3e 3dcf 093f 6148 443e
000000a0: 4d92 d63e 2deb af3e 5848 36bd aa05 39be
000000b0: bbf2 bb3e bfcc 063e e5b8 693e 28c2 6f3e
000000c0: 3dd0 5a3e 2f89 b03e 8ddf d03e b64f 43be
000000d0: 0333 e23e ae5e 933e 3ac0 07be 6dc7 d3be
000000e0: cda3 e93e 82dc 093f f600 8f3e fd8f f7be
000000f0: 61d3 04bd fa5a f0bd cef1 a03d 0b64 e03e
00000100: f6c6 9d3e 6294 853e 1b40 e2bd 6524 b73e
00000110: cac1 b03b 93e3 1d3f 4a5e 14be 2955 f9be
00000120: 79a2 563d 3ede 753c 2845 733e bac1 6dbe
00000130: b620 473f dd61 393e 3af6 353f 1567 3cbe
00000140: 1b2a 193f dfa5 aebd 85de 063e 3fa2 bbbd
00000150: e922 443e ec92 2bbe 54ac 38be 4059 533d
00000160: 3627 93bd 7456 12bf 3b7b e93e 8ef8 1f3e
00000170: 88d7 7c3d fcfe 993d 5e84 c73d fd59 253b
00000180: d036 d23e dd0b 983e 9473 e63e ff15 ba3d
00000190: 81ce c73e ac3c 92bd 3940 803e 2462 c63c
000001a0: 9890 153f cfcf 393d ae03 6e3e a878 243d
000001b0: cad2 48be 1ce7 8bbe f2c3 6a3e 6dee 6fbd
0.2118156 0.3380353 -0.15847252 0.59401727 0.08402067 0.38044685 0.54390246 0.5176616
-0.5121672 0.07531798 -0.192914 -0.2587318 0.49618188 0.7802133 0.3540164 0.081395775
0.11667388 -0.3107293 -0.21225964 -0.0007099647 0.42864552 0.36990914 0.21752714 -0.17366172
-0.53499025 -0.25178087 -0.10998875 -0.0010368334 0.22140212 0.41273695 0.38098142 0.4722859
-0.02245793 -0.16875137 -0.0245347 0.46210027 -0.10329042 0.40227482 0.53831846 0.19168235
0.41908494 0.34359112 -0.044502586 -0.18068567 0.36708626 0.13164042 0.22824438 0.23413908
0.21368499 0.34479663 0.40795556 -0.19073376 0.44179544 0.28783172 -0.13256922 -0.41363087
0.45632783 0.53852093 0.2793042 -0.48352042 -0.03242815 -0.117361024 0.078586206 0.43826327
0.30815858 0.2608977 -0.110473834 0.35769954 0.005394195 0.61675376 -0.14489093 -0.48697785
0.05240104 0.0150066 0.2375685 -0.23218432 0.7778429 0.18103738 0.71078837 -0.18398698
0.5982987 -0.08527731 0.13170822 -0.09161805 0.19153942 -0.16755265 -0.18034488 0.051598787
-0.07185213 -0.57163167 0.4560183 0.1562216 0.061728984 0.075193375 0.09742044 0.002523064
0.41057444 0.2969655 0.45010054 0.09086227 0.39024737 -0.071404785 0.25048998 0.024216719
0.5842376 0.045364197 0.23243591 0.04015413 -0.1961166 -0.2732476 0.2292631 -0.05857699

pt f4 [16]
00000000: 0000 0080 0000 0000 0000 0080 0000 0000
00000010: 0000 0080 0000 0080 0000 0000 0000 0000
00000020: 0000 0080 0000 0000 0000 0080 0000 0080
00000030: 0000 0000 0000 0080 0000 0080 0000 0000
-0.0 0.0 -0.0 0.0 -0.0 -0.0 0.0 0.0
-0.0 0.0 -0.0 -0.0 0.0 -0.0 -0.0 0.0

dq f4 [8, 16]
00000000: 627d e0bc 5657 ccbd 33ef c23d f997 933e
00000010: 0412 00bf 9c77 84be 66a7 d33e e601 cb3c
00000020: 125c e13d c4c1 b7be 9978 ad3e 39e1 ba3e
00000030: c2b6 23bf 3931 6e3e bedb e93d 45a8 0a3e
00000040: c7f7 01bd 61cb 3d3e 75ec 7dbe dd2a 4abe
00000050: 4b2c aabe 249f 233e c576 bebc cc1e 07bf
00000060: 447d 9bbe 54b7 eb3e 1a5f 333e cef5 883c
00000070: 6d85 abbe 23b4 c5bd 5ae5 35be 6e7b cb3e
00000080: a771 a73e 4c14 063f 4b0c f7be f84b cd3e
00000090: 31c2 8abe 1f67 ddbd 627d dc3e 5141 113f
000000a0: 7afc f0be 3469 843e ac82 943e e468 93be
000000b0: 6ea6 3fbe 8561 19bf 8829 583e 55cf da3d
000000c0: dce3 e5be 74a5 a83e 49de 5abe 2cb6 17bb
000000d0: 8f27 18bd 5746 e1be 3056 1e3f f483 bc3d
000000e0: f046 043d 7851 ee3d 30b7 14bf 8add 5fbe
000000f0: 8e7b 7dbc 6a21 83be 43f7 07bf 4d3d 1fbd
00000100: 08b2 23be 49ed 90be 0343 c0bb aa3d 73be
00000110: 554d 1d3d 07a1 973c 0776 a7be 653e 113f
00000120: 8f76 ca3d 61ef 5ebe f685 30bd 3dc8 093e
00000130: ca30 edbe f6c1 d5be 00d9 eb3e e614 c43d
00000140: 3f12 d5be 8993 23be d048 aebe c718 dbbe
00000150: affb cb3e b764 12bf aa89 06bf 27f1 0e3f
00000160: 5ba4 a43e 0a80 993e e611 db3e 5bbf 5c3d
00000170: ff57 f93c e4e5 2e3c 74a4 26be 4592 0a3f
00000180: ee94 493e 2ad1 ab3e d442 d73e 5f49 b6be
00000190: 4fca 86be 8bae 60be 6887 653e c96e 163e
000001a0: 2e1d 35be 0209 b93e 0826 4cbe 5bc5 093f
000001b0: cd84 c53e 8431 c7bc b7cf d7be 6efb c13e
000001c0: 4525 323e ddcb f13c 17a8 c3be e6fd 50be
000001d0: ce2a 3b3e 6fe4 043f 1a80 01bd b3d9 d2be
000001e0: 1b35 323e 95d3 b3be 4bb8 9e3d 12f3 19bf
000001f0: a088 e4be 66ff 65be e998 4b3e ba08 a63e
-0.027403537 -0.099775955 0.0951828 0.28826883 -0.5002749 -0.25872505 0.41338652 0.024781179
0.11003889 -0.3589002 0.3388107 0.36499956 -0.6395074 0.23260964 0.114188656 0.13540752
-0.03173044 0.18534614 -0.24797232 -0.19742914 -0.33236918 0.15978676 -0.023249993 -0.5278137
-0.30369008 0.46038306 0.17516747 0.016718771 -0.33500233 -0.09653499 -0.17763272 0.39742607
0.32703897 0.5237472 -0.48251566 0.40097022 -0.2710128 -0.108106844 0.4306441 0.5674029
-0.47067624 0.25861514 0.29005945 -0.28790963 -0.18715832 -0.5991443 0.21109593 0.10684077
-0.44900405 0.3293873 -0.21373858 -0.0023149354 -0.0371471 -0.43998978 0.6185026 0.092048556
0.032294214 0.11636633 -0.5809202 -0.21861854 -0.015471352 -0.2561143 -0.53111666 -0.03887682
-0.15985882 -0.28306034 -0.0058673634 -0.23753992 0.038403828 0.018509401 -0.32707235 0.5673583
0.098858945 -0.21771003 -0.043096505 0.13455291 -0.46326286 -0.41749543 0.46063995 0.095742986
-0.41615483 -0.15974249 -0.34039927 -0.4279234 0.39840457 -0.5718493 -0.5255381 0.5583672
0.32156643 0.299805 0.42787093 0.05389343 0.030437468 0.010674927 -0.16273671 0.5412944
0.19685718 0.33558017 0.42043173 -0.35602853 -0.26326224 -0.21941583 0.22414935 0.14690699
-0.17686912 0.36139685 -0.19936383 0.53816766 0.3857788 -0.024315603 -0.4215066 0.37887138
0.1739703 0.029516155 -0.3821418 -0.20409355 0.18278047 0.5191106 -0.031616308 -0.41181716
0.1740307 -0.35122362 0.07749995 -0.6013652 -0.44635487 -0.22460708 0.1988255 0.32428533
