OpenUtau.Core/Classic/Data/mel.onnx (onnx, 85404 bytes, 7 tensors)

a f4 [1, 1, 128]
000000 78 9c ea 3f 1d ae fc 3f 6b 26 2d 40 28 fe 43 40
       1.8329 1.9740635 2.7054698 3.0623875
000010 69 62 8b 40 f9 60 9d 40 37 f1 b2 40 b2 ce ba 40
       4.355763 4.9180875 5.591945 5.8377314
000020 17 33 c9 40 09 86 d6 40 bf 58 de 40 58 e7 e3 40
       6.2874866 6.7038617 6.9483333 7.12199
000030 e3 ec ef 40 1a 6f 03 41 34 cd 04 41 56 a3 07 41
       7.497667 8.214624 8.300098 8.477377
000040 4b 32 0b 41 ea f7 0e 41 f7 01 0f 41 30 3e 0f 41
       8.699779 8.935526 8.93798 8.9526825
000050 48 46 11 41 52 b2 11 41 bd 5e 13 41 ea db 12 41
       9.0796585 9.106035 9.210629 9.17869
000060 38 57 14 41 c1 53 14 41 71 df 14 41 09 a4 14 41
       9.271294 9.270448 9.304551 9.290048
000070 e9 53 15 41 76 d5 14 41 34 d2 15 41 06 3f 15 41
       9.332986 9.3021145 9.363819 9.327887
000080 3d d2 15 41 e7 6b 15 41 2d 21 15 41 74 f6 15 41
       9.363828 9.338843 9.3206 9.372669
000090 00 d7 15 41 8a c7 15 41 83 39 16 41 34 2c 16 41
       9.36499 9.361216 9.389041 9.385792
0000a0 20 34 16 41 28 48 16 41 1b b4 16 41 54 d9 16 41
       9.387726 9.392616 9.418971 9.428059
0000b0 26 59 16 41 b8 b6 16 41 0f 46 16 41 d2 12 16 41
       9.396765 9.419609 9.392104 9.379595
0000c0 ba f0 16 41 49 2e 16 41 f6 bc 16 41 4d 22 17 41
       9.433771 9.3863 9.421133 9.445874
0000d0 0a 5c 16 41 14 68 17 41 27 f1 15 41 b6 3e 17 41
       9.39747 9.46291 9.371375 9.45281
0000e0 ce a0 16 41 70 f2 15 41 9f 3d 17 41 cc f8 16 41
       9.414259 9.371689 9.452544 9.435741
0000f0 ec 0d 17 41 20 21 17 41 12 fd 16 41 c5 1d 17 41
       9.440899 9.445587 9.436785 9.444768
000100 70 f6 16 41 53 56 17 41 0c b5 16 41 52 43 17 41
       9.435165 9.458575 9.419201 9.453936
000110 74 27 17 41 42 ca 16 41 fc 87 17 41 11 a7 16 41
       9.447132 9.424379 9.470699 9.415788
000120 f4 cd 17 41 48 e5 16 41 9b 75 17 41 70 c3 16 41
       9.487782 9.430977 9.466212 9.422714
000130 55 70 17 41 93 de 16 41 dc 46 17 41 ce 3c 17 41
       9.464925 9.429339 9.4548 9.452345
000140 be bf 16 41 5c bc 17 41 a1 8f 16 41 7e af 17 41
       9.421812 9.483486 9.410066 9.480345
000150 f9 72 17 41 11 50 16 41 a0 9f 17 41 c3 33 17 41
       9.4655695 9.394547 9.476471 9.450137
000160 0d 7c 15 41 d4 dc 18 41 69 02 13 41 fa 8f 18 41
       9.342786 9.553913 9.188088 9.535151
000170 ea c0 1e 41 ec ee 8b 41 00 00 00 00 00 00 00 00
       9.922098 17.491661 0.0 0.0
000180 00 00 00 00 00 00 00 00 00 00 00 00 00 00 00 00
       0.0 0.0 0.0 0.0
000190 00 00 00 00 00 00 00 00 00 00 00 00 00 00 00 00
       0.0 0.0 0.0 0.0
0001a0 00 00 00 00 00 00 00 00 00 00 00 00 00 00 00 00
       0.0 0.0 0.0 0.0
0001b0 00 00 00 00 00 00 00 00 00 00 00 00 00 00 00 00
       0.0 0.0 0.0 0.0
0001c0 00 00 00 00 00 00 00 00 00 00 00 00 00 00 00 00
       0.0 0.0 0.0 0.0
0001d0 00 00 00 00 00 00 00 00 00 00 00 00 00 00 00 00
       0.0 0.0 0.0 0.0
0001e0 00 00 00 00 00 00 00 00 00 00 00 00 00 00 00 00
       0.0 0.0 0.0 0.0
0001f0 00 00 00 00 00 00 00 00 00 00 00 00 00 00 00 00
       0.0 0.0 0.0 0.0

b f4 [1, 1, 128]
000000 e4 6e 06 41 fa 81 9f 40 8e a2 ca 40 66 6d d8 40
       8.402073 4.9846163 6.332343 6.7633543
000010 dc dc 95 40 13 b4 a0 40 56 5e 8d 40 fc 51 8b 40
       4.6832104 5.0219817 4.4177656 4.353758
000020 8a 15 72 40 76 43 67 40 2e 11 4c 40 70 26 38 40
       3.7825646 3.6134925 3.1885486 2.877346
000030 dc 5c 25 40 71 35 0c 40 fa 1b f3 3f 19 8b c5 3f
       2.5837927 2.1907618 1.8992913 1.5433074
000040 bb 0f a6 3f 55 0a 86 3f 16 84 75 3f d3 11 81 3f
       1.297355 1.0471903 0.9590467 1.0083565
000050 ee 42 79 3f bc b8 87 3f cc 9f 80 3f 50 93 86 3f
       0.9736775 1.0603251 1.0048766 1.0513706
000060 e0 5a 7e 3f ce 7a 39 3f f7 b0 10 3f 3e 7f 31 bd
       0.99357414 0.7245301 0.56520027 -0.04333424
000070 2c 47 3b bf 16 76 0d bf 3b 11 5f bf 53 a8 6a bf
       -0.73155475 -0.5525831 -0.87135667 -0.9166309
000080 27 0f 25 bf a1 32 01 bf 7f dd 3a bf 7f 02 53 bf
       -0.64476246 -0.5046788 -0.72994226 -0.82425684
000090 33 d8 89 bf cf 67 60 bf 93 38 51 bf e1 ea 4c bf
       -1.0769104 -0.876584 -0.8172695 -0.80045897
0000a0 f7 bb 59 bf 29 88 58 bf c5 5a 44 bf 99 b5 75 bf
       -0.85052437 -0.84582764 -0.76701003 -0.9598022
0000b0 eb 4e 76 bf 20 51 85 bf 75 be 7c bf 44 d5 53 bf
       -0.9621417 -1.0415382 -0.98728114 -0.8274729
0000c0 ac a8 67 bf c9 ff 6a bf ac a9 57 bf d2 99 8f bf
       -0.9049175 -0.9179655 -0.84243274 -1.1218817
0000d0 fb 9c 97 bf 0a c8 6c bf 5e a3 90 bf 9a 99 8b bf
       -1.1844782 -0.92492735 -1.1299856 -1.090625
0000e0 2a da 77 bf 5f fc 63 bf f6 5d 4c bf 94 cd 66 bf
       -0.96817267 -0.8905696 -0.79830873 -0.9015744
0000f0 d8 a3 5a bf a7 a8 5b bf 81 b2 62 bf 8b 09 53 bf
       -0.85406256 -0.8580422 -0.88553625 -0.82436436
000100 d5 1c 3e bf 8d e3 14 bf 77 e7 53 bf 07 de 37 bf
       -0.74262744 -0.58159715 -0.8277506 -0.7182316
000110 86 60 61 bf 02 f9 2f bf 5d 3a 4a bf d5 82 41 bf
       -0.8803791 -0.6873933 -0.78995305 -0.7559026
000120 59 53 88 bf 43 e3 8a bf 28 66 9f bf cc 06 84 bf
       -1.0650436 -1.0850605 -1.2453051 -1.0314574
000130 91 d3 80 bf e7 54 86 bf 74 61 89 bf 10 8e 95 bf
       -1.0064565 -1.049466 -1.0732865 -1.1683979
000140 9a 69 81 bf 4e 91 9a bf 70 7c 97 bf 38 e2 b4 bf
       -1.0110352 -1.2075593 -1.183485 -1.4131536
000150 48 bf c0 bf 01 24 d6 bf 16 9d d0 bf ff 12 ab bf
       -1.5058374 -1.6729738 -1.6297939 -1.3365172
000160 13 5e e4 bf 34 2d dd bf a5 d6 ad bf 7b e1 e8 bf
       -1.7841209 -1.727942 -1.3581129 -1.8193811
000170 9d fe c9 bf 05 23 ca bd 00 00 00 00 00 00 00 00
       -1.5780827 -0.09869961 0.0 0.0
000180 00 00 00 00 00 00 00 00 00 00 00 00 00 00 00 00
       0.0 0.0 0.0 0.0
000190 00 00 00 00 00 00 00 00 00 00 00 00 00 00 00 00
       0.0 0.0 0.0 0.0
0001a0 00 00 00 00 00 00 00 00 00 00 00 00 00 00 00 00
       0.0 0.0 0.0 0.0
0001b0 00 00 00 00 00 00 00 00 00 00 00 00 00 00 00 00
       0.0 0.0 0.0 0.0
0001c0 00 00 00 00 00 00 00 00 00 00 00 00 00 00 00 00
       0.0 0.0 0.0 0.0
0001d0 00 00 00 00 00 00 00 00 00 00 00 00 00 00 00 00
       0.0 0.0 0.0 0.0
0001e0 00 00 00 00 00 00 00 00 00 00 00 00 00 00 00 00
       0.0 0.0 0.0 0.0
0001f0 00 00 00 00 00 00 00 00 00 00 00 00 00 00 00 00
       0.0 0.0 0.0 0.0

c f4 [1, 1, 128]
000000 7a 27 ef 40 d2 59 00 41 eb 9b fb 40 fc a7 f9 40
       7.473569 8.021929 7.862783 7.801756
000010 87 e8 02 41 93 0d 02 41 b7 6a 01 41 04 2d fe 40
       8.181769 8.128314 8.088553 7.942995
000020 cf 92 fe 40 ae 48 f8 40 4b 8c f7 40 7c b5 f6 40
       7.955421 7.758872 7.7358756 7.709654
000030 a1 84 f3 40 41 cd e7 40 22 a8 e5 40 13 fc de 40
       7.60994 7.2438054 7.176774 6.968271
000040 66 38 d9 40 f7 32 c8 40 b4 5e c4 40 cc eb bf 40
       6.7881346 6.2562213 6.1365604 5.997534
000050 60 7f b2 40 eb ef b4 40 8b b7 a5 40 03 75 9d 40
       5.5780487 5.654287 5.178655 4.9205337
000060 75 bc 72 40 3a c4 3e 40 27 03 17 40 07 86 fc 3d
       3.7927525 2.9807267 2.3595674 0.12330251
000070 8a 2d e1 be e8 09 36 be 1a 54 24 bf 35 df 3d bf
       -0.43980056 -0.17777216 -0.6419083 -0.7416871
000080 9f 35 f6 be f2 ae b7 be d4 10 14 bf 83 09 31 bf
       -0.48087785 -0.3587566 -0.5783818 -0.6915514
000090 9e a1 75 bf cc 5e 41 bf 5d 71 37 bf ca 03 31 bf
       -0.95949733 -0.75535274 -0.71657354 -0.69146407
0000a0 23 35 3b bf 44 69 3a bf 1a c8 27 bf 87 15 5c bf
       -0.73127955 -0.7281687 -0.65539706 -0.8597035
0000b0 8b f4 5b bf f7 7d 71 bf fa 7a 62 bf 61 da 36 bf
       -0.8592002 -0.9433283 -0.884689 -0.7142697
0000c0 7f 42 49 bf 9a 72 49 bf d4 f1 34 bf c1 52 7d bf
       -0.7861709 -0.78690493 -0.706815 -0.989544
0000d0 ce 44 88 bf e4 ce 47 bf e5 41 7d bf 85 fe 71 bf
       -1.0645998 -0.78050065 -0.9892867 -0.9452899
0000e0 c7 08 55 bf 61 9e 44 bf 34 be 2b bf 8c e1 4c bf
       -0.8321652 -0.7680417 -0.670871 -0.8003166
0000f0 11 ce 44 bf 81 7f 48 bf d2 34 50 bf 8f 39 3e bf
       -0.7687693 -0.78319556 -0.813306 -0.7430658
000100 53 c8 27 bf 2b 36 ff be d4 a2 41 bf bb d1 21 bf
       -0.65540045 -0.49846014 -0.7563908 -0.6321065
000110 cb 19 48 bf 5a ad 1e bf 7e a9 3b bf 26 69 32 bf
       -0.78164357 -0.61983263 -0.733055 -0.69691694
000120 9f f9 7f bf 53 d4 83 bf 46 95 99 bf ad 3e 7b bf
       -0.99990267 -1.0299171 -1.199868 -0.9814251
000130 61 4f 77 bf c9 04 80 bf b9 b0 80 bf 06 1e 8e bf
       -0.966055 -1.000146 -1.0053931 -1.1102912
000140 87 37 74 bf 63 27 92 bf c2 4c 8d bf 63 a0 ab bf
       -0.9539723 -1.141827 -1.103905 -1.3408321
000150 1b db b5 bf 14 75 cb bf 87 3e c7 bf 78 55 a0 bf
       -1.4207491 -1.5895104 -1.5565957 -1.2526083
000160 b1 23 d8 bf d1 89 d0 bf d6 9e a2 bf f7 27 df bf
       -1.6885892 -1.6292058 -1.2704723 -1.7434071
000170 2d 54 c8 bf 97 88 42 be 00 00 00 00 00 00 00 00
       -1.5650688 -0.18997417 0.0 0.0
000180 00 00 00 00 00 00 00 00 00 00 00 00 00 00 00 00
       0.0 0.0 0.0 0.0
000190 00 00 00 00 00 00 00 00 00 00 00 00 00 00 00 00
       0.0 0.0 0.0 0.0
0001a0 00 00 00 00 00 00 00 00 00 00 00 00 00 00 00 00
       0.0 0.0 0.0 0.0
0001b0 00 00 00 00 00 00 00 00 00 00 00 00 00 00 00 00
       0.0 0.0 0.0 0.0
0001c0 00 00 00 00 00 00 00 00 00 00 00 00 00 00 00 00
       0.0 0.0 0.0 0.0
0001d0 00 00 00 00 00 00 00 00 00 00 00 00 00 00 00 00
       0.0 0.0 0.0 0.0
0001e0 00 00 00 00 00 00 00 00 00 00 00 00 00 00 00 00
       0.0 0.0 0.0 0.0
0001f0 00 00 00 00 00 00 00 00 00 00 00 00 00 00 00 00
       0.0 0.0 0.0 0.0

d f4 [1, 1, 128]
000000 a8 c8 ac 40 d3 68 86 3f d2 3b 5f 3f b6 cb 5f be
       5.399494 1.050074 0.87200654 -0.21855053
000010 dd 41 85 bf 05 8f aa bf f4 3c f2 bf ab 9c 11 c0
       -1.0410725 -1.3324896 -1.8924851 -2.2751873
000020 f4 ef 39 c0 23 bd 57 c0 1f 07 89 c0 05 d0 ae c0
       -2.9052706 -3.370919 -4.2821193 -5.462893
000030 2b b1 cd c0 f4 86 d0 c0 ec 1f e6 c0 b6 61 f6 c0
       -6.427877 -6.516474 -7.1913967 -7.6994276
000040 76 ce 02 c1 f3 d4 09 c1 b4 c7 0d c1 20 03 13 c1
       -8.1754055 -8.61449 -8.861256 -9.188263
000050 30 5d 14 c1 10 45 1c c1 67 bc 22 c1 e3 ab 23 c1
       -9.272751 -9.766861 -10.170997 -10.229465
000060 81 26 25 c1 4e bd 27 c1 ae 97 28 c1 2e 90 28 c1
       -10.3219 -10.483717 -10.537031 -10.5352
000070 6d 5b 29 c1 6a e3 2c c1 ff 75 2d c1 c2 b2 2f c1
       -10.584821 -10.805521 -10.841308 -10.981142
000080 93 84 30 c1 66 65 30 c1 6e 34 30 c1 01 2d 30 c1
       -11.032367 -11.0247555 -11.0128 -11.010987
000090 e3 94 31 c1 93 40 33 c1 b2 1b 33 c1 3c 2e 35 c1
       -11.098849 -11.203265 -11.194262 -11.323788
0000a0 21 d5 36 c1 93 89 38 c1 74 c7 3a c1 57 9c 3b c1
       -11.427033 -11.533587 -11.673695 -11.725669
0000b0 4f 59 3c c1 7d 4f 3c c1 e9 6a 3b c1 40 ba 3d c1
       -11.771804 -11.769406 -11.713601 -11.857971
0000c0 8c fb 3f c1 6d 8f 44 c1 cf 11 4a c1 ee 8e 4b c1
       -11.998913 -12.285016 -12.629348 -12.722395
0000d0 7c 4d 4b c1 e8 a7 4a c1 59 00 49 c1 e2 81 48 c1
       -12.706417 -12.665993 -12.562585 -12.53171
0000e0 87 b8 48 c1 df c8 48 c1 4d 0b 4a c1 a9 10 4a c1
       -12.545051 -12.549041 -12.627759 -12.629067
0000f0 71 61 4a c1 aa db 4a c1 36 a6 4a c1 a8 6b 4b c1
       -12.648789 -12.678629 -12.665579 -12.713783
000100 bc 47 4b c1 b7 c1 4b c1 b7 36 4b c1 bf f4 4a c1
       -12.705013 -12.734794 -12.700858 -12.684752
000110 89 d3 4a c1 2f 57 4b c1 ea bf 4a c1 d6 57 4b c1
       -12.676644 -12.708785 -12.671854 -12.708944
000120 8e 29 4b c1 7b 4f 4c c1 d2 d2 4b c1 bc 16 4c c1
       -12.697645 -12.769404 -12.73897 -12.75555
000130 54 02 4c c1 89 6d 4c c1 93 05 4d c1 3c 0e 4d c1
       -12.750568 -12.776742 -12.813861 -12.815975
000140 ef 08 4e c1 23 0d 4e c1 38 7a 4e c1 ed fe 4e c1
       -12.877181 -12.878207 -12.904839 -12.937238
000150 bb c6 4f c1 db 86 50 c1 9b 83 51 c1 1c ff 52 c1
       -12.986018 -13.032924 -13.09463 -13.187283
000160 56 74 55 c1 db 91 58 c1 92 7e 59 c1 96 4f 59 c1
       -13.340902 -13.535609 -13.593401 -13.58193
000170 b7 97 59 c1 4b 4c 57 c1 00 00 00 00 00 00 00 00
       -13.59954 -13.456126 0.0 0.0
000180 00 00 00 00 00 00 00 00 00 00 00 00 00 00 00 00
       0.0 0.0 0.0 0.0
000190 00 00 00 00 00 00 00 00 00 00 00 00 00 00 00 00
       0.0 0.0 0.0 0.0
0001a0 00 00 00 00 00 00 00 00 00 00 00 00 00 00 00 00
       0.0 0.0 0.0 0.0
0001b0 00 00 00 00 00 00 00 00 00 00 00 00 00 00 00 00
       0.0 0.0 0.0 0.0
0001c0 00 00 00 00 00 00 00 00 00 00 00 00 00 00 00 00
       0.0 0.0 0.0 0.0
0001d0 00 00 00 00 00 00 00 00 00 00 00 00 00 00 00 00
       0.0 0.0 0.0 0.0
0001e0 00 00 00 00 00 00 00 00 00 00 00 00 00 00 00 00
       0.0 0.0 0.0 0.0
0001f0 00 00 00 00 00 00 00 00 00 00 00 00 00 00 00 00
       0.0 0.0 0.0 0.0

e f4 [1, 1, 128]
000000 c4 96 5f c0 e3 c0 32 c0 a1 a1 90 c0 1e 0f b5 c0
       -3.493577 -2.7930229 -4.51973 -5.6580954
000010 be d0 c8 c0 5b 72 cd c0 f3 9c cb c0 e0 cb c5 c0
       -6.275481 -6.4202094 -6.362909 -6.181137
000020 3f ec 58 c0 79 fd 4c c0 14 f8 46 c0 f8 ea 38 c0
       -3.3894193 -3.2029707 -3.1088915 -2.8893414
000030 74 e3 60 c0 95 75 98 c0 54 1a b7 c0 4c 73 dd c0
       -3.5138826 -4.7643533 -5.721964 -6.9203243
000040 0c fb 04 c1 b1 e8 11 c1 23 82 16 c1 0f 8f 1b c1
       -8.311291 -9.119309 -9.406772 -9.722426
000050 42 5d 1c c1 e2 69 21 c1 ee 7e 24 c1 b1 41 26 c1
       -9.772768 -10.08835 -10.280989 -10.391038
000060 d0 8e 29 c1 e2 17 2d c1 74 48 2e c1 bb 2f 2f c1
       -10.597366 -10.818331 -10.892689 -10.949153
000070 cf eb 2f c1 43 9a 33 c1 03 be 33 c1 be 7f 35 c1
       -10.99507 -11.225162 -11.23389 -11.343687
000080 2d fb 35 c1 ae b5 35 c1 9a 70 35 c1 6c 1a 35 c1
       -11.373822 -11.356855 -11.339991 -11.318951
000090 b7 a7 36 c1 89 1f 38 c1 d9 00 38 c1 e9 37 3a c1
       -11.415946 -11.507699 -11.500207 -11.63865
0000a0 1f b4 3b c1 d2 5c 3d c1 96 3b 3f c1 6b 1e 40 c1
       -11.731475 -11.835161 -11.952047 -12.007426
0000b0 83 7d 40 c1 e1 3c 40 c1 45 42 3f c1 67 39 41 c1
       -12.0306425 -12.014863 -11.953679 -12.076514
0000c0 e9 9c 43 c1 9d c8 47 c1 9f 24 4d c1 b9 ad 4e c1
       -12.225808 -12.486478 -12.821441 -12.917413
0000d0 96 55 4e c1 f4 b6 4d c1 fd 11 4c c1 88 7c 4b c1
       -12.895895 -12.857166 -12.754392 -12.717903
0000e0 4a bc 4b c1 d1 c3 4b c1 94 e6 4c c1 6e ee 4c c1
       -12.733469 -12.735307 -12.8062935 -12.80821
0000f0 25 1e 4d c1 31 8d 4d c1 24 4b 4d c1 ab 04 4e c1
       -12.8198595 -12.846971 -12.830845 -12.87614
000100 f9 d3 4d c1 0d 23 4e c1 a1 93 4d c1 88 16 4d c1
       -12.864251 -12.883557 -12.848542 -12.818001
000110 c8 08 4d c1 6e 5f 4d c1 f0 df 4c c1 17 7f 4d c1
       -12.814644 -12.835798 -12.804672 -12.843528
000120 08 4f 4d c1 db 6e 4e c1 db f3 4d c1 29 2e 4e c1
       -12.831795 -12.902064 -12.872035 -12.88627
000130 4c 16 4e c1 51 87 4e c1 c5 11 4f c1 10 27 4f c1
       -12.880444 -12.908036 -12.941838 -12.947037
000140 ed 11 50 c1 e4 0e 50 c1 d6 6a 50 c1 cd e6 50 c1
       -13.004376 -13.003635 -13.026083 -13.056348
000150 57 9f 51 c1 45 59 52 c1 65 4c 53 c1 42 b6 54 c1
       -13.101401 -13.146794 -13.206151 -13.294497
000160 a2 28 57 c1 97 3a 5a c1 06 21 5b c1 d2 f0 5a c1
       -13.44742 -13.639304 -13.695562 -13.683794
000170 a2 36 5b c1 d7 93 58 c1 00 00 00 00 00 00 00 00
       -13.700838 -13.536094 0.0 0.0
000180 00 00 00 00 00 00 00 00 00 00 00 00 00 00 00 00
       0.0 0.0 0.0 0.0
000190 00 00 00 00 00 00 00 00 00 00 00 00 00 00 00 00
       0.0 0.0 0.0 0.0
0001a0 00 00 00 00 00 00 00 00 00 00 00 00 00 00 00 00
       0.0 0.0 0.0 0.0
0001b0 00 00 00 00 00 00 00 00 00 00 00 00 00 00 00 00
       0.0 0.0 0.0 0.0
0001c0 00 00 00 00 00 00 00 00 00 00 00 00 00 00 00 00
       0.0 0.0 0.0 0.0
0001d0 00 00 00 00 00 00 00 00 00 00 00 00 00 00 00 00
       0.0 0.0 0.0 0.0
0001e0 00 00 00 00 00 00 00 00 00 00 00 00 00 00 00 00
       0.0 0.0 0.0 0.0
0001f0 00 00 00 00 00 00 00 00 00 00 00 00 00 00 00 00
       0.0 0.0 0.0 0.0

onnx::STFT_463 f4 [2048]
000000 00 00 00 00 00 00 1e 36 00 00 1e 37 00 c0 b1 37
       0.0 2.3543835e-06 9.417534e-06 2.1189451e-05
000010 00 e0 1d 38 00 c0 76 38 00 a0 b1 38 00 d0 f1 38
       3.7640333e-05 5.8829784e-05 8.46982e-05 0.000115305185
000020 00 e8 1d 39 00 d8 47 39 00 b8 76 39 00 44 95 39
       0.00015059114 0.00019058585 0.00023528934 0.0002847016
000030 00 a4 b1 39 00 78 d0 39 00 c4 f1 39 00 c4 0a 3a
       0.0003388226 0.00039762259 0.00046113133 0.00052934885
000040 00 e2 1d 3a 00 3a 32 3a 00 d0 47 3a 00 9e 5e 3a
       0.00060227513 0.0006798804 0.0007622242 0.0008492172
000050 00 aa 76 3a 00 f8 87 3a 00 39 95 3a 00 17 a3 3a
       0.0009409487 0.0010373592 0.0011384785 0.0012442768
000060 00 93 b1 3a 00 ac c0 3a 00 63 d0 3a 00 b7 e0 3a
       0.0013547838 0.0014699697 0.0015898645 0.0017144382
000070 00 a8 f1 3a 80 9b 01 3b 80 b1 0a 3b 00 16 14 3b
       0.0018436909 0.0019776523 0.0021162927 0.002259612
000080 80 c9 1d 3b 80 cb 27 3b 80 1b 32 3b 80 ba 3c 3b
       0.0024076402 0.0025603473 0.0027177036 0.0028797686
000090 00 a8 47 3b 00 e4 52 3b 80 6e 5e 3b 00 47 6a 3b
       0.0030465126 0.0032179356 0.0033940375 0.0035747886
0000a0 80 6e 76 3b 00 72 81 3b c0 d3 87 3b 00 5d 8e 3b
       0.0037602484 0.0039503574 0.0041451156 0.0043445826
0000b0 40 0d 95 3b 80 e4 9b 3b 00 e3 a2 3b 80 08 aa 3b
       0.0045486987 0.004757464 0.004970908 0.0051890016
0000c0 00 55 b1 3b c0 c8 b8 3b 40 63 c0 3b 00 25 c8 3b
       0.005411744 0.0056391656 0.0058712065 0.0061079264
0000d0 c0 0d d0 3b 80 1d d8 3b 00 54 e0 3b 80 b1 e8 3b
       0.0063492954 0.0065953135 0.006845951 0.007101238
0000e0 00 36 f1 3b 80 e1 f9 3b e0 59 01 3c 60 d6 05 3c
       0.0073611736 0.0076257586 0.007894963 0.008168787
0000f0 60 66 0a 3c c0 09 0f 3c 80 c0 13 3c a0 8a 18 3c
       0.00844726 0.008730352 0.009018064 0.0093103945
000100 20 68 1d 3c 20 59 22 3c 40 5d 27 3c e0 74 2c 3c
       0.009607345 0.009908944 0.010215104 0.010525912
000110 c0 9f 31 3c 00 de 36 3c 80 2f 3c 3c 40 94 41 3c
       0.01084131 0.011161327 0.011485934 0.011815131
000120 60 0c 47 3c a0 97 4c 3c 40 36 52 3c 00 e8 57 3c
       0.0121489465 0.012487322 0.012830317 0.013177872
000130 00 ad 5d 3c 40 85 63 3c a0 70 69 3c 40 6f 6f 3c
       0.013530016 0.01388675 0.014248043 0.014613926
000140 00 81 75 3c e0 a5 7b 3c 00 ef 80 3c 90 14 84 3c
       0.014984369 0.015359372 0.015738964 0.016123086
000150 b0 43 87 3c 50 7c 8a 3c 90 be 8d 3c 50 0a 91 3c
       0.016511768 0.01690498 0.017302781 0.017705113
000160 90 5f 94 3c 50 be 97 3c 90 26 9b 3c 60 98 9e 3c
       0.018111974 0.018523365 0.018939286 0.019359767
000170 a0 13 a2 3c 50 98 a5 3c 90 26 a9 3c 30 be ac 3c
       0.019784749 0.02021423 0.02064827 0.021086782
000180 50 5f b0 3c e0 09 b4 3c e0 bd b7 3c 50 7b bb 3c
       0.021529824 0.021977365 0.022429407 0.022885948
000190 30 42 bf 3c 70 12 c3 3c 10 ec c6 3c 20 cf ca 3c
       0.02334699 0.023812503 0.024282485 0.024756968
0001a0 90 bb ce 3c 50 b1 d2 3c 80 b0 d6 3c 00 b9 da 3c
       0.025235921 0.025719315 0.026207209 0.026699543
0001b0 e0 ca de 3c 00 e6 e2 3c 90 0a e7 3c 60 38 eb 3c
       0.027196348 0.027697563 0.028203279 0.028713405
0001c0 80 6f ef 3c e0 af f3 3c a0 f9 f7 3c 90 4c fc 3c
       0.029227972 0.02974695 0.030270398 0.030798227
0001d0 68 54 00 3d 28 87 02 3d 80 be 04 3d 80 fa 06 3d
       0.031330496 0.031867176 0.032408237 0.03295374
0001e0 10 3b 09 3d 40 80 0b 3d 10 ca 0d 3d 70 18 10 3d
       0.033503592 0.034057856 0.03461653 0.035179555
0001f0 68 6b 12 3d f8 c2 14 3d 18 1f 17 3d c8 7f 19 3d
       0.03574696 0.03631875 0.036894888 0.037475377
000200 10 e5 1b 3d e0 4e 1e 3d 40 bd 20 3d 28 30 23 3d
       0.038060248 0.03864944 0.039242983 0.039840847
000210 a0 a7 25 3d a8 23 28 3d 28 a4 2a 3d 38 29 2d 3d
       0.040443063 0.04104963 0.041660458 0.042275637
000220 d0 b2 2f 3d e0 40 32 3d 78 d3 34 3d 90 6a 37 3d
       0.04289514 0.0435189 0.044146985 0.04477936
000230 28 06 3a 3d 38 a6 3c 3d c0 4a 3f 3d c8 f3 41 3d
       0.045416027 0.046056956 0.046702147 0.04735163
000240 40 a1 44 3d 38 53 47 3d a0 09 4a 3d 78 c4 4c 3d
       0.048005342 0.048663348 0.049325585 0.049992055
000250 c0 83 4f 3d 80 47 52 3d a8 0f 55 3d 38 dc 57 3d
       0.050662756 0.05133772 0.052016884 0.05270025
000260 38 ad 5a 3d a0 82 5d 3d 68 5c 60 3d a0 3a 63 3d
       0.05338785 0.05407965 0.054775625 0.05547583
000270 38 1d 66 3d 28 04 69 3d 80 ef 6b 3d 38 df 6e 3d
       0.05618021 0.05688873 0.057601452 0.058318347
000280 48 d3 71 3d b0 cb 74 3d 70 c8 77 3d 88 c9 7a 3d
       0.059039384 0.059764564 0.060493886 0.06122735
000290 f8 ce 7d 3d 5c 6c 80 3d 64 f3 81 3d 94 7c 83 3d
       0.06196496 0.06270668 0.06345251 0.06420246
0002a0 ec 07 85 3d 68 95 86 3d 08 25 88 3d cc b6 89 3d
       0.064956516 0.06571466 0.06647688 0.06724319
0002b0 b4 4a 8b 3d bc e0 8c 3d e8 78 8e 3d 30 13 90 3d
       0.06801358 0.06878802 0.06956655 0.0703491
0002c0 98 af 91 3d 1c 4e 93 3d c0 ee 94 3d 80 91 96 3d
       0.0711357 0.071926326 0.072721004 0.07351971
0002d0 58 36 98 3d 4c dd 99 3d 58 86 9b 3d 7c 31 9d 3d
       0.0743224 0.07512912 0.075939834 0.07675454
0002e0 b4 de 9e 3d 04 8e a0 3d 6c 3f a2 3d e4 f2 a3 3d
       0.07757321 0.07839587 0.07922253 0.08005312
0002f0 6c a8 a5 3d 08 60 a7 3d b8 19 a9 3d 70 d5 aa 3d
       0.080887645 0.081726134 0.082568586 0.08341491
000300 3c 93 ac 3d 14 53 ae 3d f8 14 b0 3d e4 d8 b1 3d
       0.0842652 0.0851194 0.085977495 0.08683947
000310 e0 9e b3 3d e0 66 b5 3d e8 30 b7 3d f8 fc b8 3d
       0.087705374 0.088575125 0.08944875 0.09032625
000320 0c cb ba 3d 28 9b bc 3d 44 6d be 3d 64 41 c0 3d
       0.09120759 0.09209281 0.092981845 0.09387472
000330 84 17 c2 3d a4 ef c3 3d c0 c9 c5 3d e0 a5 c7 3d
       0.094771415 0.09567192 0.096576214 0.09748435
000340 f8 83 c9 3d 0c 64 cb 3d 1c 46 cd 3d 24 2a cf 3d
       0.09839624 0.09931192 0.10023138 0.101154596
000350 20 10 d1 3d 18 f8 d2 3d 04 e2 d4 3d e4 cd d6 3d
       0.10208154 0.103012264 0.103946716 0.10488489
000360 b8 bb d8 3d 80 ab da 3d 30 9d dc 3d d8 90 de 3d
       0.105826795 0.10677242 0.10772169 0.108674705
000370 6c 86 e0 3d ec 7d e2 3d 5c 77 e4 3d b4 72 e6 3d
       0.10963139 0.11059174 0.111555785 0.11252347
000380 f4 6f e8 3d 1c 6f ea 3d 2c 70 ec 3d 24 73 ee 3d
       0.11349478 0.11446974 0.115448326 0.11643055
000390 00 78 f0 3d bc 7e f2 3d 60 87 f4 3d e0 91 f6 3d
       0.11741638 0.11840579 0.11939883 0.12039542
0003a0 40 9e f8 3d 7c ac fa 3d 9c bc fc 3d 94 ce fe 3d
       0.12139559 0.1223993 0.12340662 0.124417454
0003b0 32 71 00 3e 08 7c 01 3e ca 87 02 3e 76 94 03 3e
       0.1254318 0.1264497 0.12747112 0.12849602
0003c0 0e a2 04 3e 90 b0 05 3e fc bf 06 3e 50 d0 07 3e
       0.12952444 0.13055634 0.13159174 0.13263059
0003d0 8c e1 08 3e ae f3 09 3e b8 06 0b 3e a8 1a 0c 3e
       0.1336729 0.13471863 0.13576782 0.13682044
0003e0 7c 2f 0d 3e 38 45 0e 3e d6 5b 0f 3e 58 73 10 3e
       0.13787645 0.13893592 0.13999876 0.141065
0003f0 bc 8b 11 3e 02 a5 12 3e 28 bf 13 3e 32 da 14 3e
       0.1421346 0.14320758 0.14428389 0.1453636

onnx::Mul_480 f4 [1, 1, 1460]
000000 2e 39 7b 3b 65 ec fb 3c 94 b0 55 3c ad cc b6 3c
       0.0038333642 0.03075237 0.013042588 0.022314394
000010 02 f8 af 3c ec 59 63 3c ba 17 f5 3c f7 34 b2 3b
       0.021480564 0.0138764195 0.02991854 0.005438443
000020 d3 93 44 3b 3f 89 04 3d 65 64 3b 3c c6 f2 c3 3c
       0.0029995337 0.03235745 0.01143751 0.023919474
000030 ea d1 a2 3c 1b a6 7d 3c a2 f1 e7 3c 56 cd e6 3b
       0.019875485 0.015481497 0.028313462 0.007043521
000040 26 c6 b6 3a 4b 1c 0b 3d 35 18 21 3c dd 18 d1 3c
       0.0013944551 0.03396253 0.009832432 0.025524551
000050 d3 ab 95 3c 25 f9 8b 3c 8a cb da 3c db b2 0d 3c
       0.018270409 0.017086575 0.026708383 0.0086485995
000060 a1 f5 0f 3d bd da 5c 39 05 cc 06 3c f5 3e de 3c
       0.03514636 0.00021062321 0.008227353 0.02712963
000070 ba 85 88 3c 3d 1f 99 3c 72 a5 cd 3c 0a ff 27 3c
       0.016665328 0.018691653 0.025103305 0.010253677
000080 95 62 09 3d d6 fc ed 3a ab ff d8 3b 0d 65 eb 3c
       0.03354128 0.0018157016 0.006622275 0.028734708
000090 45 bf 76 3c 56 45 a6 3c 5a 7f c0 3c 3a 4b 42 3c
       0.015060251 0.020296734 0.023498226 0.011858756
0000a0 89 cf 02 3d 2a 2f 60 3b 4a 67 a4 3b 25 8b f8 3c
       0.031936202 0.00342078 0.005017196 0.030339787
0000b0 15 73 5c 3c 6d 6b b3 3c 43 59 b3 3c 6a 97 5c 3c
       0.013455172 0.02190181 0.02189315 0.013463834
0000c0 fb 78 f8 3c f4 af a4 3b d6 9d 5f 3b 9e d8 02 3d
       0.030331125 0.005025858 0.0034121177 0.031944863
0000d0 e6 26 42 3c 85 91 c0 3c 2a 33 a6 3c 9a e3 76 3c
       0.011850094 0.02350689 0.020288069 0.015068913
0000e0 e2 52 eb 3c 54 48 d9 3b 2e da ec 3a aa 6b 09 3d
       0.028726045 0.0066309366 0.0018070394 0.033549942
0000f0 b6 da 27 3c 9d b7 cd 3c 13 0d 99 3c e5 97 88 3c
       0.010245016 0.025111968 0.018682992 0.016673991
000100 cb 2c de 3c 5a f0 06 3c 83 c5 53 39 b6 fe 0f 3d
       0.027120968 0.008236015 0.00020196107 0.03515502
000110 86 8e 0d 3c b5 dd da 3c fb e6 8b 3c fd bd 95 3c
       0.008639937 0.026717046 0.017077914 0.01827907
000120 b3 06 d1 3c 8a 3c 21 3c 35 13 0b 3d ce e8 b7 3a
       0.02551589 0.009841094 0.033953864 0.0014031173
000130 ac 84 e6 3b cc 03 e8 3c c6 81 7d 3c 14 e4 a2 3c
       0.0070348587 0.028322123 0.015472835 0.019884147
000140 9a e0 c3 3c b9 88 3b 3c 29 80 04 3d b9 f6 44 3b
       0.02391081 0.011446171 0.032348786 0.0030054285
000150 4d ec b1 3b 29 f0 f4 3c 99 a5 63 3c ff 6c ab 3c
       0.0054297806 0.029899674 0.013894462 0.020925997
000160 9f 8f b7 3c 81 d1 3e 3c 7c 00 fc 3c 18 a8 1d 3b
       0.022407351 0.011646629 0.03076195 0.002405649
000170 22 a7 ef 3b 20 46 ce 3c 7f c7 8b 3c e1 33 72 3c
       0.007313625 0.025179923 0.0170629 0.014782877
000180 0f c9 d9 3c aa d0 97 3b 2a 66 bb 3b c2 f9 cb 3c
       0.02658513 0.004633029 0.005718966 0.024899367
000190 9d 6c 84 3c 04 61 63 3c 8b 1d d7 3c ab 47 53 3b
       0.016165072 0.013878111 0.026259204 0.0032238762
0001a0 8a 03 fc 3b 37 26 ae 3c 56 48 97 3c 0b 49 23 3c
       0.0076908516 0.021258457 0.01846711 0.009966145
0001b0 a2 49 79 3a 97 02 dd 3c cc 20 49 3c 3d aa 78 3c
       0.00095095683 0.026978774 0.012275886 0.015177307
0001c0 30 2e bd 3c b1 0d 7f 3b 67 f5 f5 3b dd e6 9b 3c
       0.023093313 0.0038918073 0.007506061 0.019030983
0001d0 93 2c 99 3c 41 9e f2 3b 5f e0 82 3b 9c a5 b1 3c
       0.018698012 0.0074041192 0.0039940323 0.021685414
0001e0 8f 52 7d 3c 28 c5 20 3c f0 82 d0 3a 78 bf be 3c
       0.015461578 0.009812631 0.0015908163 0.023284659
0001f0 51 04 59 3c 7b 56 38 3c 6c b7 28 39 25 47 c4 3c
       0.013245658 0.011251087 0.00016090058 0.023959706
000200 dc 5e 43 3c f6 00 42 3c 7a a4 bc 3c a8 2f c9 39
       0.011924472 0.011841049 0.023027647 0.00038373214
000210 20 83 3a 3c 69 93 3f 3c 8b 5a b8 3c 99 d4 79 39
       0.011383802 0.01169286 0.022504112 0.0002382569
000220 b6 be 3c 3c 58 b1 32 3c 66 85 0c 3a af bd b0 3c
       0.011520078 0.01090654 0.0005360454 0.021574823
000230 43 88 48 3c 79 d6 1c 3c 32 24 f6 3a 74 dc a0 3c
       0.012239519 0.009572619 0.0018779098 0.01963637
000240 29 7c 5c 3c db b3 fe 3b 78 5c 71 3b 3a 72 8d 3c
       0.013457336 0.0077729053 0.0036828797 0.017266382
000250 6b 59 77 3c 85 e2 b6 3b 0d 8f c0 3b 6c 2b 6e 3c
       0.0150970025 0.0055812025 0.005876428 0.01453672
000260 71 ff 8b 3c c0 cc 48 3b 7d 7c 09 3c d8 9c 3c 3c
       0.017089577 0.0030639619 0.008391497 0.011512004
000270 44 b4 9e 3c 3d 45 93 39 76 f9 36 3c ee 2b 07 3c
       0.019373067 0.0002808961 0.011167875 0.00825022
000280 8e 29 42 3b d9 de 84 3c 34 dc 67 3c c9 64 9d 3b
       0.002962682 0.016219543 0.014151622 0.0048032743
000290 9d 16 d2 3b 0b de 49 3c 49 ad 8d 3c f0 94 9f 3a
       0.006411387 0.012321006 0.017294543 0.0012175124
0002a0 55 b9 23 3c 7d 23 08 3c 64 60 30 3b 5d 54 7c 3c
       0.009992917 0.008309242 0.0026912922 0.015400973
0002b0 98 e6 5f 3c 02 6a 8a 3b 8e 19 de 3b 59 d0 32 3c
       0.013665818 0.004224063 0.0067779487 0.010913932
0002c0 7e 7c 8e 3c 2e 35 d3 38 3e 84 32 3c 7d 17 d2 3b
       0.017393347 0.000100711695 0.010895787 0.0064114914
0002d0 00 1f 90 3b 12 71 50 3c fd fb 75 3c 10 1c fc 3a
       0.0043982267 0.012722271 0.015013692 0.0019234437
0002e0 8e 8f 11 3c eb 0c 01 3c 81 8c 34 3b 54 96 62 3c
       0.008884324 0.007876615 0.0027549567 0.013829786
0002f0 ff 45 5a 3c f8 9d 4a 3b b9 14 f7 3b fb a9 0e 3c
       0.013322352 0.003091691 0.007540312 0.008707519
000300 d6 75 e6 3a 78 ac 6a 3c a6 76 48 3c 96 9b 71 3b
       0.0017582725 0.014323346 0.012235319 0.0036866418
000310 88 32 de 3b a3 32 13 3c 0d df ad 3a 62 fe 69 3c
       0.006780926 0.008984241 0.0013265327 0.014281841
000320 ea 4d 3f 3c aa db 77 3b cf 01 d6 3b 8d d7 0f 3c
       0.011676291 0.003782014 0.0065309773 0.008779419
000330 27 9f b5 3a 2f b8 61 3c 79 a9 3d 3c b1 bf 61 3b
       0.0013856635 0.013776823 0.01157605 0.0034446532
000340 c1 46 dc 3b cc ac 05 3c 42 ea f4 3a ac e9 52 3c
       0.0067223017 0.008158874 0.0018685537 0.0128730945
000350 5b 82 42 3c 1a 3f 33 3b c2 fb ee 3b 64 58 eb 3b
       0.0118718995 0.0027350844 0.0072931955 0.007182168
000360 99 e5 31 3b 9e 88 3e 3c ba ea 4c 3c c1 df df 3a
       0.0027144908 0.011629252 0.012507135 0.0017080234
000370 7e 26 06 3c db 6e c1 3b 0a 89 7d 3b e3 72 25 3c
       0.008187888 0.0059031076 0.0038686418 0.010098192
000380 d3 0b 5c 3c 00 74 d8 39 2c 4a 19 3c 08 34 8f 3b
       0.0134305535 0.00041285157 0.009356063 0.0043702163
000390 08 11 ad 3b 68 70 08 3c e4 36 9e 3a cc 46 49 3c
       0.0052815713 0.008327581 0.0012070802 0.012284946
0003a0 d7 2a 30 3c 95 2c 2c 3b 2f 63 e2 3b f0 69 d0 3b
       0.010752401 0.002627169 0.0069087963 0.006360285
0003b0 5e e1 48 3b ca 5e 25 3c aa 1d 4a 3c c7 f5 3a 3a
       0.0030651907 0.0100934 0.012336174 0.00071319606
0003c0 f2 b5 0e 3c d4 c3 8a 3b 75 9c a6 3b ef 28 fe 3b
       0.008710371 0.0042347703 0.005084569 0.0077563445
0003d0 14 34 bf 3a 05 c7 38 3c 7d 7f 2e 3c bb 1e 02 3b
       0.0014587664 0.011277919 0.010650513 0.0019854743
0003e0 11 eb ec 3b 7d ea ad 3b 50 ae 79 3b ce 62 0d 3c
       0.0072301705 0.005307494 0.0038098283 0.008629514
0003f0 f7 33 cc 39 5e d0 43 3c 0f 2b 1b 3c fc fc 35 3b
       0.0003894863 0.011951534 0.009470715 0.0027769199
